examples/player_template_py/models/actor_397k.pkl (torch, 276895 bytes, 6 tensors)

input_linear.weight f4 [256, 7]
0	0xbd529a3a	-0.051416613
1	0xbd1de008	-0.03854373
2	0xbd38e462	-0.045139678
3	0xbc42f690	-0.011899605
4	0xbd34bfb4	-0.044128135
5	0x3c224780	0.009904742
6	0xbd60d454	-0.054889992
7	0xbc0ca0e0	-0.008583277
8	0x3c2217f0	0.009893402
9	0x3ca0d7e4	0.019634195
10	0xbcef8568	-0.029238418
11	0x3d78669a	0.060644723
12	0xbd5aa224	-0.053377286
13	0x3ac099c0	0.0014694259
14	0x3c746bf0	0.014918312
15	0x3d6ba8f6	0.05753418
16	0x3d626a36	0.055277072
17	0xbc4db128	-0.012554444
18	0x3d2d425c	0.042299613
19	0x3ced8908	0.028996006
20	0xbd34ea30	-0.04416865
21	0xbcefe06e	-0.029281821
22	0xbd753c6f	-0.059872087
23	0xbdabc749	-0.0838762
24	0x3f42fa93	0.76163596
25	0x3e0d2956	0.137853
26	0x3ceebf8a	0.029144067
27	0x3e008c41	0.12553503
28	0xbe090fca	-0.1338493
29	0xbf0d554f	-0.55208296
30	0xbeee932b	-0.46596655
31	0xbd109fd1	-0.035308663
32	0x3f0e9eb2	0.557109
33	0xbd1db7dc	-0.03850542
34	0x3c06c2bd	0.00822514
35	0x3d36f420	0.04466641
36	0xbdec3f06	-0.11535458
37	0xbda245c9	-0.07923467
38	0x3f262be6	0.64910734
39	0x3deae56b	0.11469539
40	0x3d1dcca6	0.038525246
41	0x3e36cb0b	0.17850892
42	0xbd68114a	-0.056657113
43	0xbdb60cae	-0.08889137
44	0xbd93cecc	-0.07217178
45	0x3ef9a424	0.48758042
46	0x3d14afc5	0.03630044
47	0xbcf5094f	-0.029911665
48	0xbd024288	-0.03180173
49	0xbde9be1c	-0.114132136
50	0xbee96c54	-0.4559046
51	0xbe98e641	-0.2986317
52	0x3f43a850	0.764287
53	0x3eedb1de	0.46424764
54	0xbd508806	-0.050910972
55	0xbcde524f	-0.027138857
56	0x3dff10d4	0.124543816
57	0xbc8addf8	-0.016951546
58	0xbdc84d42	-0.09780361
59	0xbd7879d1	-0.06066305
60	0x3e059e74	0.13048726
61	0x3dc5c3e7	0.09656506
62	0xbc67541b	-0.014119173
63	0xbd3733a0	-0.044726968
64	0xbeb5794c	-0.35444105
65	0xbe725d1b	-0.2366833
66	0xbc224918	-0.009905122
67	0x3e780ec2	0.2422438
68	0x3bf5993d	0.007495074
69	0x3eb4a6f5	0.35283628
70	0xbd2fe070	-0.04293865
71	0x3d076c76	0.03306242
72	0xbd39c274	-0.04535146
73	0xbd0e8902	-0.03479863
74	0x3d7f7dbe	0.062375776
75	0x3d39f89a	0.0454031
76	0xbd16c9b2	-0.036813445
77	0xbddce947	-0.107866816
78	0xbeb4df82	-0.35326773
79	0xbe873dbd	-0.2641429
80	0x3f1996c7	0.5999569
81	0x3ec828bf	0.39093587
82	0x3d2a1ad6	0.0415295
83	0x3d76812d	0.060181785
84	0x3b55f8e8	0.003264958
85	0xbe0fdca1	-0.14049007
86	0xbc911b17	-0.017713113
87	0x3e934abb	0.28767952
88	0x3dcd149e	0.10013698
89	0x3e13b698	0.14425123
90	0xbe41c3ea	-0.18922392
91	0x3c0895f0	0.008336529
92	0xbcd1f0cc	-0.025627516
93	0x3d446368	0.047946364
94	0xbd587884	-0.052849308
95	0xbce9d624	-0.028544493
96	0x3c17fbb0	0.009276316
97	0x3cf51a20	0.029919684
98	0xbd871964	-0.0659664
99	0xbe35ee82	-0.17766765
100	0xbdef215a	-0.11676283
101	0x3f158eb3	0.58420867
102	0x3e371251	0.17878081
103	0x3d724385	0.059146423
104	0x3e43123a	0.19049922
105	0xbdc76bce	-0.09737359
106	0xbf018100	-0.50587463
107	0xbeeff573	-0.4686695
108	0xbd60caec	-0.05488102
109	0x3eec8a57	0.46199295
110	0xbd5a0d23	-0.053235184
111	0x3dde42b8	0.10852569
112	0x3e291bc2	0.16514495
113	0x3e1248a9	0.1428553
114	0x3d7b75a8	0.061391503
115	0xbda7f81c	-0.0820162
116	0xbde42014	-0.11138931
117	0x3d063367	0.032763865
118	0x3ada174f	0.0016639027
119	0x3c16c053	0.009201127
120	0xbead8c1a	-0.33895952
121	0xbed56d5d	-0.41685
122	0x3e42788b	0.18991296
123	0x3ecb6999	0.39729002
124	0xbcb316a2	-0.021861378
125	0x3e8b5513	0.27213344
126	0xbc239dd0	-0.009986356
127	0x3ce10a28	0.027470663
128	0xbc91c7dc	-0.017795496
129	0xbcf72978	-0.030171141
130	0xba521a00	-0.00080147386
131	0x3cd0b5e0	0.02547735
132	0xbbe9dfd0	-0.007137276
133	0xbd1087ff	-0.035285946
134	0xbd179fac	-0.03701751
135	0x3d57e5b9	0.052709315
136	0xbd6f28f7	-0.058388676
137	0x3b5411c1	0.0032359215
138	0x3d226c63	0.039654147
139	0xbd7581e2	-0.05993832
140	0x3d575209	0.05256847
141	0x3c39f0fb	0.011348958
142	0xbd2e00c7	-0.04248121
143	0xbce2a6b8	-0.027667388
144	0x3d33585b	0.043785434
145	0x3d59d1ac	0.053178474
146	0x3d36b095	0.044601995
147	0xbbfca8e0	-0.007710561
148	0x3c7949d8	0.01521536
149	0x3d48c238	0.049013346
150	0xbce45024	-0.027870245
151	0x3d5221aa	0.051301636
152	0x3ccd1284	0.025033243
153	0xbcfbad88	-0.030722395
154	0xbc843194	-0.016136922
155	0xbc160730	-0.009156987
156	0xbd20b680	-0.039236546
157	0x3b0ed820	0.00217963
158	0xbc20bf10	-0.009811178
159	0x3af0ee40	0.0018381551
160	0xbd7cf8b0	-0.061760604
161	0xbb96b570	-0.0045992658
162	0xbd4abbf2	-0.049495645
163	0xbca8d948	-0.02061142
164	0x3d1a1436	0.03761693
165	0xbd2b76a2	-0.041861184
166	0x3d2d78a8	0.042351395
167	0xbba485a0	-0.005020812
168	0x3c96846f	0.018373696
169	0xbe2c69de	-0.1683726
170	0xbe4d3c8a	-0.20042625
171	0xbce120e0	-0.027481496
172	0x3e3a3871	0.18185593
173	0x3ca13540	0.019678712
174	0x3e944a45	0.28962913
175	0x3d4d7258	0.050157875
176	0x3ceb74d0	0.028742224
177	0xbd2a144c	-0.041523263
178	0x3ce3180c	0.027721427
179	0xbcc42b84	-0.023946531
180	0xbd7d004a	-0.061767854
181	0x3d15c37c	0.03656338
182	0xbd7200c0	-0.059082747
183	0xbe96ea87	-0.29475805
184	0xbe93cfac	-0.2886938
185	0xbd384bd7	-0.0449942
186	0x3ea30c47	0.31845304
187	0xbcbadcc2	-0.022810344
188	0x3ea633e5	0.32461467
189	0xbd077cea	-0.03307811
190	0x3cdeb838	0.027187452
191	0xbcd78114	-0.026306666
192	0xbcf8b42c	-0.03035935
193	0xbd12d362	-0.03584612
194	0xbccd4c70	-0.025060862
195	0x3a99eac0	0.0011742935
196	0x3d661c50	0.056179345
197	0xbeae67d5	-0.34063593
198	0xbea53295	-0.32265154
199	0x3bc3cb00	0.005975127
200	0x3eb7ca33	0.35896453
201	0x3de12331	0.1099304
202	0xbecc4866	-0.39898986
203	0x3e0ea672	0.13930681
204	0x3db04bda	0.086082175
205	0xbdb8d8ef	-0.09025752
206	0xbe6fbf85	-0.23412903
207	0xbda6dfb0	-0.08148134
208	0x3dc48395	0.0959541
209	0xbcfa2bf6	-0.03053854
210	0xbbf01680	-0.007326901
211	0x3d553664	0.052053824
212	0xbc9d6000	-0.019210815
213	0xbd4fe3f2	-0.050754495
214	0xbd56466a	-0.052313246
215	0xbd58bfa0	-0.052917123
216	0xbd07ea72	-0.03318257
217	0xbd3f01d2	-0.046632595
218	0x3d0d0a3e	0.034433596
219	0x3ccf17e8	0.025279954
220	0x3c431058	0.011905752
221	0xbd25476e	-0.040351324
222	0x3d3c2c96	0.045940958
223	0x3b563560	0.0032685623
224	0x3d54f106	0.05198767
225	0x3b202320	0.0024434999
226	0x3b967c70	0.004592471
227	0x3d61888c	0.055061862
228	0xbd0404b0	-0.032231033
229	0xbd0bdfba	-0.03414891
230	0xbd635b38	-0.055506915
231	0xbd24282c	-0.040077373
232	0x3d08f7ee	0.03343957
233	0xbd12a512	-0.035801955
234	0xbd774204	-0.06036569
235	0x3b2e4960	0.0026594028
236	0xbd7cd354	-0.061724976
237	0xbc8df470	-0.017328471
238	0x3d31e292	0.043428965
239	0xbd7e5106	-0.06208899
240	0xbd5b707d	-0.053574074
241	0x3ed0e51a	0.4079979
242	0x3df7ee1b	0.12105962
243	0x3d98691d	0.07441924
244	0xbe90aadb	-0.28255352
245	0x3d789d20	0.06069672
246	0x3c886220	0.016648352
247	0xbbddb7e0	-0.0067663044
248	0x3c908308	0.017640606
249	0xbc0fcee0	-0.00877735
250	0x3d3205aa	0.043462433
251	0xba8ec840	-0.0010893419
252	0x3df5fde6	0.12011318
253	0x3d01dd31	0.031705085
254	0xbc67a07b	-0.014137383
255	0xbed4dbe1	-0.41574004

input_linear.bias f4 [256]
0	0xbdfa9f64	-0.122374326
1	0xbda39b80	-0.07988644
2	0xbe4133d7	-0.18867432
3	0x3e40371b	0.18771021
4	0x3e8ce2bf	0.27516744
5	0x3ed3da76	0.4137761
6	0x3dc4bea6	0.09606676
7	0x3e60633c	0.21912855
8	0x3e9843ca	0.2973922
9	0x3e907289	0.28212383
10	0xbdb0aea0	-0.08627057
11	0x3e4e1d45	0.20128353
12	0x3df5c078	0.11999601
13	0xbdc39134	-0.0954918
14	0x3eb3b047	0.35095426
15	0x3e8c5584	0.27408993
16	0x3e0c7249	0.13715471
17	0x3eb0ea4a	0.34553748
18	0xbe84dab8	-0.2594812
19	0xbc369f63	-0.011146399
20	0xbe125e0c	-0.14293689
21	0xbe6aec9f	-0.22941826
22	0xbddc1fa0	-0.107482195
23	0xbeb216ca	-0.34783012
24	0x3dd6165e	0.10453485
25	0xbe81571c	-0.25261772
26	0x3ea779c1	0.32710078
27	0xbec0b91a	-0.3764122
28	0xbc8f55f3	-0.017497038
29	0x3ea3efa0	0.32018757
30	0xbdb04938	-0.08607715
31	0xbe2aa17c	-0.16663164
32	0xbeaec2c8	-0.3413298
33	0xbd276c98	-0.040875047
34	0x3df93e7e	0.121701226
35	0xbea8b43d	-0.3295001
36	0x3e71314b	0.2355396
37	0x3d296b79	0.04136226
38	0xbea31929	-0.31855133
39	0xbe1cd8d5	-0.1531709
40	0xbd652e40	-0.05595231
41	0x3daabb06	0.08336453
42	0xbe10ef6a	-0.14153829
43	0x3e27353d	0.16328903
44	0x3e74e034	0.23913652
45	0xbe924a16	-0.28572148
46	0x3d80e849	0.06294305
47	0xbe2a8cf1	-0.16655327
48	0xbe48beee	-0.19604084
49	0x3e952668	0.29130864
50	0x3ee84698	0.4536636
51	0xbe1e0ea2	-0.1543527
52	0x3d334aa3	0.04377235
53	0xbe24b69d	-0.16085286
54	0x3e1aabfc	0.1510467
55	0x3d876471	0.066109546
56	0xbdc2ad30	-0.09505689
57	0x3e307052	0.17230347
58	0x3b5e84b7	0.0033953616
59	0x3e6861c3	0.22693543
60	0x3b5d9440	0.0033810288
61	0xbda49474	-0.08036128
62	0x3ec6b662	0.38811022
63	0xbe61dd22	-0.22057012
64	0xbea42fc3	-0.3206769
65	0x3de835ab	0.11338361
66	0xbe924d88	-0.28574777
67	0x3ea9b43a	0.33145314
68	0xbe85ef91	-0.26159337
69	0xbe06521c	-0.1311726
70	0xbdb615ac	-0.08890852
71	0x3d86a65a	0.06574698
72	0x3c55fb20	0.013060361
73	0x3e3f5c73	0.1868761
74	0xbea14095	-0.31494585
75	0xbd349b68	-0.04409352
76	0xbeac2dcc	-0.3362869
77	0x3e787039	0.2426156
78	0x39574f5d	0.00020533563
79	0x3e480bfb	0.1953582
80	0x3c756220	0.014977008
81	0xbdfdec4d	-0.123985864
82	0xbdcad068	-0.099030316
83	0x3e705e5e	0.23473498
84	0xbddbafb0	-0.10726869
85	0x3e2f87db	0.17141668
86	0x3c8fa088	0.017532602
87	0x3d4441d3	0.047914337
88	0xbea95fe2	-0.33080965
89	0xbe5415aa	-0.20711389
90	0x3e0579cd	0.13034745
91	0x3e13c2e6	0.14429817
92	0xbe816e1c	-0.2527932
93	0xbeb58ec6	-0.3546049
94	0xbe3ef04d	-0.18646355
95	0xbeb9364c	-0.36174238
96	0x3e64357e	0.2228603
97	0x3e83b425	0.25723377
98	0xbe0865d8	-0.133201
99	0x3e4b8d3d	0.19878097
100	0xbe4e1fc3	-0.20129304
101	0xbde2e92c	-0.1107963
102	0x3e21ffc7	0.15820228
103	0x3debd314	0.11514869
104	0x3ee17713	0.4403616
105	0xbdb9a350	-0.090643525
106	0x3e3a6009	0.18200697
107	0xbe48edcc	-0.19621962
108	0x3e1e8ed7	0.15484177
109	0xbe383958	-0.17990625
110	0x3e86506a	0.26233226
111	0xbd88a614	-0.06672302
112	0x3e615441	0.22004797
113	0x3d37b010	0.04484564
114	0x3ea788a7	0.32721445
115	0xbe9f9cfe	-0.31174463
116	0x3e57f021	0.21087696
117	0x3edac36e	0.42727226
118	0x3c8c593c	0.017132394
119	0xbdeee448	-0.11664635
120	0xbc2f1240	-0.0106855035
121	0xbc616013	-0.013755816
122	0x3ec20153	0.37891635
123	0xbe9e2fd8	-0.30895877
124	0xbe9005d3	-0.28129444
125	0x3ea25283	0.31703576
126	0x3d8021df	0.062564604
127	0x3e7f0954	0.24905902
128	0xbe9fd74d	-0.3121895
129	0xbcb98327	-0.022645546
130	0xbd1610b4	-0.036637023
131	0xbe1f5a21	-0.15561725
132	0x3b92247d	0.004459916
133	0xbe84e4d6	-0.25955838
134	0x3eb37344	0.35048878
135	0xbdc23bf8	-0.094840944
136	0xbda81d7c	-0.08208749
137	0xbe4e35b2	-0.2013767
138	0x3ca2e900	0.019886494
139	0xbec04358	-0.3755138
140	0xbe9f0435	-0.31057897
141	0xbe24dabc	-0.16099066
142	0xbe3cc30a	-0.18433776
143	0xbdce620c	-0.10077295
144	0xbe87d456	-0.26529187
145	0xbe415ae0	-0.18882322
146	0xbea35f69	-0.3190873
147	0x3e0168e2	0.12637666
148	0xbe937b12	-0.28804833
149	0xbd9cb76c	-0.076521724
150	0x3ecf423d	0.40480223
151	0xbdbc6978	-0.09199804
152	0x3ea6288f	0.3245282
153	0x3d89dfa6	0.06732111
154	0xbd4c0568	-0.049809843
155	0x3eb4322e	0.35194534
156	0x3ea00886	0.31256503
157	0x3d5c430d	0.053774882
158	0x3e61bc4f	0.2204449
159	0xbe591ff0	-0.2120359
160	0xbea29b94	-0.31759322
161	0xbe261ee2	-0.16222718
162	0x3e5561d2	0.20838097
163	0xbe59d8d0	-0.21274114
164	0xbeb4b883	-0.3529702
165	0x3e93b82c	0.2885145
166	0xbe67e6f9	-0.22646703
167	0xbe08c42c	-0.13356084
168	0xbe0faac4	-0.14029986
169	0xbe42500c	-0.18975848
170	0x3e7ad297	0.24494396
171	0x3e8a881b	0.27056965
172	0x3ea6cabe	0.32576555
173	0x3eaaaeca	0.33336478
174	0x3e945865	0.2897369
175	0x3e2cd195	0.16876824
176	0xbe86791e	-0.2626428
177	0x3e41b725	0.1891752
178	0x3dee1e60	0.11626887
179	0x3e932587	0.2873957
180	0x3e324403	0.17408757
181	0xbe56c6d8	-0.2097429
182	0x3e16d9ee	0.14731571
183	0xbe4c28a5	-0.1993738
184	0x3e272b6d	0.1632516
185	0x3e873bf3	0.26412925
186	0x3eaf95e6	0.3429405
187	0x3eac21c9	0.33619526
188	0x3d8da566	0.06916313
189	0xbe034aa8	-0.12821448
190	0xbea1b148	-0.31580567
191	0xbe6a2b50	-0.22868085
192	0xbb8afa35	-0.004241253
193	0x3e221663	0.15828852
194	0x3e5f5eb8	0.21813476
195	0xbe13fb6d	-0.1445138
196	0x3dc84fb9	0.09780831
197	0xbea9050b	-0.3301166
198	0x3d3ce81d	0.046119798
199	0xbea35298	-0.31898952
200	0x3e433e21	0.19066669
201	0x3ebc93ff	0.36831662
202	0x3e283528	0.16426528
203	0xbe6925ae	-0.2276828
204	0xbdc9211c	-0.09820768
205	0x3e0d2499	0.13783492
206	0x3b9c429f	0.004768684
207	0x3b8d44fd	0.0043112026
208	0x3da10cfd	0.078638054
209	0x3e81b416	0.25332707
210	0xbdedff6c	-0.116209835
211	0x3dda7902	0.10667612
212	0xbe740744	-0.23830897
213	0xbd490d38	-0.049084872
214	0xbe9bcde0	-0.30430508
215	0xbeb12d0c	-0.3460468
216	0x3da5cf9a	0.080962375
217	0xbea371b9	-0.319227
218	0x3e6280ba	0.22119418
219	0xbe8ab597	-0.27091667
220	0xbe905917	-0.2819297
221	0xbeb4fd62	-0.35349566
222	0xbe4e2871	-0.20132615
223	0xbe6dd02a	-0.2322394
224	0xbdbe2e18	-0.092861354
225	0xbd6c1918	-0.05764112
226	0xbc0964c8	-0.0083858445
227	0x3e827b25	0.25484577
228	0xbea65089	-0.32483318
229	0xbe26350e	-0.16231176
230	0xbe4b1414	-0.19831878
231	0xbea2cdf7	-0.31797764
232	0xbd7ccc38	-0.061718196
233	0x3e41784b	0.18893544
234	0x3e6bc3de	0.23023936
235	0xbd924460	-0.07141948
236	0x3dc7e9c8	0.09761387
237	0xbc93a780	-0.018024206
238	0x3cb8bc66	0.022550773
239	0xbe9bf374	-0.30459177
240	0x3e54e294	0.20789558
241	0x3ebb1840	0.3654194
242	0x3d95d4c2	0.07315971
243	0x3dbed967	0.0931881
244	0x3cfe20da	0.031021524
245	0xbe751a61	-0.23935844
246	0x3c616d1c	0.013758924
247	0x3e4ca74f	0.19985698
248	0xbeb7750e	-0.35831493
249	0x3e9de70c	0.30840337
250	0xbea40790	-0.3203702
251	0xbe2b9251	-0.16755034
252	0x3c9a317e	0.018822428
253	0xbdec5924	-0.1154044
254	0x3dadd14a	0.08487184
255	0x3e716eb7	0.2357739

middle_linear.0.weight f4 [256, 256]
0	0xbd5e45e2	-0.054265864
1	0xbd15cf62	-0.03657473
2	0xbd683c58	-0.056698173
3	0x3d6641ac	0.056214973
4	0xbd6c051a	-0.057622053
5	0xbd47cca8	-0.04877916
6	0xbd156462	-0.036472686
7	0xbd29bf64	-0.04144229
8	0x3d080c90	0.033215106
9	0x3d28aa86	0.04117825
10	0x3d3251a6	0.043534897
11	0xbd0ef6e0	-0.034903407
12	0x3d4febb0	0.05076188
13	0xbcc7e240	-0.024399877
14	0xbd7cd3ee	-0.06172555
15	0x3c8b32e4	0.01699204
16	0xbc80315c	-0.015648536
17	0x3c7b93a8	0.015355028
18	0x3cd98bb0	0.026555866
19	0x3c9bc45c	0.01901453
20	0x3af08640	0.0018350556
21	0xbd5c7214	-0.05381973
22	0xbcc4e410	-0.02403453
23	0xbd0ec0de	-0.0348519
24	0x3d4ba074	0.049713567
25	0xbcabe8fc	-0.020985119
26	0xbd4a9916	-0.0494624
27	0x3b829f40	0.0039862692
28	0x3ce311cc	0.027718447
29	0x3d11c82e	0.035591297
30	0x3d059bb2	0.032619186
31	0x3d18737a	0.037219502
32	0xbc95bb5c	-0.018277816
33	0xbd4cd788	-0.050010234
34	0x3c6329f8	0.013864987
35	0xbd7abb1e	-0.061213605
36	0xbbb5d0a0	-0.0055485517
37	0x3d2b2914	0.041787222
38	0x3c680b38	0.014162831
39	0xbd46757e	-0.048451893
40	0xbc78b588	-0.015179999
41	0x3c84d1c0	0.016213298
42	0x3d04675a	0.032325126
43	0x3cf51240	0.029915929
44	0xb99f8900	-0.00030428916
45	0x3c196bc0	0.0093640685
46	0x3d130250	0.035890877
47	0xbcc5d480	-0.02414918
48	0x3d5d7646	0.054067872
49	0x3c83dc7c	0.016096346
50	0x3cedf440	0.029047132
51	0x3d31972a	0.043357052
52	0xbd45d7dc	-0.048301563
53	0x3ceeef50	0.029166847
54	0xbd50086a	-0.050789274
55	0xbd1562ee	-0.0364713
56	0xbd2e7314	-0.042590216
57	0x3b35a620	0.0027717426
58	0x3d4b3330	0.049609363
59	0xbd15fd12	-0.0366183
60	0xbd08a210	-0.03335768
61	0x3cd4db54	0.02598349
62	0xbd67b2ce	-0.056567006
63	0x3bba82a0	0.0056918412
64	0x3d0ddfd8	0.034637302
65	0x3c229ac8	0.009924598
66	0xbba6aad0	-0.0050862804
67	0x3d16b988	0.03679803
68	0x3d5bdf78	0.053679913
69	0xbd0ff382	-0.035144337
70	0x3cfa34c8	0.030542746
71	0x3c93256c	0.01796218
72	0xbc74b900	-0.014936686
73	0xbd31448a	-0.043278255
74	0x3ca5ac00	0.020223618
75	0x3cd51370	0.026010245
76	0x3d7f40e8	0.06231776
77	0x3c7e2970	0.015512809
78	0x3ce99080	0.028511286
79	0xbb6a01c0	-0.003570661
80	0x3d3f5840	0.04671502
81	0x3b1cce00	0.0023926497
82	0xbd29b3d6	-0.04143127
83	0xbd644636	-0.05573102
84	0x3d7314ba	0.05934594
85	0x3d231d8c	0.0398231
86	0xbd31b90c	-0.043389365
87	0x3d48c2bc	0.04901384
88	0x3d138e9a	0.036024667
89	0x3d635910	0.05550486
90	0x3c1b16a0	0.009465843
91	0xbd6ebcda	-0.05828557
92	0xbd7a907c	-0.061172947
93	0xbd315c1e	-0.04330074
94	0xbcef9fc0	-0.02925098
95	0x3c06deb0	0.008231804
96	0x3d3e8e7a	0.046522595
97	0xbcb71a7c	-0.022351496
98	0xbd67e9c0	-0.056619406
99	0xbc39cb50	-0.011339977
100	0xbd4be208	-0.049776107
101	0xbc10c4d8	-0.008835994
102	0xbd3afa34	-0.04564877
103	0x3d2c5c76	0.042080365
104	0x3ce8e948	0.02843155
105	0x3ca7e35c	0.020494156
106	0x3c847734	0.016170122
107	0xbc8b71e0	-0.017022073
108	0xbce4dd6c	-0.027937613
109	0x3d62075c	0.0551828
110	0x3d750e50	0.059828103
111	0x3cd70b0c	0.026250385
112	0xbd2a2fb4	-0.0415494
113	0xbd128e02	-0.03577996
114	0xbd045dd0	-0.03231603
115	0x3af1c280	0.0018444806
116	0xbd4f24a4	-0.050572053
117	0x3d1e42e0	0.038637996
118	0x3ba93c40	0.005164653
119	0x3d0bb792	0.034110613
120	0x3d149b0e	0.036280684
121	0xbd55ecce	-0.052227788
122	0x3d6c02ce	0.057619862
123	0x3b8a31c0	0.0042173564
124	0xbd644868	-0.055733114
125	0xbc40c478	-0.011765592
126	0x3cd2b3f0	0.025720567
127	0xbd2ccc02	-0.042186745
128	0x3d2e92bc	0.042620406
129	0xbb7ce5e0	-0.0038589165
130	0xbd0298d4	-0.03188403
131	0xbcab7698	-0.020930573
132	0x3d51964c	0.051168725
133	0xbcd9d2e8	-0.026589826
134	0xbd19288a	-0.037392177
135	0xbc8e1dec	-0.017348252
136	0x3c7745d8	0.015092336
137	0xbd050252	-0.032472916
138	0x3d2317b0	0.039817512
139	0xbce1add0	-0.0275487
140	0xbc87c8b0	-0.016575187
141	0xbbc8ab90	-0.0061239675
142	0x3d314f22	0.043288358
143	0x3ce0f0fc	0.02745866
144	0x3d578b80	0.052623272
145	0xbd402df2	-0.046918817
146	0xbd38333a	-0.04497073
147	0xbce9ad88	-0.028525129
148	0x3d2cbb64	0.042170897
149	0x3d75d72c	0.060019657
150	0xbcf4bc8c	-0.029875062
151	0xbd7c7d02	-0.061642654
152	0x3bd28ac0	0.0064252317
153	0x3d1f3c44	0.038875833
154	0x3d0b2b60	0.033976912
155	0xbd3d339c	-0.046191797
156	0xbcfac1f0	-0.030610055
157	0x3cdf75b8	0.027277812
158	0xbb5eb320	-0.0033981279
159	0xbd6c0f84	-0.057631984
160	0x3d2d722e	0.04234522
161	0x3cc4c318	0.02401881
162	0xbcd246d8	-0.025668547
163	0xbc180230	-0.009277865
164	0x3d6c3d5c	0.057675704
165	0x3b84b930	0.0040503964
166	0xbc5b5310	-0.013386503
167	0x3d3cf4b2	0.046131797
168	0xbc31dd08	-0.010855921
169	0x3d23f984	0.04003288
170	0x3d5b2006	0.053497337
171	0xbc264a28	-0.010149516
172	0xbd2b5e3a	-0.04183791
173	0xbcd8b2e0	-0.026452482
174	0x3d4d39a0	0.050103784
175	0xbd612f12	-0.05497653
176	0x3bfa3240	0.007635385
177	0xbd6b91dc	-0.05751215
178	0x3cc13a04	0.023587234
179	0x3d748b30	0.059703052
180	0xbb090560	-0.0020907745
181	0xbd73bb90	-0.059505045
182	0x3d17d232	0.037065692
183	0xbd1a22de	-0.03763091
184	0xbd0cdb14	-0.034388617
185	0xbd593b58	-0.05303511
186	0xbc984e1c	-0.018591933
187	0x3d119ab0	0.035547912
188	0xbd55c134	-0.052186206
189	0xba3b5800	-0.0007146597
190	0x3d0bf0c8	0.034165174
191	0x3b6f69e0	0.0036531612
192	0xbce9df08	-0.028548732
193	0x3d5761f2	0.052583642
194	0x3c3375b8	0.010953359
195	0x3d3193e0	0.043353915
196	0xbd05541e	-0.032550924
197	0xbc10cc88	-0.008837827
198	0xbbd7e1a0	-0.006588176
199	0x3b40ec00	0.0029437542
200	0x3d06d4ac	0.032917663
201	0x3c0dcd90	0.008654967
202	0x3d398768	0.04529515
203	0x3d1eebe8	0.038799196
204	0x3cd2ad60	0.025717437
205	0xbd11a9f2	-0.035562463
206	0xbc6be4f8	-0.014397852
207	0xbd1217ac	-0.035667107
208	0xbd4508c8	-0.048104078
209	0x3cfbfe6c	0.030760966
210	0xbd3d7a58	-0.046259254
211	0xbd03d178	-0.032182187
212	0x3d55b364	0.052173033
213	0xbc12baf0	-0.008955702
214	0xbb586fa0	-0.0033025518
215	0xbcc853a4	-0.024453945
216	0xbd024eb6	-0.031813346
217	0xbd3903f2	-0.04516978
218	0xbb81ff00	-0.003967166
219	0xbd6acb22	-0.05732263
220	0xbbb84e40	-0.0056245625
221	0xbd78ba14	-0.060724333
222	0x3cbd8c80	0.023138285
223	0xbd6d2b08	-0.057902366
224	0x3aa27040	0.0012393072
225	0x3bd90630	0.006623052
226	0xbd1b7bd8	-0.037959903
227	0xbba415b0	-0.005007468
228	0xbc764e88	-0.015033372
229	0xbce50060	-0.02795428
230	0x3d1499b8	0.03627941
231	0xbc848724	-0.016177721
232	0x3d07cee8	0.033156306
233	0x3d4a76d0	0.049429715
234	0xbcd03000	-0.025413513
235	0x3cb6afa0	0.022300541
236	0xbd715200	-0.058916092
237	0xbcad10f8	-0.021126255
238	0xbd54401a	-0.051818945
239	0x3d31d706	0.043417953
240	0xbd53755e	-0.051625602
241	0xbd7186c2	-0.058966406
242	0xbc0f6c80	-0.008753896
243	0xbc33bf88	-0.010970958
244	0xbd00a8f6	-0.031411134
245	0x3c0b6950	0.008508995
246	0xbd726a88	-0.059183627
247	0xbd5874ba	-0.052845694
248	0x3d75494e	0.059884362
249	0xbc7c6e08	-0.015407093
250	0xbc9838b8	-0.018581733
251	0x3d6f641c	0.05844508
252	0xbc998edc	-0.018744878
253	0x3cf0953c	0.029368035
254	0x3d5f7aa6	0.054560326
255	0xbd6df558	-0.058095306

middle_linear.0.bias f4 [256]
0	0xbcc083d8	-0.023500368
1	0x3a96f826	0.0011518046
2	0x3ca4c78e	0.020114686
3	0x3d07ae1a	0.03312502
4	0xbc8fa364	-0.017533965
5	0xbda37885	-0.07981972
6	0xbd417978	-0.047234982
7	0x3bb0d4be	0.0053964546
8	0x3c087352	0.008328276
9	0x3d1b4fac	0.037917778
10	0x3dc519b7	0.09624045
11	0xbd4191b8	-0.04725811
12	0x3c0b2fae	0.008495254
13	0x3d4d21b2	0.050080962
14	0xbd30a71c	-0.043128118
15	0x3cbb22b4	0.022843696
16	0x3c40f81f	0.011777907
17	0x3d104c9a	0.035229303
18	0xbd02ae3e	-0.03190445
19	0x3d6b7a26	0.057489537
20	0x3c2a125e	0.010380356
21	0x3d8e656e	0.0695294
22	0x3ba26b23	0.0049566193
23	0xbd243de2	-0.04009808
24	0x3d08feda	0.03344617
25	0x3c5ec874	0.013597596
26	0xbd0b9344	-0.03407599
27	0xbd370c57	-0.044689503
28	0xbd26080c	-0.040535018
29	0xbd554206	-0.052064918
30	0x3d43d529	0.047810707
31	0xbd176268	-0.036959082
32	0x3d5415da	0.05177865
33	0x3dae4a90	0.085103154
34	0x3c71ac11	0.0147504965
35	0xbd2d2710	-0.04227358
36	0xbd237ecb	-0.03991584
37	0xbc885dbd	-0.01664626
38	0x3d6aa136	0.05728265
39	0xbcbdeaac	-0.02318319
40	0x3c8785be	0.016543265
41	0xbbe3aa27	-0.006947774
42	0xbd040258	-0.032228798
43	0x3c27411d	0.010208395
44	0x3c14a34f	0.009072139
45	0x3c8a58d5	0.016888062
46	0xbd1d8d7f	-0.03846502
47	0x3caeb417	0.021326108
48	0xbbbd58ee	-0.0057784235
49	0x3ca477d4	0.02007667
50	0x3b790d40	0.0038002282
51	0x3d0e401d	0.034729112
52	0x3d6b007a	0.0573735
53	0x3c4a5380	0.0123490095
54	0x3a3fd1e2	0.0007317347
55	0xbc7eeac3	-0.015558901
56	0x3b6714a0	0.0035260096
57	0xbd1e60ba	-0.038666464
58	0x3d2f5926	0.042809628
59	0x3cc46da6	0.023978066
60	0x3c4618e3	0.012090894
61	0xbd0a1f36	-0.03372117
62	0xbc06ade5	-0.008220171
63	0x3d2888a1	0.041145924
64	0x3ccadd68	0.024763778
65	0x3d4b9570	0.04970306
66	0x3cf60ec4	0.030036338
67	0x3c754339	0.01496964
68	0xbcacfaf8	-0.021115765
69	0x3cc4874c	0.023990296
70	0xbd1fb5b8	-0.03899166
71	0x3d0be746	0.034156106
72	0xbc2918aa	-0.010320822
73	0x3d59c624	0.053167477
74	0x3c5acc15	0.013354321
75	0xbd59294c	-0.0530179
76	0xbdd4ff2c	-0.10400233
77	0x3ccbe2c0	0.024888396
78	0xbccb7ea4	-0.02484066
79	0xbd128590	-0.035771906
80	0x3e16825c	0.14698166
81	0xbd6907dc	-0.05689226
82	0x3ddf0be0	0.10890937
83	0xbcbeca5f	-0.023289857
84	0x3db9e084	0.09076026
85	0xbd28b7ed	-0.04119103
86	0xbc47d767	-0.012197352
87	0x3b52586a	0.0032096156
88	0xbcf88c85	-0.030340442
89	0x3d06a448	0.032871515
90	0x3cd5331a	0.026025344
91	0x3cf7cc2a	0.03024872
92	0x3cfaf3b6	0.030633789
93	0x3cb4f584	0.022089727
94	0x3da79486	0.081826255
95	0x3c92af47	0.017905844
96	0x3d86592d	0.06559978
97	0xbd736db8	-0.059430808
98	0xbd5d358e	-0.05400615
99	0xbcaf23f9	-0.021379458
100	0x3d9c4bd2	0.07631649
101	0x3d2dd68a	0.04244093
102	0x3d5ddc2a	0.054165043
103	0x3d57d700	0.052695274
104	0x3d953301	0.07285119
105	0xbbf0542c	-0.007334253
106	0x3cdb5175	0.02677224
107	0xbc07fa79	-0.008299463
108	0x3d2d09e0	0.042245746
109	0x3d9126ba	0.07087465
110	0xbda3a003	-0.07989504
111	0xbbe00218	-0.006836187
112	0xbd182961	-0.037148837
113	0x3be81e80	0.007083714
114	0x3d3e4c6a	0.046459593
115	0x3cce9a1f	0.025219975
116	0x3b611b09	0.003434839
117	0xbd4e01d0	-0.050294697
118	0x3ca48d52	0.020086918
119	0xbb446803	-0.0029969222
120	0xbc677b9f	-0.014128595
121	0x3cba917f	0.022774456
122	0xbd3ac670	-0.0455994
123	0xbb98dc46	-0.0046649305
124	0x3d361abb	0.044459086
125	0x3e2bc927	0.16775952
126	0x3de22707	0.110426
127	0x3cbfc0a7	0.023407293
128	0x3d6217de	0.055198543
129	0xbc1ed071	-0.009693251
130	0xbd5cbab4	-0.05388899
131	0xbcbc60a4	-0.0229953
132	0x3bd199b7	0.006396498
133	0xbd89e0e2	-0.06732346
134	0xba7306b9	-0.0009270716
135	0x3cebe59a	0.028796006
136	0xbadb7b81	-0.0016745181
137	0x3d3a2e91	0.045454565
138	0xbd3e6946	-0.046487115
139	0xbc00e9b1	-0.007868216
140	0x3d144701	0.036200527
141	0xbd634ad9	-0.055491302
142	0xbd35d017	-0.044387903
143	0xbd20bdea	-0.039243616
144	0xbd087e29	-0.03332344
145	0x3d5990eb	0.05311672
146	0x39a98e8a	0.00032340392
147	0x3d4be29f	0.04977667
148	0x3cc5f26f	0.024163453
149	0xbb8ee6d2	-0.004361012
150	0xbd841386	-0.06449036
151	0xbd1b3e9e	-0.037901513
152	0x3d730760	0.059333205
153	0xbba7f5b0	-0.005125724
154	0xbd5cf2a9	-0.053942356
155	0xbd52d7e4	-0.05147542
156	0xbd1fac7c	-0.038982853
157	0x3e1d712b	0.15375201
158	0x3d5a1be4	0.053249255
159	0x3d657bd8	0.05602631
160	0xbbe960a3	-0.0071221157
161	0x3d18ebc3	0.037334215
162	0xbcd2cc20	-0.0257321
163	0x3c8659cb	0.016400238
164	0xbbeb80ae	-0.0071869707
165	0xbe0d971b	-0.13827173
166	0xb883851c	-6.27136e-05
167	0x3cd0a726	0.025470328
168	0xbb1f6e3b	-0.0024327177
169	0xbca22cc0	-0.01979673
170	0xbd53bd10	-0.051693976
171	0xbba6dda0	-0.0050923377
172	0xbd7b874e	-0.061408333
173	0x3d29c547	0.041447904
174	0x3d7cc2ec	0.06170933
175	0xbcde5ab9	-0.02714287
176	0x3c0e4600	0.0086836815
177	0x3d88505a	0.06655951
178	0xbd11beb2	-0.03558225
179	0xbb6b1a88	-0.0035873968
180	0xbce9534b	-0.0284821
181	0x3c94cf08	0.018165126
182	0x3d3cdcab	0.046108883
183	0x3d3fef8e	0.046859317
184	0x3d3ff9f3	0.04686923
185	0xbbc4fac6	-0.00601134
186	0x3dcc0965	0.09962729
187	0xbd4de428	-0.050266415
188	0x3d4d71ec	0.050157472
189	0x3e223506	0.1584054
190	0xbd38c524	-0.045109883
191	0xbc63466a	-0.0138717685
192	0xbd271e74	-0.040800527
193	0x3d4e4de1	0.05036724
194	0xbd1777d2	-0.036979504
195	0xbd82538e	-0.06363593
196	0xbd571170	-0.052506864
197	0xbd08b290	-0.033373415
198	0x3cdc6fb2	0.02690873
199	0xbc52bf05	-0.012862925
200	0xbd7d5116	-0.061844908
201	0xbd5c8cc5	-0.053845186
202	0xbd6bc260	-0.057558417
203	0xbd669362	-0.0562929
204	0xbc518eb5	-0.012790372
205	0xbd90ceca	-0.07070692
206	0x3d40df6b	0.047088068
207	0x3d322548	0.043492585
208	0x3c971f9d	0.018447692
209	0xbd0d4c36	-0.03449651
210	0xbd037b64	-0.032100096
211	0xbcac9a2e	-0.021069612
212	0x3cc8ad3c	0.024496667
213	0xbc715898	-0.014730595
214	0xbd1fff09	-0.03906158
215	0x3b74f1d4	0.0037375586
216	0x3d8b3544	0.06797269
217	0x3e4bcdad	0.19902678
218	0x3cec17f0	0.028820008
219	0xbd181280	-0.037127018
220	0xbd395bd3	-0.045253586
221	0xbcb5019c	-0.022095494
222	0x3d38759f	0.045034047
223	0x3d6226ac	0.05521266
224	0x3d4f06c1	0.05054355
225	0xbcd2a19b	-0.025711825
226	0xbd7361b9	-0.059419367
227	0x3ca3d775	0.020000199
228	0x3d3b766c	0.045767233
229	0xbb96d430	-0.0046029314
230	0xbde60324	-0.11231068
231	0xbd5a68fd	-0.05332278
232	0xbd3147fb	-0.043281537
233	0xbd06c6d1	-0.03290445
234	0xbdd7083c	-0.104996175
235	0x3c1a9484	0.009434823
236	0x3e15b938	0.14621437
237	0xbd02ce5e	-0.03193509
238	0xbc98618b	-0.0186012
239	0x3e0a1da6	0.13487872
240	0x3dd36880	0.10322666
241	0x3e02865a	0.12746564
242	0x3d430528	0.04761234
243	0x3ca13bb2	0.019681785
244	0xbd86f43c	-0.06589553
245	0xbc9d8260	-0.019227207
246	0x3c7db570	0.015485153
247	0x3d3adcb9	0.045620654
248	0x3d7bbcf5	0.0614595
249	0x3c9ecc4d	0.019384528
250	0xbd9b76de	-0.075910315
251	0xbd71813c	-0.058961138
252	0xbdca46bc	-0.09876773
253	0xbd851bd0	-0.064994454
254	0xbd9d3b7f	-0.076773636
255	0xbd268410	-0.04065329

output_linear.weight f4 [3, 256]
0	0x3ab5e698	0.0013877926
1	0xbccb5501	-0.024820806
2	0xbce194d8	-0.027536795
3	0xb955958a	-0.0002036897
4	0x3a4fe4d0	0.0007930519
5	0xbcf58fc2	-0.029975776
6	0x3b120bf0	0.0022284947
7	0xbcfc5c67	-0.03080578
8	0xbdb376c3	-0.087628864
9	0xba1bd164	-0.00059439824
10	0xbee62ebd	-0.44957533
11	0xbccf9d9f	-0.025343714
12	0xbcd97fd8	-0.026550218
13	0xbe2737c2	-0.16329864
14	0xbb023370	-0.0019867085
15	0xbad8366c	-0.0016495711
16	0xbad006a5	-0.0015871121
17	0xbd02c635	-0.031927306
18	0xbceff746	-0.029292714
19	0xbccefa86	-0.025265943
20	0xbb37d12b	-0.0028048258
21	0x3b1e61fa	0.0024167285
22	0xbb3eb29e	-0.0029098163
23	0x3aad4408	0.0013219127
24	0xbb28ef5d	-0.0025777437
25	0xbd05091b	-0.032479387
26	0xbce8f547	-0.02843727
27	0xbc18ae8a	-0.009318957
28	0xbcf8ef29	-0.030387478
29	0x3b1b1438	0.0023663174
30	0x3d65993f	0.05605435
31	0x3afa4f40	0.0019097105
32	0xbccddfc2	-0.02513111
33	0xbcea985e	-0.028637107
34	0xbcf0477f	-0.029330967
35	0xbed13c21	-0.40866187
36	0xbaa60890	-0.0012667347
37	0xbc17c8a5	-0.009264146
38	0xbce77fac	-0.02825912
39	0xbc73a409	-0.014870652
40	0xbcc1f578	-0.023676619
41	0xba360560	-0.000694355
42	0xba06d1b0	-0.000514294
43	0xbce211cc	-0.027596377
44	0xbcdec5ed	-0.027193988
45	0xbdfb3a3b	-0.12266966
46	0xbcd400d8	-0.025879309
47	0xbcea78ba	-0.02862202
48	0x3a94f1c0	0.0011363551
49	0xbcf7cd71	-0.03024933
50	0xba888fc2	-0.001041882
51	0xbcf7e2f6	-0.03025959
52	0xbcf57bb8	-0.02996622
53	0xba63162c	-0.00086626667
54	0xbcc31dc9	-0.023817914
55	0xbcee45c8	-0.029086009
56	0x3b42eda8	0.0029743705
57	0xbd0197bb	-0.031638842
58	0x3a4f54c8	0.0007909057
59	0xbe95f39b	-0.2928742
60	0xbcfe0810	-0.031009704
61	0xb8b34ca0	-8.549658e-05
62	0xbf0c8f04	-0.54905725
63	0xbce4fb4e	-0.027951863
64	0xbb3bca06	-0.002865435
65	0xbeb6722c	-0.3563398
66	0xbe8395fb	-0.25700364
67	0xbceef7be	-0.029170867
68	0x3aaf2908	0.0013363669
69	0x3b138b60	0.0022513494
70	0x3b1f78c2	0.0024333452
71	0xbb41e3fe	-0.0029585357
72	0xbced2004	-0.02894593
73	0xbcb9a2c3	-0.022660619
74	0xbed1cb73	-0.40975532
75	0x3a521b58	0.0008014939
76	0xbe56f5c2	-0.20992187
77	0xbb0d004a	-0.0021515065
78	0x39d00db8	0.00039683073
79	0x3b238640	0.0024951845
80	0xbe4ff29f	-0.20307396
81	0xbce6b1a3	-0.028160876
82	0xbe5cb269	-0.21552433
83	0x3a453fbb	0.000752445
84	0xbb4a6e29	-0.0030888414
85	0xbd05150a	-0.032490768
86	0xbce94a48	-0.028477803
87	0xbdfe0b0b	-0.1240445
88	0xbcff24d7	-0.031145496
89	0xbcd38d3b	-0.02582418
90	0xbcdac2d2	-0.026704226
91	0xbcf06fd2	-0.029350195
92	0xbcf3a937	-0.029743774
93	0xbce921b1	-0.028458448
94	0xbc1502bd	-0.009094891
95	0xbb533d9f	-0.0032232774
96	0xbcfb9b83	-0.030713802
97	0xbcdd3587	-0.027003063
98	0xbafe9eb4	-0.0019425959
99	0xbce7e638	-0.028308019
100	0xbe3ed6ad	-0.1863658
101	0xbce12424	-0.027483054
102	0xbcd9bdd0	-0.026579767
103	0x3aa9cc90	0.0012954641
104	0xbe9e153f	-0.30875584
105	0xbceca6ef	-0.028888194
106	0xbc34a372	-0.0110252965
107	0xbd018633	-0.031622123
108	0xbcdb9f9a	-0.026809502
109	0xbe201c0b	-0.15635698
110	0xbcf1a0b0	-0.029495567
111	0xbce64b56	-0.028112095
112	0xbce0908b	-0.027412673
113	0xbac845f1	-0.0015279633
114	0xbcd04ce9	-0.025427299
115	0xbcec6156	-0.028855007
116	0xbcd46939	-0.02592908
117	0xbce5bf37	-0.02804528
118	0xbcd9cc7f	-0.02658677
119	0xbcef0676	-0.029177886
120	0xbcdf24e4	-0.02723927
121	0xbb121958	-0.0022292938
122	0xbdad21d9	-0.084537216
123	0xbeb66420	-0.35623264
124	0xbcd99d32	-0.026564214
125	0xbe3cdf53	-0.18444566
126	0xbe8ea3bc	-0.27859294
127	0xbcec1e5d	-0.028823072
128	0xbd02ec6a	-0.031963743
129	0xbcd3964a	-0.0258285
130	0xbce8f69d	-0.028437907
131	0xba9beb90	-0.0011895765
132	0xbb20a240	-0.002451077
133	0xbe3f6515	-0.18690903
134	0xbae65497	-0.0017572817
135	0x3db82ab3	0.08992519
136	0x3b30b356	0.0026962361
137	0xbcef1bee	-0.029188123
138	0x39265a70	0.00015864684
139	0xbcd39f52	-0.025832806
140	0xbcddf628	-0.027094916
141	0xba83c322	-0.0010052661
142	0xbcddaf45	-0.027061114
143	0x3b174b14	0.0023085522
144	0xbbce881f	-0.006302848
145	0xbcea8ed8	-0.028632566
146	0xbcfd5f8c	-0.03092935
147	0xbaf1a551	-0.0018436109
148	0xbcdb7348	-0.026788369
149	0xbcf02080	-0.029312372
150	0x373cb115	1.1246903e-05
151	0x3a4d3db0	0.00078293215
152	0xbdf9c3ee	-0.12195574
153	0xbb13d5c9	-0.0022557846
154	0xbaa70751	-0.0012743269
155	0x3b031986	0.0020004227
156	0xbcf54dea	-0.029944379
157	0xbedf3e17	-0.43602058
158	0xbd036909	-0.03208259
159	0x3b2d6640	0.002645865
160	0xbccda7b8	-0.025104389
161	0xbcd13dba	-0.025542129
162	0xba56937c	-0.0008185429
163	0xbcf061dd	-0.02934354
164	0xbd07af1f	-0.033125993
165	0xbd838e9a	-0.064236835
166	0x3b202852	0.0024438095
167	0xbd007fa9	-0.031371746
168	0xbcc9fd01	-0.024656774
169	0x3ac83028	0.0015273141
170	0x3b053714	0.0020327019
171	0x3aa303f0	0.0012437087
172	0xba8caa7a	-0.0010731958
173	0xbce14221	-0.027497353
174	0xbce06a75	-0.027394513
175	0xbe58389d	-0.21115346
176	0xbcf2d1c4	-0.02964104
177	0xbce90f6b	-0.028449735
178	0xbb377b50	-0.0027997084
179	0xba839d0c	-0.001004131
180	0xbcd2df74	-0.025741316
181	0xbd0109d7	-0.031503525
182	0xbcdc8552	-0.02691904
183	0xbb215225	-0.0024615612
184	0xbcf39641	-0.029734733
185	0xbe493082	-0.1964741
186	0xbe1cc030	-0.15307689
187	0x3a95fa44	0.0011442383
188	0xbcdddc08	-0.027082458
189	0xbbe61210	-0.007021196
190	0xbdc90a14	-0.098163754
191	0xbb22af71	-0.002482381
192	0x3846f0c0	4.7431095e-05
193	0xbce854a4	-0.028360672
194	0xbb5449d6	-0.0032392642
195	0xbcc54939	-0.024082767
196	0xbce058b6	-0.02738605
197	0xbcf0cbbc	-0.029394023
198	0xbce565b9	-0.028002607
199	0xbd01a73b	-0.031653624
200	0x3aeb7fc4	0.0017967154
201	0xbb255ef1	-0.0025233591
202	0xbb55c29e	-0.0032617222
203	0xbb317083	-0.002707512
204	0xbce40793	-0.027835643
205	0xbce0a8dd	-0.02742427
206	0xbcd6fb55	-0.026242891
207	0xbcf6070d	-0.030032659
208	0xbcecd1d3	-0.028908646
209	0xbcec8794	-0.028873242
210	0xbcee91bc	-0.029122226
211	0x39119630	0.00013884227
212	0x3ae69550	0.0017592106
213	0x3ae15a8f	0.0017193126
214	0xbbda57c6	-0.0066632954
215	0xbe6482ff	-0.22315596
216	0xbd9a379b	-0.07530137
217	0xbe866f0b	-0.26256594
218	0x38b3a5c0	8.5662585e-05
219	0xbcfc0353	-0.030763304
220	0xbce63508	-0.02810146
221	0x3ad33010	0.0016112346
222	0xbcf53d35	-0.029936412
223	0xbcda1ee0	-0.02662605
224	0xbcf054e7	-0.02933736
225	0xbce8a558	-0.028399155
226	0x3b07bcd4	0.0020711916
227	0xbcc88a3c	-0.024479978
228	0xbe79c52a	-0.24391618
229	0xbdf1e41f	-0.11811089
230	0xbcaa74d0	-0.020807654
231	0x3b2c7fb1	0.0026321227
232	0xbce36c34	-0.027761556
233	0xbcef6d16	-0.02922682
234	0xbd7336f5	-0.059378583
235	0xbcfb5cec	-0.030683957
236	0xbe62c235	-0.22144397
237	0xbb2241b8	-0.002475841
238	0xbe414f39	-0.18877877
239	0xbe588dcc	-0.21147841
240	0xbed1bfbf	-0.40966603
241	0xbee54a92	-0.44783455
242	0xbcf5ed01	-0.030020239
243	0xbcef8090	-0.029236108
244	0xbd013f2f	-0.031554397
245	0xbcf8f3ac	-0.03038963
246	0x38dc8000	0.00010514259
247	0xbce97ad6	-0.028500956
248	0xbccf9c44	-0.025343068
249	0xbcf3d87f	-0.02976632
250	0xbce10966	-0.027470302
251	0xb983d180	-0.00025142357
252	0xb5bead23	-1.4206493e-06
253	0x38ae7e11	8.320448e-05
254	0xbae8fd95	-0.0017775769
255	0xbb0986db	-0.002098492

output_linear.bias f4 [3]
0	0xbc6f682c	-0.014612239
1	0xbcda3fca	-0.026641745
2	0x3c9d02c8	0.019166365
