examples/player_template_py/models/actor_332k.pkl (torch, 276895 bytes, 6 tensors)

input_linear.weight f4 [256, 7]
0	0x3d839eb7	0.06426757
1	0xbe6fd741	-0.23421957
2	0xbe8bea8f	-0.27327392
3	0xbecc09db	-0.3985127
4	0x3e80864c	0.2510246
5	0x3c61f68f	0.013791694
6	0x3dc5cfad	0.09658752
7	0xbc85bc53	-0.016325152
8	0xbdd3818f	-0.10327446
9	0xbd9c9307	-0.07645231
10	0x3e9633b1	0.29336312
11	0x3c876a06	0.016530048
12	0xbc8a03fe	-0.016847607
13	0x3e2b7854	0.1674512
14	0x3caf6c3b	0.021413913
15	0xbdacb36a	-0.08432658
16	0x3bf03018	0.007329952
17	0x3e8eade1	0.27867034
18	0x3dbe193b	0.09282156
19	0xbb6598b8	-0.0035033654
20	0x3e264107	0.16235743
21	0xbcb9ed8c	-0.022696279
22	0xbd67d8da	-0.05660329
23	0x3c6b71f8	0.014370434
24	0x3cfca680	0.030841112
25	0xbd79607e	-0.060883038
26	0xbcff01d8	-0.031128809
27	0xbcd2e02c	-0.02574166
28	0xbdc6953c	-0.09696433
29	0xbedec666	-0.4351074
30	0xbf0c03a2	-0.54693043
31	0xbe9477ad	-0.28997555
32	0x3ef78fb1	0.48351815
33	0xbdb1b425	-0.08676938
34	0x3d26c461	0.040714625
35	0x3cf43094	0.02980832
36	0x3d2d1010	0.042251647
37	0xbd05147e	-0.032490246
38	0xbd259d90	-0.040433466
39	0x3c82036c	0.015870772
40	0xbd0380f2	-0.032105394
41	0xbbe3fc10	-0.0069575384
42	0x3dcb03f4	0.099128634
43	0xbe0d40bc	-0.13794225
44	0xbe669647	-0.22518264
45	0xbf0bdcb7	-0.5463366
46	0x3e2b308e	0.16717741
47	0xbd49f3fd	-0.04930495
48	0xbe4435fa	-0.19161215
49	0x3da6411e	0.08117889
50	0xbe7aa627	-0.24477445
51	0xbe6b6f7f	-0.22991751
52	0xbeba9e22	-0.3644877
53	0x3e673dcf	0.22582172
54	0xbbc17d93	-0.005904862
55	0x3d524dbf	0.051343676
56	0xbd80d002	-0.06289674
57	0xbed22c7d	-0.41049567
58	0xbf00f14f	-0.5036821
59	0xbc6cd76d	-0.014455658
60	0x3ea934de	0.33048147
61	0xbc1192ff	-0.008885144
62	0x3e982ca7	0.29721567
63	0x3c2e5188	0.010639556
64	0xbd492ff2	-0.04911799
65	0xbcf152cc	-0.029458426
66	0xbd31915e	-0.043351524
67	0xbd0fdb28	-0.035121113
68	0x3d06e0e4	0.032929316
69	0xbc9681b4	-0.018372394
70	0xbcb434d0	-0.02199784
71	0x3b672800	0.0035271645
72	0xbce52b08	-0.02797462
73	0x3bf6afe0	0.00752829
74	0x3c4d5360	0.012532085
75	0xbd3d832a	-0.046267666
76	0x3c5faff0	0.013652787
77	0xbd082b0a	-0.03324417
78	0x3b1d08c0	0.0023961514
79	0x3c686ce0	0.014186114
80	0xbc0e7a48	-0.008696146
81	0x3cc1e82c	0.023670278
82	0xbd098eb4	-0.033583358
83	0xbd318348	-0.04333809
84	0xbd944ac4	-0.07240823
85	0xbe076e9a	-0.13225785
86	0xbe07a1ec	-0.13245362
87	0x3ed8803d	0.42285338
88	0x3e76a5db	0.24086706
89	0x3d4c8f1b	0.049941164
90	0x3e845f4e	0.25853962
91	0xbc8d935f	-0.017282186
92	0x3c48e932	0.012262629
93	0xbc2e6aa8	-0.010645546
94	0x3ed9c946	0.42536372
95	0xbd515a9a	-0.051111795
96	0x3d389082	0.04505969
97	0x3e616aa1	0.22013332
98	0x3d245157	0.040116634
99	0xbe3dc99e	-0.18533942
100	0xbe35bf3e	-0.17748734
101	0xbed80e43	-0.4219838
102	0x3deda7b0	0.116042495
103	0x3d35b40d	0.044361163
104	0x3debdbc9	0.1151653
105	0x3c739b05	0.0148685025
106	0x3ce4b56e	0.027918544
107	0x3d6990e9	0.057022963
108	0x3ec7a442	0.38992506
109	0xbd715a62	-0.058924086
110	0x3dc32586	0.095286414
111	0x3e330f42	0.17486289
112	0x3d19d62e	0.037557773
113	0x3cf63154	0.030052818
114	0xbb7190a0	-0.0036859885
115	0x3cf9eebc	0.030509345
116	0xbcf18d8c	-0.02948644
117	0xbd010822	-0.031501897
118	0xbbb881d0	-0.005630709
119	0xbc4deac0	-0.012568176
120	0xbd446868	-0.047951132
121	0xbcb7d380	-0.022439718
122	0xbd6015a6	-0.054708146
123	0x3cbbc52c	0.022921167
124	0x3d68ab3a	0.05680392
125	0xbba77ea0	-0.0051115304
126	0xbd6102ca	-0.0549343
127	0xbd13d1da	-0.036088802
128	0xbd4016d8	-0.046896785
129	0xbbd38a20	-0.006455675
130	0x3d3a5110	0.045487463
131	0x3ca618d0	0.020275503
132	0xbb9e8c30	-0.004838489
133	0x3cf568ae	0.029957142
134	0xbe80cc63	-0.25155935
135	0xbe5fe1fe	-0.21863553
136	0xbec0a4bc	-0.37625682
137	0x3e7b1148	0.24518311
138	0xbcaa90a7	-0.020820929
139	0xbe3f1aa3	-0.18662505
140	0xbbfa40ae	-0.007637105
141	0xbd504ca1	-0.05085433
142	0xbd577fc9	-0.0526121
143	0x3e90e402	0.28298956
144	0x3dcc1bb7	0.09966224
145	0x3d2e03b6	0.042484008
146	0x3dc7bd33	0.09752884
147	0x3d0ed1cc	0.034868047
148	0xbd20c70c	-0.039252326
149	0x3c2998c0	0.01035136
150	0xbd578ee8	-0.05262652
151	0x3c071138	0.008243851
152	0xbd12ed66	-0.035870932
153	0xbd043dbe	-0.032285444
154	0x3b6a9ab6	0.0035797781
155	0x3dc3a5cd	0.09553108
156	0x3d0f05c7	0.03491762
157	0x3ea7ac44	0.32748616
158	0xbdc358e8	-0.09538442
159	0x3cac70f1	0.021049948
160	0x3e32cb10	0.17460275
161	0xbca17b4c	-0.019712113
162	0x3c51bd20	0.012801439
163	0x3d263492	0.04057748
164	0xbbf87220	-0.007581964
165	0x3d114dfa	0.035474755
166	0xbd1a52a0	-0.037676454
167	0xbd58c02e	-0.05291765
168	0xbcbce018	-0.023056075
169	0xbbca90f0	-0.0061818287
170	0xbd7c6fd0	-0.06163007
171	0x3d3213e8	0.043476015
172	0x3d7b3618	0.061330885
173	0xbc8513f8	-0.016244873
174	0xbc6336f8	-0.013868086
175	0x3d1a29b8	0.037637442
176	0xbd06b068	-0.032883078
177	0x3d191c7a	0.037380673
178	0xbd16a6e0	-0.03678024
179	0x3ba78130	0.005111836
180	0xbd5ba2b6	-0.05362197
181	0x3d2ed01e	0.042678945
182	0xbdca004e	-0.09863339
183	0xbecddc17	-0.40206978
184	0xbec0225e	-0.3752622
185	0xbec14c72	-0.37753636
186	0x3ebaa098	0.36450648
187	0xbd98c312	-0.07459082
188	0x3e014785	0.12624939
189	0x3da92fac	0.08261046
190	0xbe9e78f5	-0.30951658
191	0xbe98b58e	-0.29826015
192	0xbefc4dad	-0.49278012
193	0x3e6b7189	0.22992529
194	0x3c498c93	0.012301582
195	0x3e13a698	0.14419019
196	0xbd210e94	-0.039320543
197	0xbd1d0ed6	-0.038344227
198	0xbc0c58a8	-0.008566059
199	0x3c818b7c	0.015813582
200	0xbd100d74	-0.03516908
201	0xbd768a02	-0.06019021
202	0xbc08ae98	-0.008342408
203	0x3bb7599e	0.0055954
204	0xbdbba326	-0.091619775
205	0xbd23bc09	-0.039974246
206	0x3eb9c6bd	0.36284438
207	0x3d33b6fb	0.043875676
208	0x3d917715	0.07102791
209	0x3dd32591	0.103098996
210	0xbda7ab1e	-0.08186935
211	0xbdf2a757	-0.11848324
212	0xbdd3ad9a	-0.10335846
213	0x3ecf9536	0.40543526
214	0x3db7c46a	0.0897301
215	0x3d3b8f0f	0.04579073
216	0x3e8b2f26	0.2718441
217	0x3d1fe462	0.039036162
218	0x3d3d7ea1	0.04626334
219	0x3d8a0678	0.06739515
220	0x3e9097fa	0.2824095
221	0xbd4c345b	-0.049854618
222	0x3db424da	0.087960914
223	0x3dcaf632	0.09910239
224	0xbb988690	-0.004654713
225	0x3d791510	0.060811102
226	0xbd6f6964	-0.058450118
227	0xbd79093a	-0.060799815
228	0x3ca27570	0.01983139
229	0xbd52b80e	-0.05144506
230	0x3d674ce8	0.056469828
231	0xbcaf28b8	-0.02138172
232	0x3c120200	0.00891161
233	0xbd164000	-0.03668213
234	0x3d2c9784	0.042136684
235	0xbd7c7d6c	-0.06164305
236	0x3d4e48fc	0.050362572
237	0x3cea7a68	0.028622821
238	0xbccb3dc0	-0.024809718
239	0xbbafbab0	-0.005362831
240	0xbcf13c9c	-0.029447846
241	0xbd6bc346	-0.057559274
242	0xbd3136c6	-0.043265127
243	0xbd7f1c6c	-0.062282965
244	0xbc955254	-0.018227734
245	0x3c0777ec	0.008268338
246	0x3d4136c8	0.047171384
247	0xbbb9e07f	-0.005672514
248	0x3e9cb5f7	0.30607578
249	0xbc556605	-0.013024812
250	0x3d747f2f	0.059691604
251	0x3e4d6fef	0.2006223
252	0xbd4a0d6c	-0.049329206
253	0xbb9fc15c	-0.004875345
254	0xbd464d46	-0.048413537
255	0x3e92c474	0.28665507

input_linear.bias f4 [256]
0	0x3d39e1d2	0.045381375
1	0x3eb91561	0.36149123
2	0x3eb005a5	0.34379306
3	0xbeb7787e	-0.35834116
4	0x3e314dd8	0.17314851
5	0xbe2696ff	-0.16268538
6	0x3e09d40d	0.13459797
7	0x3d0ddbca	0.034633435
8	0x3dc1a1d4	0.094546944
9	0xbe4759d9	-0.19467868
10	0xbd4cde08	-0.050016433
11	0xbe544c5c	-0.20732254
12	0x3e9f76f9	0.31145456
13	0x3eb8fc03	0.3612977
14	0x3d2f8d46	0.04285934
15	0x3ebee667	0.37285158
16	0xbe6fc18b	-0.23413675
17	0xbe246697	-0.1605476
18	0xbe481b24	-0.19541603
19	0x3e891840	0.26776314
20	0x3e4f85a8	0.2026583
21	0xbda5dec4	-0.0809913
22	0x3ead7a06	0.3388216
23	0xbe1bd4b8	-0.15217865
24	0xbe1aeda7	-0.1512972
25	0xbe5cf825	-0.21579035
26	0x3e2a5f7d	0.16637988
27	0x3d539e91	0.051664893
28	0xbd614a98	-0.05500278
29	0x3ec8478b	0.39117083
30	0x3ea9b413	0.33145198
31	0x3d619097	0.055069532
32	0xbda8cf58	-0.08242673
33	0xbdcfff6c	-0.1015614
34	0xbe70cee1	-0.23516418
35	0x3eb19971	0.3468738
36	0x3eb3dfb9	0.35131624
37	0xbe813619	-0.25236586
38	0x3e2fddfc	0.17174524
39	0xbebe9bf8	-0.3722837
40	0x3df279d1	0.11839641
41	0xbe427dd0	-0.18993306
42	0xbe658964	-0.22415692
43	0x3eba8ce9	0.3643563
44	0x3e685d9b	0.22691958
45	0xbe19bf91	-0.15014483
46	0x3decc86a	0.115616634
47	0xbe30caf4	-0.1726492
48	0xbe1f8dd7	-0.15581451
49	0x3eb371b1	0.35047677
50	0x3d88e966	0.06685142
51	0x3eb436b1	0.35197976
52	0x3eb2fe12	0.34959465
53	0x3e0894bf	0.13337992
54	0x3e15e63f	0.14638613
55	0x3d28e3be	0.041232817
56	0x3d85c41a	0.06531544
57	0xbdd15f3c	-0.10223243
58	0x3dbd6359	0.09247465
59	0xbebf7a04	-0.37397778
60	0xbe7cac27	-0.24675046
61	0x3e82b631	0.25529626
62	0x3dc7015f	0.097170584
63	0x3d1ba216	0.037996374
64	0x3cfd74e7	0.030939532
65	0xbd4e7c78	-0.05041167
66	0x3d2294dd	0.03969275
67	0x3e514cd6	0.20439467
68	0xbe594733	-0.21218567
69	0xbe8862c6	-0.26637858
70	0x3e0366bd	0.1283216
71	0x3e05403e	0.13012788
72	0x3e93f0df	0.28894708
73	0x3e15f805	0.14645393
74	0xbe0f76b0	-0.1401012
75	0xbe922f50	-0.28551722
76	0xbcf1d248	-0.029519215
77	0x3db46033	0.08807411
78	0x3dbb6ba2	0.09151389
79	0xbe65fbcc	-0.22459334
80	0xbe5d7fac	-0.21630734
81	0x3d2fbb75	0.042903382
82	0x3e2b4728	0.16726363
83	0xbdd23fc0	-0.102660656
84	0x3eae78db	0.3407658
85	0xbec08fb7	-0.37609646
86	0xbe66005b	-0.22461073
87	0xbe04fb09	-0.12986387
88	0x3e0c15e5	0.13680227
89	0xbeaf4b30	-0.3423705
90	0xbd9453ce	-0.07242547
91	0xbe676203	-0.22595982
92	0x3ea1ae93	0.31578502
93	0x3e445023	0.19171195
94	0xbe656b58	-0.2240423
95	0x3e0b2af0	0.13590598
96	0xbe8b2814	-0.27179015
97	0xbd7dec78	-0.061993092
98	0x3ea00c09	0.31259182
99	0x3dc2da64	0.09514311
100	0x3dbf89b3	0.09352436
101	0xbeb8f586	-0.3612482
102	0x3e80a69b	0.2512711
103	0x3dd0daed	0.10198007
104	0xbeb31e06	-0.34983844
105	0x3ed41f2d	0.41430035
106	0xbe914714	-0.2837454
107	0xbd2bbe72	-0.04192967
108	0x3e6b06e6	0.2295185
109	0x3e5d6b99	0.21623076
110	0x3e212b0c	0.15739077
111	0x3e2a301e	0.16619918
112	0xbeb9af2c	-0.36266458
113	0x3e0362e4	0.12830693
114	0x3eb857b9	0.36004427
115	0x3e7f2c97	0.24919353
116	0x3c5ead51	0.013591127
117	0xbe9106b9	-0.2832544
118	0x3e41c363	0.1892219
119	0x3ec0765d	0.37590304
120	0xbe9778fb	-0.29584488
121	0x3d857807	0.06517034
122	0x3e9f9fef	0.31176707
123	0x3d939924	0.07206944
124	0xbe5c96de	-0.21541926
125	0xbe9b640c	-0.30349767
126	0x3eb8ce50	0.36094904
127	0xbd7132b0	-0.05888623
128	0x3e4fb9e3	0.20285754
129	0x3d434a08	0.047678024
130	0x3eba77d0	0.36419535
131	0xbe2fff35	-0.17187198
132	0x3e95f25f	0.29286477
133	0x3ebb45da	0.3657673
134	0x3e0cb0c7	0.1373931
135	0x3eb825f1	0.35966447
136	0x3e17f747	0.14840423
137	0xbe2be5a3	-0.16786818
138	0x3e216877	0.15762506
139	0x3e8696ec	0.2628702
140	0x3ea0f85b	0.3143948
141	0x3e01cb30	0.12675166
142	0xbeb72013	-0.35766658
143	0x3cb005a5	0.021487067
144	0x3ea60586	0.3242609
145	0xbe8b416e	-0.27198356
146	0xbebcd117	-0.36878273
147	0xbe38b2be	-0.18036935
148	0xbdf00a58	-0.11720723
149	0x3e0e2268	0.13880312
150	0xbd9e313c	-0.077242345
151	0x3ea81d58	0.32834888
152	0xbe82cbb5	-0.2554604
153	0xbe003e02	-0.12523654
154	0xbe75e739	-0.24013986
155	0xbebffa9a	-0.3749588
156	0xbe54154c	-0.20711249
157	0xbe0b293e	-0.13589951
158	0x3daceec5	0.08443979
159	0x3d2251c0	0.039628744
160	0x3c228fa0	0.009921938
161	0x3d4579c0	0.048211813
162	0xbe25e1ae	-0.16199371
163	0x3e354668	0.17702639
164	0x3e80f796	0.25188893
165	0xbe404e85	-0.18779953
166	0xbe821011	-0.25402883
167	0x3eb94283	0.36183557
168	0x3eb1bb4a	0.34713203
169	0x3ddbd267	0.107334904
170	0x3e9c0736	0.30474252
171	0x3eba9a67	0.36445925
172	0x3e23828c	0.15967768
173	0xbdea2d4c	-0.11434421
174	0x3e90e295	0.28297868
175	0x3e48db14	0.19614822
176	0xbdc01018	-0.0937807
177	0x3e3396d3	0.17538004
178	0xbe8e1ccb	-0.27756342
179	0xbe8929a8	-0.26789594
180	0x3e4f0035	0.20214923
181	0xbe1f87b6	-0.15579113
182	0xbe99f752	-0.30071503
183	0x3e8cbb2f	0.2748656
184	0xbea37860	-0.31927776
185	0xbebf0721	-0.37310126
186	0x3e5760c7	0.21033011
187	0x3d8b2173	0.06793489
188	0x3e40c212	0.18824032
189	0xbe46d948	-0.19418824
190	0x3de6ac4f	0.11263334
191	0x3e124d43	0.14287286
192	0x3d8b79d0	0.06810343
193	0xbeb6d292	-0.35707527
194	0xbea31c3a	-0.31857473
195	0xbd883b30	-0.06651914
196	0xbe734100	-0.23755264
197	0x3e19039c	0.14942783
198	0x3db83695	0.08994786
199	0xbe814a72	-0.2525211
200	0x3e9b0a56	0.30281323
201	0xbeb6ce14	-0.357041
202	0xbea1d6c8	-0.31609178
203	0x3ea5731a	0.32314378
204	0xbd9e31b8	-0.07724327
205	0x3eaa4641	0.33256724
206	0x3cea63a3	0.028611964
207	0xbe144a35	-0.14481433
208	0x3d97f40b	0.074195944
209	0xbe993455	-0.2992274
210	0x3ebcb34b	0.3685554
211	0x3e91135d	0.28335086
212	0xbe0de9d1	-0.13858725
213	0xbeaab572	-0.33341557
214	0xbe3ba822	-0.18325856
215	0x3dba68f9	0.09102053
216	0xbe4e3c6a	-0.20140234
217	0x3e2e6aab	0.17032878
218	0x3daffd22	0.08593203
219	0xbeadd30a	-0.33950073
220	0x3ebebb8a	0.37252456
221	0x3da83f3c	0.08215186
222	0xbe5e9e52	-0.21740082
223	0x3ea8a1fc	0.32936084
224	0xbe337ab5	-0.17527278
225	0xbeb05ba3	-0.34444913
226	0x3e2afddb	0.166984
227	0x3d362bd0	0.044475377
228	0x3e778d98	0.24175107
229	0x3d1e9237	0.03871366
230	0xbd7450c0	-0.05964732
231	0xbe4ccaa9	-0.19999184
232	0xbea9c5ac	-0.33158624
233	0xbe5b43ab	-0.21412532
234	0x3d6e5ba1	0.058192853
235	0xbe76987a	-0.24081603
236	0xbda3c7c8	-0.079970896
237	0xbebedea5	-0.3727924
238	0xbdb73ab8	-0.089467466
239	0xbeae6df9	-0.34068277
240	0x3ea24d6a	0.31699687
241	0x3e365007	0.17803966
242	0x3d8ec297	0.06970709
243	0x3e4b1a8f	0.1983435
244	0x3d8108cd	0.06300507
245	0xbe9af1f1	-0.30262712
246	0x3cbe6083	0.02323938
247	0xbdf633fc	-0.12021634
248	0x3c0c3686	0.008557921
249	0xbd921974	-0.07133761
250	0xbe31c75a	-0.17361203
251	0x3db564a5	0.08857087
252	0xbdd55114	-0.10415855
253	0xbe8ba882	-0.27277
254	0x3e666682	0.22500041
255	0x3df7628b	0.120793425

middle_linear.0.weight f4 [256, 256]
0	0x3e663ad5	0.2248338
1	0x3d20b600	0.03923607
2	0xbd12fb45	-0.03588416
3	0x3d1d976c	0.038474485
4	0x3e0f98a3	0.1402307
5	0xbcc5be68	-0.024138644
6	0x3da20f78	0.07913107
7	0x3df32cd2	0.11873783
8	0x3efff4a0	0.49991322
9	0xbc903974	-0.01760552
10	0x3d2f3f2a	0.042784847
11	0x3c8b96c8	0.017039672
12	0xbd39afcb	-0.045333665
13	0x3cb0fa5d	0.021603758
14	0x3dfd8953	0.12379708
15	0xbd889fde	-0.06671117
16	0xbd674f5c	-0.056472167
17	0xbd0da79a	-0.034583665
18	0xbb0a8160	-0.0021134242
19	0x3dd17e4e	0.10229169
20	0x3d16c2b2	0.03680677
21	0x3c9d58d8	0.019207403
22	0x3c62ec7b	0.013850327
23	0xbd52f452	-0.051502533
24	0x3cc83d7c	0.02444338
25	0xbc71a790	-0.014749423
26	0x3e1cae29	0.15300812
27	0x3e68fbe2	0.22752336
28	0x3c999338	0.018746957
29	0xbb4a06c0	-0.0030826777
30	0xbd5884c7	-0.052861
31	0xbd8e6841	-0.069534786
32	0xbca93dd4	-0.020659365
33	0x3d7b1e62	0.061308272
34	0xbc9f3338	-0.019433603
35	0xbc6cbd4f	-0.014449432
36	0xbd3ee052	-0.046600647
37	0xbd76ce54	-0.060255364
38	0x3d6b2b0f	0.05741411
39	0x3b418b80	0.0029532611
40	0xbe424f74	-0.18975621
41	0x3d309dd6	0.043119274
42	0xbccb3068	-0.024803355
43	0x3cdbfd56	0.026854198
44	0xbcf96dcc	-0.030447863
45	0x3c0f5250	0.008747652
46	0x3dbfed57	0.09371441
47	0xbc009980	-0.007849097
48	0xbd0b8ee6	-0.034071825
49	0x3c1b5466	0.009480571
50	0x3ddc0902	0.107439056
51	0x3c583d98	0.013198279
52	0x3d4e677f	0.05039167
53	0x3e389097	0.18023907
54	0x3d75ffe7	0.0600585
55	0x3de56fe9	0.11202986
56	0x3b8a6030	0.004222892
57	0xbd68f062	-0.056869872
58	0x3dc34b5e	0.095358595
59	0x3cbcacd4	0.02303163
60	0xbd50591e	-0.05086624
61	0x3d8425dc	0.064525336
62	0x3dceb1d5	0.100925125
63	0x3de9e489	0.11420543
64	0x3e4a7625	0.19771631
65	0xbc166540	-0.009179413
66	0x3db9c5f8	0.09070963
67	0x3cd7fddd	0.026366169
68	0x3d0c670c	0.03427796
69	0xb9c03700	-0.00036662072
70	0x3e12ce33	0.14336471
71	0xbdcbec48	-0.099571764
72	0x3b5d2150	0.003374178
73	0x3dd26446	0.10273032
74	0xbd3ef694	-0.046621874
75	0x3d5cfecc	0.05395393
76	0x3e54eb72	0.2079294
77	0x3dfc0365	0.12305335
78	0xbe549e32	-0.20763472
79	0xbd3ae282	-0.04562617
80	0x3d56c4f8	0.052433938
81	0x3e0dc88f	0.13846038
82	0x3d257d17	0.040402498
83	0xbbcc0a10	-0.0062267855
84	0x3d4f447c	0.05060242
85	0xbb56a120	-0.0032749847
86	0x3bf67700	0.00752151
87	0xbc7740b8	-0.015091114
88	0x3d8950cd	0.06704865
89	0x3d1d50f4	0.03840728
90	0x3e7a8ba6	0.24467334
91	0x3cb4ca98	0.02206926
92	0xbd8622eb	-0.06549629
93	0x3d889744	0.06669477
94	0xbd04d004	-0.03242494
95	0x3ddc241f	0.10749077
96	0x3a8c9f40	0.0010728613
97	0xbc95ffd8	-0.018310472
98	0xbc90ee33	-0.017691707
99	0x3ceb18ba	0.028698314
100	0x3e091304	0.1338616
101	0x3d2cc7ec	0.042182848
102	0xbd0bd669	-0.034140024
103	0x3d976beb	0.073936306
104	0x3cf6a048	0.030105725
105	0xbdc64671	-0.096814044
106	0xbd3f766c	-0.046743795
107	0x3e70d137	0.23517309
108	0x3c620280	0.013794541
109	0x3dcdfb06	0.100576445
110	0x3e6587bf	0.22415064
111	0x3d89cdd1	0.067287095
112	0xbb91f290	-0.0044539645
113	0x3ded6c0e	0.115928754
114	0xbd90ece7	-0.070764355
115	0x3d02eb9c	0.031962976
116	0x3dd741de	0.1051061
117	0xbba970e0	-0.0051709265
118	0xbca46d9a	-0.020071793
119	0x3cb54ad5	0.02213041
120	0xbc5436e0	-0.012952536
121	0x3e6ef102	0.23334125
122	0xbdefb004	-0.11703494
123	0x3dda4476	0.10657589
124	0xbd6db1a0	-0.058030725
125	0xbbb41e30	-0.0054967627
126	0x3b8d3cdb	0.004310233
127	0xbd654238	-0.055971354
128	0xbbf9740e	-0.0076127117
129	0x3e16d457	0.14729439
130	0x3d08f0ec	0.033432886
131	0xbb5d0f20	-0.003373094
132	0xbcdc425f	-0.026887117
133	0x3cb54a1d	0.022130067
134	0x3d226b2c	0.03965299
135	0xbd351dee	-0.044217996
136	0x3dbf3e6a	0.093380764
137	0x3d6c9058	0.057754844
138	0x3d234f76	0.0398707
139	0xbd4a2c5d	-0.049358714
140	0xbd7ae25e	-0.061251037
141	0x3e4cd612	0.20003536
142	0x3d52815c	0.051392898
143	0x3e1e96cd	0.15487213
144	0xbd948107	-0.072511725
145	0x3c3c1e90	0.011481896
146	0x3ca94654	0.020663418
147	0x3d794522	0.060856946
148	0x3ed2bc91	0.4115949
149	0x3dc2d636	0.09513514
150	0xbc912900	-0.017719746
151	0xbcedb27c	-0.029015772
152	0xbcce4ff8	-0.025184616
153	0x3d217554	0.039418533
154	0xbd7646a0	-0.060125947
155	0xbb717f80	-0.0036849678
156	0xbd63cc76	-0.05561491
157	0x3ad13000	0.001595974
158	0x3e245197	0.16046749
159	0x3e28843e	0.16456696
160	0xbd65b8b4	-0.05608435
161	0x3e5e2f14	0.21697646
162	0x3cd66c1c	0.026174597
163	0x3c9b0d6f	0.018927304
164	0xbcec4dde	-0.028845724
165	0x3d1b8afa	0.037974335
166	0xbd33082c	-0.043708965
167	0xbd13563f	-0.035970923
168	0xbdd0a9bf	-0.101886265
169	0x3d845998	0.06462401
170	0x3d3794e5	0.04481973
171	0x3cb4c98f	0.022068767
172	0xbbf13b47	-0.0073618027
173	0x3d7c0ae8	0.06153384
174	0xbc45b9bb	-0.012068207
175	0x3dc6d7c3	0.09709122
176	0xbd5ece14	-0.05439575
177	0x3df94d05	0.121728934
178	0x3ca996b4	0.020701744
179	0x3c18ebe0	0.009333581
180	0x3dfd3660	0.12363887
181	0xbcd4b144	-0.025963433
182	0xbcbca970	-0.023030013
183	0x3d33f249	0.043932233
184	0x3ca7ca70	0.020482272
185	0x3d3af4f4	0.04564376
186	0xbc8b3c60	-0.016996562
187	0x3e23c3f7	0.15992723
188	0x3e23a368	0.15980303
189	0xbb0bb020	-0.0021314695
190	0x3e88789c	0.26654518
191	0x3d4d3e6a	0.05010835
192	0x3de9061e	0.1137812
193	0x3b51dbe0	0.0032021925
194	0xbd3f2f52	-0.046675988
195	0x3d2c606c	0.042084143
196	0xbd0a0cc8	-0.033703595
197	0x3e078d92	0.13237599
198	0x3e6aa115	0.2291301
199	0x3d39946e	0.04530757
200	0x3bd8bfb1	0.0066146483
201	0x3d72912c	0.059220478
202	0x3ba1cbc0	0.004937619
203	0xbd47cc8e	-0.048779063
204	0xbd69055a	-0.05688987
205	0x3d02be04	0.031919494
206	0x3e667408	0.225052
207	0x3d180b98	0.03712043
208	0x3de52173	0.111880206
209	0x3b400940	0.0029302388
210	0xbc8482a2	-0.016175572
211	0x3982ddd9	0.00024960822
212	0xbc0280d8	-0.007965289
213	0x3c82fcfc	0.015989773
214	0xbd0a61fe	-0.03378486
215	0x3e3eafe7	0.18621789
216	0x3d7f043c	0.062259898
217	0xbd011666	-0.0315155
218	0x3d9f2018	0.07769793
219	0x3d19e83e	0.037575
220	0x3d0c771f	0.03429329
221	0x3df1a49f	0.11798977
222	0x3c23e920	0.010004312
223	0xbc888e97	-0.016669555
224	0x3c8bc4d4	0.017061628
225	0x3cb1f4c4	0.021723159
226	0x3dd98789	0.106215544
227	0x3dcae88f	0.09907638
228	0x3db1a13a	0.0867333
229	0x3dbca107	0.09210401
230	0xba520c80	-0.0008012727
231	0xbd593966	-0.053033255
232	0x3d35ac30	0.044353664
233	0x3b4d00c0	0.0031280965
234	0x3e1aac4e	0.15104792
235	0xbc1a6fd8	-0.00942608
236	0x3ceb4380	0.02871871
237	0x3c8a9fa8	0.016921833
238	0xbcaa5488	-0.02079226
239	0x3cdbe71c	0.0268436
240	0xbd671cb9	-0.056423876
241	0x3d392f86	0.045211338
242	0x3e2eb333	0.17060547
243	0x3e2c697f	0.16837119
244	0x3e92afb6	0.28649682
245	0xbcc10588	-0.023562208
246	0x3e5d1cbd	0.21592994
247	0x3c0a5698	0.008443497
248	0xbcf77b7c	-0.03021025
249	0x3be98fd0	0.0071277395
250	0x3d0a00e2	0.03369225
251	0x3d96cb49	0.07362992
252	0x3d7c2674	0.06156011
253	0xbce44a2c	-0.0278674
254	0x3e16602a	0.14685121
255	0x3e12a730	0.1432159

middle_linear.0.bias f4 [256]
0	0xbcf5e899	-0.030018138
1	0x3cbbe670	0.02293703
2	0xbcd9d3f0	-0.026590317
3	0xbd81a732	-0.06330718
4	0xbb626d88	-0.003455015
5	0xbd904acf	-0.070455186
6	0xbd0847c7	-0.033271577
7	0x3bbfb790	0.00585074
8	0x3d1d326d	0.038378168
9	0x3cb41d7b	0.021986714
10	0x3da45d2d	0.08025584
11	0xbab8f4de	-0.0014111062
12	0xbd7a9be7	-0.061183836
13	0xbcc7de1c	-0.024397902
14	0xbd312b3e	-0.04325413
15	0xbd8623b3	-0.06549778
16	0xbcf2acd3	-0.029623425
17	0x3d4726e3	0.04862107
18	0x3ced1ef0	0.028945416
19	0xbb457083	-0.0030126877
20	0xbd4197b6	-0.047263823
21	0xbd6e189e	-0.058128946
22	0xbcab4650	-0.020907551
23	0x3d03557c	0.032063946
24	0x3d509c6b	0.05093042
25	0x3db577b5	0.08860723
26	0xbd94cb79	-0.07265372
27	0x3debb225	0.11508588
28	0xba41a9ce	-0.00073876686
29	0xbcf1dc38	-0.029523954
30	0x3c5a4359	0.013321721
31	0xbc9abcb6	-0.018888813
32	0x3c5832d3	0.013195711
33	0x3c2e3f48	0.010635205
34	0x3dac08a2	0.08400084
35	0x3d05bbcb	0.032649796
36	0xbc89da00	-0.016827583
37	0xbda1f105	-0.07907299
38	0xbb8e4ec0	-0.004342884
39	0x3c575c83	0.013144615
40	0x3bdadc07	0.0066790613
41	0xbd3ab127	-0.045579102
42	0x3dcec46a	0.10096057
43	0xbcc9f7c0	-0.02465427
44	0x3b3a349a	0.00284127
45	0xbad5d4ff	-0.0016314088
46	0x3d18a6be	0.037268393
47	0xbcf06916	-0.029346984
48	0x3ba93029	0.005163212
49	0xbd6667bf	-0.056251284
50	0x3e1ff0f4	0.1561926
51	0xbd5aaa59	-0.053385112
52	0xbd4ef878	-0.050529927
53	0xbd3bda9a	-0.04586277
54	0x3d1038a2	0.03521026
55	0x3d725a3b	0.05916808
56	0x3c7fbf8c	0.015609633
57	0xbd1e60e0	-0.038666606
58	0xbd8ca5e7	-0.06867581
59	0x3c80f012	0.015739474
60	0xbccfee5c	-0.025382213
61	0xbc6e2ae0	-0.014536589
62	0xbd4c36a8	-0.04985681
63	0x3cff76fc	0.031184666
64	0x3cd985e8	0.02655311
65	0xbd76e7a6	-0.06027951
66	0x3b9f7254	0.004865924
67	0x3d879422	0.06620051
68	0x3d8eef8a	0.06979282
69	0xbb6617ab	-0.0035109322
70	0xbd50f8e2	-0.051018603
71	0xbd287674	-0.04112859
72	0x3da114c4	0.07865289
73	0xbdba9519	-0.09110469
74	0xbd165a46	-0.036707185
75	0x3c18aff8	0.009319298
76	0xbd73fa52	-0.059564896
77	0x3c834d84	0.016028173
78	0xbce57988	-0.028012052
79	0xbd6321ba	-0.055452086
80	0x3c9f5a22	0.019452158
81	0xbd63511a	-0.055497266
82	0xbd591b3b	-0.053004485
83	0x3dc36d28	0.09542304
84	0x3d6c7ab7	0.057734217
85	0x3c4c3860	0.012464613
86	0x3ae3fdab	0.0017394325
87	0x3c3a580e	0.011373533
88	0xbc01b257	-0.007916055
89	0xbd5a2521	-0.053258065
90	0xbdd68eaf	-0.104764335
91	0x3c7dea28	0.015497722
92	0x3b639231	0.0034724588
93	0xbdc8aa4b	-0.09798106
94	0xbcff1569	-0.031138139
95	0x3dbb9648	0.09159523
96	0xbafed600	-0.0019442439
97	0xbc98ab24	-0.018636294
98	0xbd2f5ae8	-0.042811304
99	0xbad24889	-0.0016043346
100	0xbdaaeca3	-0.08345916
101	0xbc7b911e	-0.015354423
102	0xbd2f9e40	-0.04287553
103	0x3c6856cc	0.01418085
104	0xbd8ed237	-0.06973689
105	0x3bda12d7	0.006655078
106	0xbc2df582	-0.010617616
107	0xbd15553f	-0.03645825
108	0x3ca05b28	0.019574717
109	0x3d06abad	0.032878567
110	0x3e44136f	0.19148038
111	0x3c92cb36	0.017919164
112	0x3cba7252	0.02275959
113	0xbd163833	-0.03667469
114	0xbb48b69d	-0.0030626424
115	0xbd323584	-0.043508068
116	0x3d16f102	0.036850937
117	0x3d411bf1	0.047145788
118	0x3dfd82c5	0.12378458
119	0xbb90c990	-0.0044185594
120	0xbc5bf788	-0.013425715
121	0x3d2e2157	0.042512264
122	0xbd5e8126	-0.054322384
123	0x3d22abc2	0.039714582
124	0xbc7a86b2	-0.015290903
125	0xbc2cee67	-0.010554886
126	0xbd2e3df4	-0.04253955
127	0x3c3a1010	0.011356369
128	0x3c2a62f8	0.010399573
129	0xbd8e27f0	-0.06941211
130	0xbd697fea	-0.057006754
131	0xbcc41db0	-0.023939937
132	0xbc99344a	-0.018701691
133	0xbcee3fec	-0.029083215
134	0xbd1c019e	-0.03808748
135	0xbcf115f9	-0.029429423
136	0xbd5f5667	-0.05452576
137	0x3cc31fb5	0.02381883
138	0xba42869c	-0.0007420571
139	0x3d01e6aa	0.03171412
140	0x39daf6e3	0.00041764145
141	0xbce7c0b9	-0.02829014
142	0xbcd0841a	-0.025453616
143	0xbd794201	-0.06085396
144	0x3c37a81b	0.011209513
145	0x3c9efc4f	0.01940742
146	0xbd209d2d	-0.039212395
147	0x3bfc9e80	0.0077093244
148	0xbdb3d093	-0.08780017
149	0x3cfbdc21	0.030744614
150	0xbd3a3210	-0.0454579
151	0x3d2ee882	0.042702205
152	0x3cb32020	0.021865904
153	0xba971606	-0.0011526949
154	0x3c001373	0.007817137
155	0x3cc2a9d3	0.02376262
156	0xbd23bf3c	-0.039977297
157	0xbd52a319	-0.051425073
158	0x3b8dc6ad	0.0043266625
159	0xbcc2c6e8	-0.023776487
160	0x3d624df5	0.055250127
161	0xbd1e211d	-0.038605798
162	0xbc9263ca	-0.017869849
163	0x3d0b3807	0.03398898
164	0xbcc029f4	-0.023457505
165	0x3d685f0e	0.056731276
166	0xbdae9aaf	-0.08525597
167	0xbd20def8	-0.03927514
168	0xbc849313	-0.016183412
169	0xbd4a9d33	-0.049466323
170	0xbc069fa3	-0.008216771
171	0xbd6e243c	-0.058140025
172	0xbd76b2a4	-0.06022896
173	0x3ce67693	0.028132712
174	0xbcab188c	-0.020885728
175	0xbc05754d	-0.0081456425
176	0xbb94b7d0	-0.0045385137
177	0xbc91a9a5	-0.017781088
178	0xbd52c8b0	-0.05146092
179	0x3c8d4a7e	0.017247435
180	0x3c73c4e9	0.01487849
181	0xbd223216	-0.039598547
182	0x3c097bc0	0.008391321
183	0x3d93c271	0.07214821
184	0x3bdc1fc1	0.0067176525
185	0xbbe4e575	-0.006985361
186	0xbb7a5300	-0.0038196445
187	0xbd0aae92	-0.03385789
188	0xbbd8ecdd	-0.006620033
189	0xbd0229c0	-0.031778097
190	0xbc51db40	-0.012808621
191	0xbd232348	-0.03982857
192	0x3dd479e4	0.10374811
193	0xbc3ab470	-0.011395559
194	0x3ce84724	0.028354235
195	0xbcc851b9	-0.02445303
196	0xbda3815e	-0.07983659
197	0xbd7272e4	-0.0591916
198	0x3cabd6f8	0.020976529
199	0xbdb6d9fb	-0.08928295
200	0x3d595192	0.053056307
201	0xba2fbb80	-0.000670366
202	0xbcb0feaa	-0.021605808
203	0x3ca39c2d	0.019971931
204	0x3bbd1d60	0.005771324
205	0xbd818b64	-0.06325415
206	0x3d00dcf0	0.031460702
207	0xbca4f412	-0.020135913
208	0x3cfd2317	0.030900521
209	0x3c550528	0.013001718
210	0xbcd0666c	-0.025439464
211	0xbba33da3	-0.004981713
212	0xbd64d66f	-0.055868562
213	0xbcd44555	-0.025911966
214	0x3d025fbd	0.031829584
215	0x3cca632f	0.024705498
216	0xbdaf0858	-0.08546513
217	0xbd806c4f	-0.06270658
218	0xbd12cdff	-0.035840984
219	0xbd1c1a68	-0.03811112
220	0xbd60073c	-0.0546944
221	0xbce92d8b	-0.0284641
222	0xbd6fb67a	-0.058523633
223	0x3c9b0ba1	0.018926444
224	0xbc881316	-0.016610663
225	0x3d26d9ec	0.04073517
226	0xbdabfe86	-0.08398156
227	0x3d9c473b	0.07630774
228	0x3895c086	7.140734e-05
229	0xbcb1be38	-0.021697149
230	0x3d414ed1	0.047194306
231	0x3cabf497	0.020990653
232	0xbd125ff4	-0.03573604
233	0xbd5e6cc3	-0.054302942
234	0x3dd06c7c	0.10176942
235	0x3cdbe437	0.02684222
236	0xbc354d08	-0.011065729
237	0x3db797d1	0.089645036
238	0xbd7395c4	-0.059469
239	0x3c7fc72b	0.01561145
240	0xbd73cfc8	-0.059524328
241	0xbd386bf8	-0.045024842
242	0xbd183c59	-0.037166927
243	0xbd90435e	-0.07044099
244	0x3d010ec3	0.03150822
245	0x3cb4a0c4	0.022049315
246	0x3dc7766e	0.097393855
247	0xbd8da873	-0.06916895
248	0xbd1a0858	-0.037605613
249	0xba2ade25	-0.00065180875
250	0x3cc22400	0.023698807
251	0x3cd63fd7	0.026153488
252	0x3e3227ea	0.17398039
253	0x3bd61e51	0.0065343757
254	0xbccf0668	-0.02527161
255	0x3cbf5095	0.023353854

output_linear.weight f4 [3, 256]
0	0xbd64860a	-0.055791892
1	0x3a675834	0.0008825094
2	0xba77ccb0	-0.0009452803
3	0xbd67f185	-0.056626815
4	0xbd6293c5	-0.055316705
5	0xbd712b1d	-0.058879007
6	0xbd5df2df	-0.054186698
7	0x3a24c3f8	0.0006285305
8	0xbd23baa2	-0.03997291
9	0xbf376552	-0.7163898
10	0xbe4fcf82	-0.20294002
11	0xbd621430	-0.055195034
12	0xbd656246	-0.056001924
13	0xba911d45	-0.0011071345
14	0xbd6a8342	-0.057254083
15	0xbd79cebc	-0.060988173
16	0xbb439802	-0.0029845242
17	0x3a400cbb	0.0007326116
18	0x3b3766e4	0.0027984912
19	0xbd653526	-0.05595889
20	0xbd47a733	-0.048743438
21	0xbd5d9125	-0.0540935
22	0xbc29e75f	-0.010370105
23	0xbec06177	-0.3757436
24	0x3ace723e	0.00157506
25	0xbe393158	-0.1808523
26	0xbe7eeb09	-0.24894346
27	0xbe9c0344	-0.3047124
28	0xba96b1a3	-0.0011497032
29	0xbb2f269d	-0.0026725896
30	0xbdbc1b52	-0.091848984
31	0x3b1e10ce	0.0024118903
32	0xbd17ac2d	-0.037029434
33	0xbb4aec27	-0.0030963512
34	0xbdaed1da	-0.0853612
35	0xbadbb0e7	-0.0016761095
36	0x3a1267b8	0.00055849133
37	0xbd6d8e16	-0.05799683
38	0xba62c110	-0.00086499844
39	0x39d0ab50	0.0003980049
40	0xbd4c602d	-0.049896408
41	0xbd6cb458	-0.057789177
42	0xbbc71c67	-0.006076384
43	0xba28cdbc	-0.0006439348
44	0xba8cea46	-0.0010750971
45	0xbd507e8a	-0.050901927
46	0x3b1dcc54	0.0024078088
47	0xbaa92dfa	-0.0012907379
48	0xbd2064dd	-0.03915869
49	0xbd82df73	-0.06390276
50	0xbe1ddff5	-0.15417464
51	0xbd56a536	-0.05240365
52	0x3a464ca5	0.00075645215
53	0xbd461e9f	-0.048369046
54	0xbda89089	-0.08230693
55	0xbda1a23d	-0.078922726
56	0xbd24bc48	-0.04021862
57	0xbd5b4765	-0.053534884
58	0xbb5bee83	-0.0033558912
59	0xbeada7b7	-0.3391702
60	0xbd2ae271	-0.041719858
61	0xba4b35b0	-0.00077518355
62	0x39bd67c8	0.00036126212
63	0xbd1c3b1c	-0.03814231
64	0xbd5a3d87	-0.053281333
65	0xbb39dfd6	-0.0028362176
66	0xbd4f7e82	-0.050657757
67	0xbe81ab7a	-0.2532614
68	0xbc1bfc88	-0.009520657
69	0xbd5a6222	-0.053316243
70	0x3b2370a3	0.0024938963
71	0x3b344118	0.002750462
72	0xbe6b0958	-0.22952783
73	0xbd6c47d0	-0.057685673
74	0xbd3fe312	-0.04684741
75	0xba96ac5b	-0.0011495458
76	0xbb1abeee	-0.0023612338
77	0x3a663aac	0.00087825465
78	0xbb1807ce	-0.0023198011
79	0xbb351582	-0.0027631228
80	0xbb0805c5	-0.0020755392
81	0x395b4940	0.00020912755
82	0xbd51c2a5	-0.051211018
83	0xbe898555	-0.26859537
84	0xbd9d1011	-0.0766908
85	0x3ad32474	0.0016108886
86	0xbd39a5ce	-0.04532414
87	0xbda944c6	-0.082650706
88	0xbd30096f	-0.042977747
89	0xbd666d93	-0.056256842
90	0xbb1882c5	-0.0023271304
91	0x3a8b069c	0.0010606828
92	0xbd598e8e	-0.053114466
93	0xbd81a2c7	-0.063298754
94	0xbd50a8cd	-0.05094223
95	0xbece03f9	-0.40237406
96	0x3a88a29c	0.0010424438
97	0xbe83cb72	-0.25741154
98	0xbb1a1782	-0.0023512547
99	0xba73ac9c	-0.0009295435
100	0xbd5b7c91	-0.053585593
101	0x3adf2294	0.0017023855
102	0xbb20da6c	-0.0024544252
103	0xbd3a8770	-0.04553932
104	0xbd701199	-0.058610532
105	0xbd52272e	-0.051306896
106	0xbd566853	-0.052345585
107	0xbd2f11ff	-0.04274177
108	0x3aee44a0	0.0018178411
109	0xbd3fb739	-0.046805594
110	0xbf074edb	-0.528547
111	0xbe1df1e2	-0.15424302
112	0xbd26bdf7	-0.04070851
113	0xb8d62108	-0.00010210468
114	0xbd5338c5	-0.05156781
115	0xbb27e817	-0.0025620514
116	0xbe501b48	-0.20322907
117	0xbf0f6fbe	-0.5602988
118	0xbe3fd5d6	-0.18733916
119	0x3abd2981	0.0014431925
120	0xbab465b0	-0.0013763215
121	0xbda3c81a	-0.07997151
122	0xbd1b60e8	-0.037934214
123	0xbd674192	-0.056459017
124	0xbd6b7123	-0.057480942
125	0xbd43d5f9	-0.047811482
126	0xbc98d7f4	-0.018657662
127	0x3af46628	0.0018646168
128	0x3a518a04	0.0007993283
129	0xbd679c6e	-0.056545667
130	0xba72cef8	-0.0009262408
131	0x3ad9ba88	0.0016611377
132	0xbd62ccbb	-0.055371027
133	0xbd4e4793	-0.050361227
134	0xbd64fc27	-0.055904534
135	0xbb26cf84	-0.0025453279
136	0x39a62b73	0.0003169436
137	0x3b0b80f4	0.002128658
138	0xbd4686b5	-0.04846831
139	0xbe647553	-0.2231038
140	0xbd69c52e	-0.05707281
141	0xbd68c896	-0.05683192
142	0xbd455846	-0.048179887
143	0xbd61dae9	-0.05514041
144	0xba238f28	-0.00062392885
145	0xbd5c04d3	-0.05371554
146	0xbd623f10	-0.055235922
147	0xb90699e0	-0.00012836559
148	0xbd40c3f7	-0.047061887
149	0x3b1f4f18	0.0024308618
150	0x3b20bd7b	0.0024527002
151	0xbc4acf7b	-0.012378569
152	0x3acec3ac	0.0015774867
153	0xbd4317d3	-0.047630142
154	0xbd2fd1da	-0.04292474
155	0xbde6aa17	-0.11262911
156	0x3afa7130	0.0019107219
157	0xbd6bc181	-0.057557587
158	0xbd72330d	-0.059130717
159	0x3a8c144c	0.0010687201
160	0xbd9dd864	-0.07707289
161	0xbd7f9002	-0.062393196
162	0xbd894e99	-0.067044444
163	0xbd5cf67a	-0.053945996
164	0xba6fc304	-0.0009146186
165	0x39919bb0	0.0002777255
166	0xbd5fd386	-0.054645084
167	0x3ab496d8	0.0013777865
168	0x3ab8bb58	0.0014093919
169	0xbd6cec88	-0.05784276
170	0xbd6588d9	-0.05603871
171	0xbd5674b2	-0.052357383
172	0x3ac438e0	0.0014970563
173	0xbda0a73c	-0.078443974
174	0xbb180158	-0.002319416
175	0xbd544605	-0.05182459
176	0xb9984028	-0.000290395
177	0xbd5cafe0	-0.053878665
178	0x3b3b10ee	0.0028544026
179	0xbd5399ec	-0.051660463
180	0xbd344bc7	-0.04401758
181	0xbaa4911f	-0.0012555456
182	0x3a366fca	0.0006959407
183	0xbe3e140e	-0.18562338
184	0xbd34ee02	-0.044172294
185	0xbd541a7b	-0.051783066
186	0xbb2d838c	-0.0026476113
187	0x3a22d8a0	0.0006212089
188	0xbaad0fc1	-0.0013203548
189	0xbd277270	-0.04088062
190	0xbabc7f41	-0.0014381186
191	0xbd446c06	-0.04795458
192	0xbe41a0b6	-0.18908963
193	0x3aaad878	0.0013034483
194	0xbab54e7d	-0.0013832595
195	0xbd7836d0	-0.06059915
196	0xbd529440	-0.051410913
197	0x3ae0742c	0.0017124466
198	0xba5b7478	-0.0008371542
199	0xbd7aac0a	-0.061199225
200	0xbdb1b9cf	-0.08678018
201	0xba62fe50	-0.00086591113
202	0xbd5c3a1f	-0.053766366
203	0xbd490728	-0.04907909
204	0x3ac3e6a8	0.001494606
205	0xbb1a3afa	-0.0023533688
206	0xbd53ded7	-0.05172619
207	0xbdbd3b75	-0.09239856
208	0xbd966ebd	-0.073453404
209	0xbdc6a498	-0.096993625
210	0xba264180	-0.0006342158
211	0xbb032051	-0.0020008276
212	0xbd73b478	-0.05949828
213	0xbdd857f3	-0.1056365
214	0x39903864	0.00027507835
215	0xbdb62f95	-0.08895794
216	0xbd808275	-0.06274883
217	0x3b00b612	0.0019639772
218	0xbd27d1cf	-0.040971573
219	0x3b0d5d08	0.0021570344
220	0xbbb3bcba	-0.0054851444
221	0x3b406e1c	0.0029362505
222	0x3b183c78	0.0023229402
223	0xbd34db41	-0.04415441
224	0xbd3c082a	-0.045906223
225	0x3b205332	0.002446365
226	0xbd45db13	-0.04830463
227	0xbdb3906f	-0.08767783
228	0xbd78e4e8	-0.060765177
229	0xbd812fe0	-0.063079596
230	0xbdced38c	-0.10098943
231	0xbd58941d	-0.052875627
232	0xbb306351	-0.0026914666
233	0xbd61e007	-0.05514529
234	0xbe5e2755	-0.21694691
235	0xbac7b132	-0.0015235303
236	0xbb35c2b7	-0.0027734467
237	0xbe81ce1e	-0.25352567
238	0x3b339f1c	0.002740807
239	0xbda514ec	-0.08060631
240	0xb9bc41b0	-0.00035907095
241	0x39fbff08	0.00048064464
242	0xbd67d21a	-0.056596853
243	0xbd828225	-0.06372479
244	0xbd74300c	-0.059616134
245	0xbb18368d	-0.0023225874
246	0xbe848e12	-0.2588964
247	0xbd4598c3	-0.048241388
248	0x3a5b2c0c	0.00083607505
249	0xbd6db95c	-0.0580381
250	0x392948a0	0.00016144151
251	0xbe5199c0	-0.20468807
252	0xbf1fbe81	-0.6240006
253	0xbd5af5e1	-0.053457145
254	0xbca287be	-0.019840118
255	0xbd6d1c89	-0.05788854

output_linear.bias f4 [3]
0	0x3c4deb7a	0.012568349
1	0x3c2f7812	0.010709779
2	0xbca3d223	-0.019997662
