examples/player_template_py/models/actor.pkl (torch, 278943 bytes, 6 tensors)

input_linear.weight f4 [256, 9]
000000 b0 5e a1 3c 10 8c 66 bc 62 8f 20 3d 28 e4 2e 3c
       0.01969847 -0.014071479 0.03919924 0.010674514
000010 88 24 d7 bc 02 88 38 3d a8 72 5a bc 1a 2a 5a 3d
       -0.026262537 0.045051582 -0.013333 0.053262807
000020 16 b8 0f bd b5 35 80 bc 1c 79 8c bd 09 f2 22 be
       -0.035087667 -0.01565061 -0.06859037 -0.15912642
000030 be 05 86 3c 39 79 c0 3e 19 7d e6 3d 1a 82 de bd
       0.01636016 0.37592486 0.11254329 -0.10864659
000040 dc ff 41 bd c5 e3 b2 3d ab c0 d2 3c ad 81 ae ba
       -0.047363147 0.0873485 0.025726637 -0.0013313793
000050 38 7a 55 3e f1 09 31 bd 5d e4 ba be e6 9b 82 bc
       0.20847404 -0.04322237 -0.36502352 -0.015943479
000060 38 83 7b 3e be bc 69 3d 12 9d 31 3c f1 61 0f bd
       0.24561775 0.057064764 0.010840671 -0.035005514
000070 42 5c c8 bc 9c 11 24 bc c4 c1 aa 3c fd c6 0c 3c
       -0.024458054 -0.010013964 0.020844348 0.008592364
000080 79 22 5c bd 4d 29 40 bd 8f b6 43 bd 87 48 2a 3d
       -0.053743813 -0.046914387 -0.047781523 0.041573074
000090 2c 04 9a bc bd 56 12 be cf 03 9e 3e 07 b2 2b be
       -0.018800817 -0.142909 0.3086228 -0.16767131
0000a0 0c e8 8d be 07 41 63 3d 8a c4 89 3d 70 0f 15 3a
       -0.277161 0.055481937 0.0672694 0.00056861993
0000b0 c9 fc 3b be fa e0 23 bd 40 07 ad ba 6c 8d 3d 3d
       -0.18358149 -0.040009476 -0.0013201013 0.04627745
0000c0 7a 1e 18 3d 16 c5 7b bd a0 e9 0b 3b fc ff d0 3c
       0.03713844 -0.061467253 0.0021348968 0.025512688
0000d0 78 71 00 bd 28 e8 3c 3d 8a 3b 60 bd dc 74 1e 3d
       -0.031358212 0.04611984 -0.05474428 0.038685665
0000e0 82 eb 41 3d a0 0f 88 3b 48 60 a6 bc 9c 94 9c 3c
       0.04734374 0.0041522533 -0.020309582 0.019113831
0000f0 e0 78 53 3b f4 16 2d bd 90 c4 5d bd 0b 14 c0 3d
       0.0032268092 -0.042258218 -0.054142535 0.09378823
000100 e7 a9 d8 3d a7 50 04 3e 7c 83 b8 3c 90 23 cd be
       0.10579281 0.12921391 0.022523634 -0.40066195
000110 5d a2 6d bd 2f 52 35 3e 1f 31 77 3d d0 06 1d bd
       -0.05801617 0.17707132 0.06034958 -0.038336575
000120 98 e0 2c bd c8 0b c0 3c 7c f7 15 bd e0 10 2e bb
       -0.042206377 0.023443118 -0.036612973 -0.0026560351
000130 48 c3 09 bc 04 69 d9 bc e0 60 8e bc b8 67 68 3c
       -0.008408375 -0.026539333 -0.017380178 0.014184885
000140 2e 44 7b bd f3 49 aa 3d 33 2c 87 3e 10 cf 3e bd
       -0.061344318 0.08314886 0.2640091 -0.04658419
000150 32 bf 35 3e f5 32 cc be b5 32 68 be b3 ad 61 3d
       0.17748716 -0.39882627 -0.22675593 0.055097293
000160 65 8c c2 bc 21 fa a0 bd 26 d8 75 bd 30 2e 4d 3d
       -0.023748586 -0.07860208 -0.06002059 0.050092876
000170 d0 c6 9a bb 00 25 5e 3a 00 da 80 3a 6c 71 c7 bc
       -0.0047234073 0.00084741414 0.0009830594 -0.024346076
000180 28 27 2b 3c e2 61 3b 3d 58 1d 50 3c a1 6e 4f 3c
       0.010446347 0.045747645 0.012702309 0.012660653
000190 0b 75 b7 bd ac 0a 11 be ff 21 f2 bd ad 62 3c 3e
       -0.08957871 -0.14164227 -0.118228905 0.18397017
0001a0 ab 38 f1 3d ed 86 99 bd 32 08 13 bd b6 43 bb 3d
       0.11778387 -0.07496438 -0.035896488 0.09143774
0001b0 40 2b 1b bd 72 22 46 3d 4c 83 b2 3c 56 6f 2f bd
       -0.037883043 0.048372693 0.021791123 -0.042830788
0001c0 c2 4a 24 3d b8 89 15 3d 0c 13 96 3c c0 25 45 bd
       0.040110357 0.036508292 0.01831963 -0.048131704
0001d0 d6 cf 5a 3d f8 36 fa bc 60 a4 6f 3d 80 ec 73 ba
       0.053420864 -0.03054379 0.05850637 -0.00093049556
0001e0 c4 58 ce bc 70 10 90 3b 26 f2 65 bd 3c 37 69 3d
       -0.025188811 0.0043964908 -0.056139134 0.05693744
0001f0 94 f0 c9 3c 40 bc 99 3c b8 ea 5d bc c4 ae 68 3d
       0.02465085 0.018766522 -0.013544731 0.056807294
000200 72 1c 31 bd bc 9a b0 3c 22 36 63 3d e0 02 20 bc
       -0.04324002 0.021558158 0.055471547 -0.00976631
000210 78 78 63 3c 68 8c 63 bc 00 28 a4 3b c9 01 63 3d
       0.013883702 -0.013888456 0.005009651 0.055421624
000220 ac 43 3a bc 14 7c 37 3e b8 8f a6 3c cd 62 64 be
       -0.011368673 0.17918426 0.020332202 -0.22303315
000230 6b 68 c6 bd b7 a8 8c 3e 0d ac 45 3d 3d b6 2f bd
       -0.09687885 0.2747247 0.048259784 -0.042898405
000240 ca 0b 1a bd 44 3d aa 3c 4c 72 da bc a8 00 23 bc
       -0.0376089 0.020781167 -0.02666583 -0.009948887
000250 9c da 4d 3d 24 cf b8 bc d0 e8 d1 bc 08 dc cf bc
       0.05025731 -0.02255971 -0.025623709 -0.025373474
000260 5c 43 ce bc 70 77 9e bc 3e 19 46 bd b6 0b 71 3d
       -0.025178604 -0.019344062 -0.048363917 0.05884906
000270 28 1a dd 3c 70 ac 48 bc a4 93 fa 3c ea b5 35 bd
       0.026990011 -0.012248144 0.030587979 -0.04436294
000280 86 cf 7f 3d 74 2e 23 3d 9c 22 89 bd 26 8b a9 3b
       0.06245377 0.039839223 -0.06696054 0.0051740585
000290 ff 3e 7a be f8 e3 a8 3c cd 0e aa 3e 01 1e 2c bb
       -0.24438094 0.020616516 0.33214417 -0.0026263
0002a0 f5 b4 cf bd 58 0f 0e 3d 38 82 27 bd 79 4b e3 bc
       -0.10141937 0.0346826 -0.04089567 -0.02774595
0002b0 7a e4 a2 bd 5c 12 88 3d ee 4a 8e bd b6 c7 9e be
       -0.07953735 0.06644127 -0.069478855 -0.31011742
0002c0 53 cb 2c bc 84 4a d7 3c 6b cb ca bd 0e 3b 5d be
       -0.010546523 0.026280649 -0.0990208 -0.21604559
0002d0 aa 04 97 3c d9 64 6d bd 67 a0 34 be 04 92 3b bd
       0.018434841 -0.057957504 -0.17639314 -0.04579355
0002e0 04 1a b4 3e a3 72 e8 3c f3 ec 27 be a1 ca 52 3d
       0.35176098 0.028374976 -0.16398983 0.051462773
0002f0 72 b6 c4 3d e8 4a 04 3c 54 49 a3 3c 00 49 95 3c
       0.09605111 0.0080745 0.019932427 0.018223286
000300 80 09 2f 3d a0 75 5e bb b0 6e bd bc 14 0c 11 3d
       0.04273367 -0.0033944622 -0.023124069 0.03541191
000310 00 45 80 bc bc af 5a 3d 37 b9 d9 3d 9f 60 50 3d
       -0.015657902 0.05339025 0.1063103 0.050873395
000320 73 df f1 3d 6f 09 9d 3d ca a1 b5 be 38 aa c9 bd
       0.11810198 0.07667815 -0.35474998 -0.0984692
000330 7f 52 3f 3e a6 ca 65 3c ba d3 bd bc 19 38 10 3e
       0.18683814 0.014025366 -0.023172248 0.140839
000340 40 ad a3 3d 05 10 26 3e 4e 99 38 3d 2a 05 65 be
       0.07992029 0.16217048 0.045068078 -0.22365251
000350 5b 34 f3 bc 4f 89 81 3e 86 b6 1c 3c d9 6c 7d bc
       -0.029688051 0.2530007 0.009565001 -0.015467846
000360 53 77 dc bc 8b bc 12 be 78 92 13 be 78 d0 8d bd
       -0.026912367 -0.14329736 -0.14411342 -0.06924528
000370 b3 a9 bf 3e 17 a2 20 3d f2 fa 39 bd e1 86 e5 bc
       0.37434158 0.03921708 -0.045405336 -0.028018417
000380 b6 10 ee 3c a6 31 5e bd 8c a4 fa 3e 5f 76 37 be
       0.029060703 -0.054246567 0.48953664 -0.17916249
000390 4e 33 cc 3e 6e 15 c3 be 7d 6b fe be f8 8a 39 be
       0.39882892 -0.38102287 -0.49691382 -0.18119419
0003a0 9a 97 a4 bb 88 58 0f 3d 7c f3 7d bd a4 40 5a bd
       -0.005022955 0.03499654 -0.061999783 -0.053284302
0003b0 20 2a 66 bd 60 65 90 3c 5c fc 22 3d 84 0c 8b bc
       -0.056192517 0.017626464 0.03979145 -0.016973741
0003c0 26 fb 67 bd 50 97 3e 3c 80 89 bf 3c 90 5b 49 bc
       -0.056636 0.011632755 0.023380995 -0.012289897
0003d0 16 32 5e bd 74 bd 3e 3d 68 5f 67 bd 58 15 6f bd
       -0.054246984 0.046567395 -0.05648747 -0.058369964
0003e0 1e 48 1f 3d 2c c1 b3 3c 70 4c bf bc 20 05 4a bb
       0.038887136 0.021942697 -0.023351878 -0.0030825809
0003f0 4b d2 10 bc e4 0c 09 bd f3 29 48 be a2 46 3a 3a
       -0.0088392 -0.03345956 -0.19547252 0.0007105862

input_linear.bias f4 [256]
000000 9b 7d 5e be 33 16 68 3e 7f 34 a2 3e 59 ac e1 bb
       -0.21727602 0.22664718 0.31680676 -0.0068870005
000010 88 69 89 3e db 4b 17 be 80 20 51 3d e4 ec aa 3e
       0.26838326 -0.1477503 0.051056385 0.33383858
000020 db ef 75 be 7a c1 3d 3e ae 1f 3b be 3a 09 3a 3e
       -0.24017279 0.18530837 -0.18273804 0.18167582
000030 d0 24 f1 bd 60 03 cc bd 03 88 9b be c7 fe 83 3e
       -0.117745996 -0.09961581 -0.30377206 0.25780317
000040 98 68 a7 be eb bc 23 be 9a 01 41 3e 6d c5 88 3e
       -0.32696986 -0.15990035 0.18848267 0.26713124
000050 c0 b9 3c 3e 78 da a0 be c3 bb 27 3e 06 89 98 3d
       0.18430233 -0.31416678 0.16380219 0.0744801
000060 01 f0 22 3e 81 f1 15 3e d4 40 91 bd 8e 47 8f be
       0.15911867 0.14642908 -0.07092443 -0.2798428
000070 6f a6 73 3e 08 15 3f bc 8c 07 5b 3e ce d2 22 be
       0.23793958 -0.011662729 0.21389598 -0.15900728
000080 00 a4 ef bd a4 3a 18 3e de 6e 87 3e eb b1 2a be
       -0.117012024 0.1486612 0.26451772 -0.16669433
000090 9f 3e c5 3c c4 2a 1b 3d 37 ce 89 3e 1c c0 69 3e
       0.024077712 0.03788258 0.26915142 0.2282719
0000a0 87 29 67 3e c6 e2 da bd 66 d9 20 3e d0 bc 80 be
       0.22574435 -0.10687785 0.15707931 -0.25144053
0000b0 4b 9d 44 bd 6a 2a 2a 3e 01 b9 7a 3d 1d 95 2d 3e
       -0.04800157 0.16617742 0.06121159 0.16951413
0000c0 4a 63 01 3d 6c 87 dc bd db c7 b8 bd df bd 86 3e
       0.03158883 -0.10768017 -0.090224944 0.26316735
0000d0 50 e0 5f be 64 a2 a5 bd 90 0a 3e 3e 8c 4e 9e be
       -0.21862912 -0.08087614 0.18558717 -0.30919302
0000e0 51 52 1a 3c 07 1e 29 bd 80 34 5c be 38 3e 8a 3e
       0.00941904 -0.041288402 -0.21504402 0.27000594
0000f0 77 78 03 3e 0c 4b 25 3e f2 8f 55 3c 1b 25 1e be
       0.12838922 0.1614191 0.0130348075 -0.15443842
000100 50 16 e6 bd d5 6a 1a 3e ab b1 68 be 4a a3 82 be
       -0.112347245 0.15079816 -0.22724025 -0.25515205
000110 8c 71 97 be 02 3a ba 3d f4 1b 0b 3e fa 72 75 bc
       -0.29578817 0.09093095 0.13584882 -0.014981026
000120 da fd 8e bd 76 ba 99 3e ab 2a a1 3e 04 96 a0 3d
       -0.06982012 0.3002507 0.31477866 0.07841113
000130 23 7c 68 be 64 c0 d4 3d a9 2c 40 3e 14 29 59 bd
       -0.22703604 0.10388258 0.18767036 -0.05301769
000140 54 1f 8f be b0 25 eb bd 9c 6d 8e 3e 6c 51 51 3d
       -0.2795359 -0.11481798 0.27818 0.05110304
000150 56 ad 5c be 39 05 f5 3d 57 f2 58 3d 9e d4 64 3e
       -0.21550497 0.11963887 0.05296549 0.22346732
000160 32 6d af 3b d8 37 17 3d be a7 84 be 1f c5 a7 be
       0.0053535933 0.03691849 -0.25909227 -0.3276758
000170 9c e9 79 3e 86 49 18 be 9a 21 4e 3e 51 b9 49 3e
       0.24405521 -0.14871797 0.20130005 0.19699599
000180 8c b3 9a 3e b6 29 e9 3d 6f fe 3e 3e cf 9a 03 3e
       0.30215108 0.11384909 0.18651746 0.12852024
000190 bf 3c 16 3e e4 8c 56 3e 33 af 8c 3e 43 15 97 be
       0.1467161 0.20952183 0.27477416 -0.2950841
0001a0 2e 79 22 be 9b 4d 71 be f3 b1 7b be 6d 57 45 bd
       -0.15866539 -0.2356476 -0.24579601 -0.04817908
0001b0 f4 b2 8c bd 72 c0 10 3e 70 00 68 3e d0 73 be bc
       -0.0687007 0.14135912 0.22656417 -0.023248583
0001c0 87 b8 67 3e 38 86 8d be 08 23 2b be 3b c7 20 be
       0.22628985 -0.27641463 -0.16712582 -0.15701
0001d0 88 20 b5 3e 4e b7 2d be 3f c5 3e 3e 80 8e ae bd
       0.35376382 -0.16964456 0.18629931 -0.085232735
0001e0 97 18 3b bd a6 a3 f0 3d 50 69 6c be 12 28 13 3e
       -0.045677748 0.117499635 -0.23087049 0.14370754
0001f0 6a 33 9d be d6 4b b1 3e 80 d9 56 bb af 59 85 be
       -0.30703288 0.3462817 -0.0032783449 -0.26044986
000200 de be 20 be 46 23 82 3e d8 fb 5f bd f4 d4 4a 3d
       -0.1569781 0.25417536 -0.054683536 0.049519494
000210 98 7e 25 be 73 4b 1b be e0 41 3a bd 38 02 6d 3e
       -0.16161573 -0.151655 -0.04547298 0.23145378
000220 e3 d0 27 3e c8 99 a3 be f3 4d 6e 3e 00 4e 79 bc
       0.16388278 -0.31953263 0.23271923 -0.015216351
000230 78 cf 3d bd ba 47 de 3d 24 8a 70 bd 72 cb 6a 3e
       -0.046340436 0.108535245 -0.05872549 0.2292917
000240 46 9f a0 3d 9b d7 48 be 8e 3f 8c be e9 83 97 3d
       0.07842879 -0.19613497 -0.27392238 0.07398207
000250 a8 49 39 bd c7 1b 58 3e 53 40 5f 3e 29 cb 69 3e
       -0.04523626 0.21104346 0.21801881 0.22831406
000260 98 e1 55 be 63 8d 7c be 20 5d c2 3d a8 63 90 be
       -0.20886838 -0.2466331 0.094904184 -0.28201032
000270 d3 a9 2b be 10 61 94 3b f0 28 85 3d d7 c3 d8 3d
       -0.16764002 0.0045281723 0.06501949 0.105842285
000280 35 92 68 3d 93 00 43 3d 58 36 26 3e 43 e5 3b be
       0.05678006 0.04760797 0.16231668 -0.18349175
000290 06 a8 29 be b4 17 01 3e 00 e4 07 be 8d 28 a3 3e
       -0.16568002 0.12606698 -0.13270569 0.31866875
0002a0 59 a3 41 39 2e 7e 8b be 8a be 92 be bb 41 32 be
       0.00018466766 -0.27244705 -0.28660995 -0.17407887
0002b0 de 2e a6 bc 7e 92 93 be e0 94 18 be 80 b7 3b bd
       -0.02028602 -0.28822702 -0.14900541 -0.045829296
0002c0 c6 2f 58 be 90 6d 80 be e6 34 90 3d 76 d0 7d 3e
       -0.21111974 -0.2508359 0.070413396 0.24786553
0002d0 80 5c 40 bd 1e 99 aa be 83 d3 0c be 92 9d 2c 3e
       -0.046963215 -0.33319944 -0.1375256 0.16856983
0002e0 6e 8e 77 3e b4 da 79 3e 44 eb 9f be db e2 09 be
       0.24175426 0.24399835 -0.3123418 -0.13465445
0002f0 96 5d 15 be ec 65 c8 bd e4 0b 95 be a9 f9 87 3e
       -0.14586481 -0.09785065 -0.29110634 0.26557663
000300 f4 45 8e bd 76 f3 ba 3c bc da b9 bd 40 09 a5 be
       -0.06946936 0.02282117 -0.090749234 -0.3223362
000310 a0 f9 3f 3e 38 50 6b be 90 68 eb bd 72 f8 3d bd
       0.18747568 -0.2297982 -0.11494553 -0.046379514
000320 f8 40 77 3e 2f d6 57 3e 2c f0 33 3e e6 62 a9 be
       0.24145877 0.21077798 0.17572087 -0.33083266
000330 23 a1 39 be 7c 9f 9d be 1e 20 45 3e 33 cf 84 3d
       -0.18127875 -0.3078574 0.19250533 0.064848326
000340 67 95 91 be c2 bb 33 3e 7b 5d 27 be 7d 33 dc 3c
       -0.28434297 0.17552093 -0.16344254 0.02688002
000350 bc f9 90 3e d8 06 56 be 0f cc 9e be 94 c8 0e b9
       0.28315532 -0.20901048 -0.3101506 -0.00013616896
000360 7b 2f 8b 3e 3e 88 47 be 98 e9 55 bd e0 30 47 be
       0.27184662 -0.19485566 -0.052224725 -0.19452238
000370 ea a6 b1 3d c2 31 9b be 8e e1 83 be a4 78 10 3e
       0.086744145 -0.303114 -0.25758022 0.14108521
000380 9c 46 da bd af fa a5 3e f6 02 a7 be 58 2a f0 3c
       -0.10657999 0.3241782 -0.32619447 0.029317066
000390 f6 e1 a5 be f0 fa 80 bc d6 14 3e be 03 68 0f be
       -0.32398957 -0.015744656 -0.18562636 -0.14004521
0003a0 56 c1 d4 bd c1 ff 1f 3c ab 46 30 3e 28 ea 03 be
       -0.103884384 0.009765566 0.17214458 -0.12882292
0003b0 41 2c 7c 3e 81 ff 7b 3e e4 57 94 3e c0 e9 76 be
       0.24626257 0.24609186 0.28973305 -0.24112606
0003c0 02 8e 93 be 9e 5a 14 be 35 67 90 bd 84 78 c7 3c
       -0.2881928 -0.14487693 -0.07050935 0.024349459
0003d0 ea 12 49 3e 4e f0 54 3e 41 fa 44 3e d3 29 39 be
       0.19636121 0.20794794 0.1923609 -0.18082361
0003e0 8c 77 e6 bd b8 55 0a be 7d be 0a 3e 16 60 84 be
       -0.112532705 -0.13509262 0.13549228 -0.25854558
0003f0 7b fc 8e be 30 a4 f6 bd 3c 8e bd bd fe 9b 47 3e
       -0.27927002 -0.12043035 -0.09255645 0.194931

middle_linear.0.weight f4 [256, 256]
000000 9a 2c 20 3d be 50 b2 3d f6 1b 9a 3d 68 bb 37 3c
       0.039105035 0.087068066 0.075248644 0.011214115
000010 6a ff 50 3d 98 79 14 bc 6e cd 5c bd c6 c5 bd 3c
       0.05102483 -0.009062193 -0.05390685 0.023165595
000020 02 8c 3d 3d 49 b1 03 bd 74 db 90 3c 2b b7 ae 3b
       0.0462761 -0.032151494 0.017682768 0.005331894
000030 10 9c 9c 3b 00 2e 0f 3a e6 ac 49 3d cf 71 5e 3d
       0.0047793463 0.00054618716 0.049237154 0.054307755
000040 d0 44 7a bd d0 eb 2d bd 97 03 78 bc 1a 10 59 bc
       -0.06110078 -0.042461216 -0.015137575 -0.013248468
000050 3b ab 8c bb e2 9d 61 bd 42 bd 8d 3d 07 12 15 3d
       -0.004292873 -0.05508221 0.06920864 0.036394145
000060 cc d1 1a 3d 1b 3d 23 be 8c 48 4d bd b8 e4 76 3c
       0.037797734 -0.15941279 -0.050118014 0.015069179
000070 ab fd e4 bc 04 63 2c bd 8e c2 29 bc 7c 89 33 bd
       -0.02795299 -0.042086616 -0.010361327 -0.043832287
000080 26 63 46 3d b0 1f 73 3c b3 cc a8 3c 2a fa 6b bd
       0.0484344 0.014839098 0.02060542 -0.057611622
000090 89 41 e8 3d 10 be 15 3e 79 40 08 3c 09 00 81 bc
       0.11340625 0.14623284 0.008316153 -0.015747087
0000a0 07 0f 8d bb 30 86 0f bd 9f d1 7c 3e 08 8c 40 3d
       -0.00430477 -0.03504008 0.24689339 0.047008544
0000b0 50 ca b9 bc 5c bc 07 bd 37 2e c1 bb 14 fe 44 bc
       -0.022679478 -0.033138618 -0.005895402 -0.012023468
0000c0 dd 5f 93 3c a2 05 15 3d 47 02 75 3d 0f c2 85 3d
       0.017990047 0.036382325 0.059816625 0.06531154
0000d0 5c 5a 3f 3d 9a 6e 34 3d 3b eb 1e 3d f0 b5 f5 3c
       0.046717033 0.04405079 0.038798552 0.029993981
0000e0 cc 74 6f bd 7b d4 14 3e 6a 4b 1d 3d 76 22 46 bd
       -0.058460996 0.1453418 0.038402 -0.04837271
0000f0 bc df 7d 3d 08 01 65 3c 52 d4 fd bb 42 c6 09 3d
       0.061980948 0.013977297 -0.007746258 0.03363634
000100 d6 eb 4c 3d 7e 3a 02 3d 80 a5 1b bb 30 b8 c6 bb
       0.0500296 0.031794064 -0.0023749769 -0.0060644373
000110 a0 2b c5 bc 92 8b 4b bd 37 0d cc 3d a9 05 07 bd
       -0.024068654 -0.04969365 0.09963458 -0.032964382
000120 93 bd 8a 3c 7c 14 9d 3d 86 90 ae 3d 0a 86 34 3d
       0.0169361 0.07669923 0.085236594 0.044073142
000130 46 b5 67 bd fd bb 17 3c b0 b0 34 3d 19 47 49 3d
       -0.05656936 0.0092611285 0.044113815 0.04914007
000140 7e d0 12 bd 9e 57 49 bd e5 e9 3d 3a 46 73 e1 3d
       -0.035843365 -0.049155824 0.0007244631 0.11008315
000150 48 ca 3b 3c 49 cc 77 3d 09 f3 95 bb 34 cb 0a be
       0.011461802 0.060497556 -0.004576091 -0.13554078
000160 74 5d 26 3d 34 5c 64 bc 80 33 8a ba 26 3a 4f 3d
       0.040616468 -0.013937999 -0.0010543913 0.050592564
000170 5c eb 92 3d 90 5c 67 3d 3f 37 60 bc bc 5f a2 3d
       0.071737975 0.05648476 -0.013685047 0.07928416
000180 42 09 7c 3c 3f 3c 38 3d 08 83 9a bc f0 c1 80 3e
       0.015383067 0.04497933 -0.018861309 0.25147963
000190 0a 7d 60 3d 93 c1 1f 3d 37 95 eb 3d 60 d2 69 bb
       0.054806747 0.039002966 0.1150307 -0.0035678372
0001a0 20 e6 8b bb 38 d0 a0 bc e0 c5 37 bc bb 0e 7f 3d
       -0.0042693764 -0.019630536 -0.011216611 0.062269907
0001b0 40 7c 73 3c 2e 75 fd 3d 3c 4a 44 3d 38 7c 57 bc
       0.0148611665 0.12375866 0.047922358 -0.013152175
0001c0 b8 b6 9a 3d e8 d0 d1 3c f6 3b 43 3d ac 0a 8f bc
       0.07554382 0.02561231 0.047664605 -0.017461143
0001d0 2e 6a 0b 3d ec 66 85 3c 8d 4e df bc d2 b5 0b 3d
       0.034036808 0.016284429 -0.027259136 0.034108944
0001e0 72 50 20 bd 6f a3 3a 3d a0 be 23 3c 16 02 3e 3d
       -0.03913922 0.04556602 0.009994179 0.046388708
0001f0 50 58 79 bd 3c 93 ab 3c a4 c3 ba bc 56 f8 36 3d
       -0.060875237 0.02094423 -0.022798367 0.044670425
000200 10 ca cc bb 67 25 86 3d 0e 11 62 bd c5 97 f8 bd
       -0.0062496737 0.06550103 -0.055192046 -0.12138323
000210 4c 34 87 bc dc 28 d9 3c 8c 57 35 bd 25 60 df 3a
       -0.01650443 0.026508741 -0.044272944 0.0017042203
000220 12 23 f1 bc 40 3a 6a 3d bd 4a 57 3d 24 13 84 bc
       -0.029435668 0.057184458 0.05256151 -0.016122408
000230 b0 06 3e 3d 04 4b a4 3d 4e 6a 5a 3d 20 65 dc 3b
       0.046393096 0.080221206 0.053324036 0.006725922
000240 72 3c e6 3b d2 d0 59 3d 2a 7f 76 bd fa 90 1b bd
       0.0070262486 0.053177662 -0.060179867 -0.037980057
000250 98 64 23 3d 45 c0 26 3d 59 6c 9b 3c e4 b8 c1 3b
       0.039890856 0.040710706 0.018972563 0.0059119333
000260 8c 76 6a bd 1a ce 71 3d 91 3f 83 3d a0 12 8b bc
       -0.05724196 0.059034444 0.06408609 -0.016976655
000270 da 3a 13 bd 12 c4 09 3e e5 bd 26 3c 0f 37 57 be
       -0.035944797 0.13453701 0.01017711 -0.21017097
000280 72 af 5e 3d e7 6a 74 bb 2b 5f 5f be 00 60 5e 3b
       0.054366536 -0.0037295164 -0.21813647 0.0033931732
000290 d8 6d 16 3c df 57 67 3d 78 91 51 bd 50 67 b5 3d
       0.009181462 0.056480285 -0.05116412 0.08857596
0002a0 36 17 fb 3b 5e 39 76 bd 98 8f 38 3c f8 89 04 bc
       0.007662679 -0.060113303 0.011264704 -0.008089535
0002b0 07 32 45 3e b6 f6 36 3d ce 7e 2f 3d de b2 10 3d
       0.19257365 0.044668876 0.04284554 0.03532683
0002c0 b0 af a8 3c 38 b0 19 3c 62 b7 98 3d aa cc 8a 3d
       0.020591587 0.009380393 0.074568525 0.06777318
0002d0 12 38 2e bd 40 85 62 3d a4 5b 57 bd 85 25 4d be
       -0.04253394 0.05530286 -0.05257763 -0.20033844
0002e0 59 a0 c7 3c d1 1b 78 3d 3c 32 d8 3c e8 60 41 3c
       0.024368452 0.060573403 0.026391141 0.011802889
0002f0 28 3b 3d 3d 16 20 75 3d 08 02 49 3c 86 e7 a4 3d
       0.046198994 0.059845053 0.012268551 0.08051972
000300 f0 5f 35 bc 50 4d 38 3d 9e c0 3a bd be 05 07 bd
       -0.011070237 0.044995606 -0.04559385 -0.03296446
000310 f6 de b1 3c a0 39 51 bd 20 3d 19 bb 29 a9 27 3e
       0.021712761 -0.051080346 -0.002338238 0.16373123
000320 f6 c3 94 3d e8 d7 78 3d c6 56 8e bb b8 31 2f bc
       0.07263939 0.06075278 -0.0043438403 -0.010693006
000330 ae fa 1e bd 78 43 35 3d ca ef 31 3d 86 3e b7 3c
       -0.038813286 0.044253796 0.04344157 0.02236868
000340 80 b0 23 3c 93 60 53 3e a0 fc 1a 3c 0f 9d f5 3d
       0.009990811 0.20642309 0.009459645 0.11992847
000350 c2 82 65 3e b4 5b d4 3c 08 77 7b bd 41 a5 e1 ba
       0.22413161 0.025922634 -0.061392814 -0.0017215387
000360 56 7c ac bc ec a0 18 3d 08 ca 53 bc ee f8 5d bd
       -0.021055382 0.037262842 -0.012926586 -0.054192476
000370 21 0b 3c 3d 30 1f 69 bc 86 a4 52 3d 47 b0 e5 3d
       0.04590905 -0.014228627 0.051426433 0.11215263
000380 b8 20 2e bd 99 dc 91 3d 00 ca fa ba ad 94 27 bd
       -0.04251167 0.07122154 -0.0019133687 -0.040913273
000390 80 e4 c2 ba 00 29 e6 bb de e9 43 3d ca 02 67 bd
       -0.0014869124 -0.0070239305 0.047830455 -0.056399144
0003a0 60 1a 73 3b 03 1e 13 3d d7 10 77 3c c0 e6 8a bc
       0.0037094578 0.035917293 0.0150796985 -0.016955733
0003b0 5b 7c e7 3a f8 7b 13 3e 39 4a 65 bc 18 bd cf 3c
       0.0017660962 0.14402759 -0.013994747 0.025358722
0003c0 12 8d 0e 3d 80 71 76 bd 22 48 ed bc ac 8b fc 3c
       0.034802504 -0.060166836 -0.02896506 0.03082832
0003d0 d3 25 a7 3c aa 25 35 3e 4e 3f 9a 3d e0 57 b0 3b
       0.020403778 0.17690149 0.07531606 0.0053815693
0003e0 0e a9 05 3d c0 a7 4b bb 31 7e 81 3d dc b5 30 3d
       0.032631926 -0.0031075329 0.06322897 0.043142185
0003f0 ea 1c 30 3d a2 1c 43 bd 76 07 21 3d 04 aa b4 3d
       0.042996325 -0.04763473 0.039313756 0.088214904

middle_linear.0.bias f4 [256]
000000 9d 5c 40 3d ed 2c 7a 3d f2 a3 93 3c 52 65 2f 3d
       0.046963323 0.061078 0.018022511 0.042821236
000010 b4 63 6b bd d9 b4 63 3d 3a c0 cf bc 69 2f 07 bc
       -0.05746813 0.05559239 -0.025360215 -0.00825105
000020 d0 13 d4 bb b4 26 45 bd 58 4a a9 3d 97 64 67 3d
       -0.0064720884 -0.048132613 0.08266133 0.056492414
000030 f2 6e 0c 3d ac 6e 2b bd 8e c3 44 3d 00 e8 55 3d
       0.034285493 -0.04185359 0.048038058 0.052223206
000040 9d 05 f9 bb 0c 0f b3 3a e0 08 0c bb 33 33 e2 3b
       -0.007599546 0.00136611 -0.0021367595 0.006903076
000050 15 ea c2 bc 7e 0a 82 3c ef e4 b3 bc ca 84 5d bc
       -0.02379326 0.015874144 -0.02195975 -0.013520429
000060 0e 7b 2b 3c ce 92 8d 3d 03 12 bd 3d ba 17 1c bd
       0.01046635 0.069127664 0.09231951 -0.038108565
000070 1b d0 15 3d 4e eb b4 3d 6e a1 86 3b 76 1e 72 bd
       0.036575418 0.08833943 0.0041085994 -0.05911108
000080 9d 11 7d 3c f3 bc 9a bc ed 08 9a bc 80 50 39 bc
       0.015446094 -0.018888926 -0.018803084 -0.011310697
000090 ae a8 78 3d 43 64 1c 3d be 06 06 bd c0 4c c0 3a
       0.06070774 0.038181555 -0.032721274 0.0014671311
0000a0 12 cc 07 3d 4c 88 31 3d af 3b 5e bd 1c 10 92 3d
       0.0331536 0.043342873 -0.054256137 0.07131979
0000b0 09 e7 4b bd 2c 3b 8c bc cc 27 10 3d dd 08 9e 3c
       -0.04978088 -0.01711806 0.035194203 0.019291336
0000c0 97 e2 81 3d be 7e e9 3c 0c d6 c8 3c 10 55 75 3c
       0.06342047 0.028502818 0.024516128 0.014973894
0000d0 f2 69 2c 3d c0 f2 fe ba 9f b1 1d 3d 41 1c 8c 3d
       0.042093225 -0.0019451007 0.03849947 0.068413265
0000e0 86 07 68 3d 33 ac 52 bd 21 8f 6d bd 0f e7 ae 3c
       0.0566478 -0.051433753 -0.057997826 0.021350412
0000f0 6b ba 86 3d 70 4a b9 3d 8e 86 a2 3d 84 a1 a3 3d
       0.06578525 0.09047401 0.079358205 0.07989791
000100 a4 23 83 3c ce b5 39 bc 83 9b 83 3d 05 b8 1d 3d
       0.016008206 -0.0113348495 0.06426146 0.038505573
000110 10 69 73 3d e4 70 23 bc 44 d1 b9 bc 80 ad 66 3d
       0.059426367 -0.009975646 -0.022682793 0.056317806
000120 34 17 ca 3c 1e 80 59 3d ac 34 a3 3d 03 75 9f 3d
       0.024669267 0.053100698 0.07969031 0.0778599
000130 b8 27 18 3c 8f e3 36 3d 1d 87 0c 3b 24 cd 42 3d
       0.009286813 0.04465061 0.0021442838 0.04755892
000140 7d d4 18 3d 4d 0c d1 3c 7d 8f 7f 3d c8 5a 6a 3d
       0.03731202 0.02551856 0.0623927 0.057215482
000150 34 9e 75 3d 3e 08 5c 39 c0 e4 cc bc 42 76 45 3d
       0.059965327 0.00020983905 -0.02501142 0.048208483
000160 83 a8 39 3d 3b f6 92 3c ef b0 fb bb 14 b1 57 bd
       0.04532672 0.017939677 -0.0076810042 -0.05265911
000170 72 8a c2 3d d3 53 04 3d c8 ab 1c bd a9 de a5 3c
       0.094990626 0.032306504 -0.03824976 0.020247774
000180 b2 41 69 3c 74 df a4 3c 27 b7 1d bd 27 e2 db 3c
       0.014236854 0.020126082 -0.038504746 0.026841236
000190 db 0d 40 bd d0 81 cd bb c5 68 74 bd a4 03 73 3d
       -0.046888214 -0.0062715784 -0.05967023 0.059329644
0001a0 81 f0 82 3d b5 1e 76 bd e8 d9 53 bd 1b 83 68 3d
       0.06393529 -0.06008788 -0.051721483 0.056765657
0001b0 1a 55 48 3c 49 94 8d 3d ea 7c 2f 3d 9c 2c d6 bc
       0.012227321 0.06913049 0.042843737 -0.026144318
0001c0 26 a8 32 bd d5 52 cb 3c 8e cb c3 3c dc 4a c6 3d
       -0.04361739 0.02481977 0.023900773 0.09682247
0001d0 f1 7a 70 3d 12 75 49 bd ee 02 06 3d 3e 1a a2 bc
       0.058710996 -0.049183913 0.032717638 -0.019787904
0001e0 74 b0 9d 3c 0f 5b 52 3d de 07 03 3d f5 6c b5 3d
       0.019249178 0.05135637 0.031989925 0.088586725
0001f0 e5 21 3a 3d 0f bc 82 3d 10 e6 92 3d 38 4a c0 3d
       0.04544248 0.063835256 0.07172787 0.09389156
000200 f8 6e 59 3d 2a 41 2c bd 9d 5c ae bc 35 67 a7 3d
       0.053084344 -0.042054333 -0.021284396 0.08173982
000210 87 69 56 3d 2e ab ea bc 4f 4e bc 3c da 8b 8d bc
       0.052346732 -0.028646078 0.02298656 -0.0172786
000220 8e e3 b8 3d d2 aa 1e bc 8d 92 81 3d a4 90 ad bc
       0.090277776 -0.009684281 0.063267805 -0.021187134
000230 e4 f7 df bc 29 77 4e bd 8b 54 1d bb 94 03 88 3c
       -0.027339883 -0.05040661 -0.002400669 0.016603269
000240 ce bb bf 3b dc 8f a3 bc 8d 3d ba 3d 1a 57 35 bd
       0.0058512455 -0.019966058 0.09093771 -0.04427252
000250 60 f9 22 bd b5 94 a7 3d ce 32 5f 3d 64 9b 5d 3d
       -0.039788604 0.081826605 0.05449181 0.05410327
000260 fb 2b 58 3d 6e 65 49 bd 84 33 0d 3d 54 5b fb 3c
       0.052776318 -0.049168997 0.034472957 0.030683197
000270 90 62 44 bd 8f 45 c0 3d b6 36 88 3d 48 92 9b bc
       -0.04794556 0.09388267 0.0665106 -0.01899065
000280 f2 d8 22 3d b2 df 44 3d 8a ce aa 3d 9c 91 44 bd
       0.039757676 0.048064895 0.083401754 -0.047990426
000290 52 05 ee 3b ca 32 d0 bb da 19 5a 3d 38 ec cd bc
       0.007263818 -0.006353711 0.05324731 -0.025137052
0002a0 54 db 0e 3d 20 25 54 3b c4 79 ec bc 23 22 ca 3d
       0.034877136 0.003237076 -0.028866656 0.09869792
0002b0 5d c8 86 3d c0 af db 3c e6 6b db 3c e0 1a 10 3d
       0.06581185 0.026817203 0.026784848 0.03518188
0002c0 9b fb 4d 3d de 34 18 3c 29 8c 12 3d 38 22 69 bc
       0.050288778 0.009289948 0.0357782 -0.01422935
0002d0 a2 4b 07 3c 52 a2 e0 3c 24 37 df bc e6 08 55 3d
       0.008257778 0.02742115 -0.027247973 0.05201044
0002e0 a6 b4 8b bc a6 ee 08 bc 0a 33 19 bd 30 95 39 3d
       -0.017053913 -0.0083576795 -0.03740219 0.045308292
0002f0 82 23 8f bc 6e 65 94 3d 81 31 fa 3c 1c 8e 7c bd
       -0.017472986 0.07245909 0.030541183 -0.061658964
000300 70 9b 13 3d e8 01 86 3a 0a b0 2e 3d a0 aa 42 bd
       0.03603691 0.0010223957 0.042648353 -0.047526002
000310 93 da 70 bd 40 af 66 3e 95 5a 53 bd 0d b8 4c 3d
       -0.0588022 0.2252779 -0.051600058 0.049980212
000320 f0 2d 55 3d fe 4a 51 3d 47 50 22 bb df 67 7b 3d
       0.052045763 0.05109691 -0.0024767087 0.061378356
000330 34 1e e6 3c f0 75 a9 bb 03 ed 61 3d 99 ff 82 bc
       0.028090574 -0.00517153 0.055157673 -0.01599102
000340 15 42 84 3d 6f 08 85 3d aa ec bd 3d 97 74 0e 3d
       0.06457917 0.06495749 0.09273656 0.034779157
000350 0a c9 fd 3c 18 88 0a bc fa 41 84 bc fc 65 4b 3c
       0.030979652 -0.008455299 -0.016144741 0.012414452
000360 87 6a 17 bd fe 66 9e 3d aa c2 21 bd bc b1 3b 3c
       -0.036966827 0.07734488 -0.039492287 0.011455949
000370 a6 61 ae 3d 5a 90 1c 3c d6 1c 4f ba 84 28 bc 3d
       0.08514719 0.0095559005 -0.000790072 0.09187415
000380 ff d2 cc 3d e7 08 bd bb d8 9a 65 bc 72 99 62 bd
       0.10001182 -0.0057688835 -0.014013968 -0.055322118
000390 24 20 d8 3d 3a ec 2c 3c 65 76 e2 bc 30 a3 6d bd
       0.10553005 0.010554368 -0.027644346 -0.058016956
0003a0 76 e9 bf 3d f8 8e 99 3c a7 af 82 3c bd b0 58 3d
       0.09370701 0.01874493 0.015952898 0.052902926
0003b0 c7 e4 a3 3d 3b 06 3c 3d 95 e7 00 3c c6 1e 28 3d
       0.0800262 0.04590438 0.007867713 0.041044973
0003c0 24 5c d8 bc 36 92 61 3d 2e 87 7c 3d 78 17 4e 3d
       -0.026411124 0.05507108 0.061652355 0.05031535
0003d0 ef ea e0 3c 68 23 83 3d d3 6c 99 3d d0 3b 91 3d
       0.027455775 0.064032376 0.0749146 0.070914865
0003e0 de 47 3e 3c 80 0e ec 3a 47 32 56 3c 3e 63 7b bd
       0.011613814 0.0018009692 0.0130735105 -0.06137394
0003f0 fc 70 60 3d c4 7a aa 3d dc 98 25 bd 0f 70 71 3d
       0.05479525 0.08324197 -0.04042898 0.058944758

output_linear.weight f4 [3, 256]
000000 8b 56 d7 bc 35 33 85 3a b6 b9 db bc 3f 30 eb bb
       -0.026286384 0.0010162356 -0.026821952 -0.0071773822
000010 74 d9 b0 3a f5 84 de 3b f8 23 cd bb cc 49 e4 39
       0.001349254 0.006790752 -0.0062603913 0.00043542532
000020 60 22 7f ba 78 b4 c4 3a 44 6c ed bc 0c 32 dc bc
       -0.00097326003 0.0015007397 -0.02898229 -0.026879333
000030 9a 00 05 3e 01 15 a4 ba c4 61 e2 3a 66 01 13 3e
       0.1298851 -0.0012518467 0.0017271568 0.14356002
000040 c5 38 93 be ac 34 6c bb f8 3c c6 b9 14 64 2c ba
       -0.2875425 -0.0036042137 -0.00037810928 -0.0006576192
000050 19 e4 c4 bc 14 bb 91 bc 28 60 fa 3c ad d2 8f bb
       -0.024034547 -0.017789401 0.030563429 -0.004389128
000060 c7 68 69 3e 81 34 33 39 53 7b a3 bc bf 14 b9 38
       0.22793876 0.0001709033 -0.019956267 8.825352e-05
000070 62 6a 8f bd 01 0f c6 bc ca dd 21 bf 08 69 20 bb
       -0.07002713 -0.024177076 -0.6322905 -0.0024476666
000080 ff e8 8e 3c 7b 4e 74 bd 5c cf db bc c1 57 3f bb
       0.017445086 -0.059645157 -0.026832275 -0.0029196593
000090 0f fa b1 bc d3 e7 35 bd cb dd 4a bc 6e 4e 1b bb
       -0.021725683 -0.044410538 -0.012381981 -0.002369787
0000a0 80 f4 fa 38 13 c8 3c bb e5 60 49 3a 29 dc aa bc
       0.000119664706 -0.0028805777 0.000768198 -0.020856934
0000b0 c1 41 e5 3b 58 3b 5b 3a 67 cb 64 bc 14 a2 6a 3e
       0.006996364 0.000836303 -0.0139645105 0.2291339
0000c0 ce ef 6c bd e4 c3 05 bd 72 25 c3 bc cf 19 8c bc
       -0.057845883 -0.03265752 -0.023821566 -0.01710215
0000d0 14 6c 13 bc 96 37 20 3b 6c 76 29 3c 23 cf 56 3c
       -0.008997936 0.0024447194 0.010343175 0.013110909
0000e0 e0 b2 e1 bc 0a a7 1b 3a fb 12 15 3c df ab 93 3e
       -0.027551115 0.00059376715 0.009098764 0.28842065
0000f0 71 4f 16 bd f2 f5 e1 bc 4f 3e d9 bc 25 cf ec bc
       -0.036696855 -0.027583096 -0.026518969 -0.028907368
000100 d0 66 2c bd db 6b 7c bc ee 80 3b bb 34 68 f2 3c
       -0.042090237 -0.015406574 -0.0028610784 0.029590704
000110 ad d9 8e 3b e6 20 52 bc 6c 57 1c 3b b1 a3 44 bc
       0.004359445 -0.012825226 0.0023855818 -0.012001918
000120 ba 39 cd bc 10 7f db 3a a0 30 07 3c b8 da e6 bb
       -0.02505194 0.0016746242 0.008251339 -0.0070451163
000130 a7 e3 b2 39 23 2d 79 3e e2 c2 30 be ff ab b6 3b
       0.0003412042 0.24333625 -0.17261842 0.0055747028
000140 e6 d7 0a 3c e7 b1 96 3c b6 3d 1d 3d b4 8f e3 bc
       0.008474326 0.018395377 0.03838893 -0.027778484
000150 17 14 74 3e 1c cf 3a 3c cc 0c 4d 3a 3b 7b 8c 3c
       0.23835789 0.011401918 0.0007822036 0.017148605
000160 bf 58 c3 3b 1b b4 d0 bc a2 15 85 bc 30 43 89 3a
       0.005961507 -0.025476506 -0.016245667 0.0010472294
000170 57 d6 bd bc 9a 0f 5f bb fa 1f 97 ba 28 57 40 39
       -0.023173494 -0.00340364 -0.0011529916 0.00018343015
000180 26 76 8a 3c 48 34 97 3c 00 91 92 bc ba 03 0f bd
       0.01690204 0.018457547 -0.017891407 -0.034915663
000190 30 6c ac 3c e0 ef 76 b9 6a dd 88 ba 7f f6 8c ba
       0.021047682 -0.00023549749 -0.0010441963 -0.0010754614
0001a0 c6 97 dd bb 59 12 0c 3b 60 73 a0 39 8b cf 9a bc
       -0.0067624776 0.002137324 0.0003060354 -0.018897792
0001b0 2b e1 32 3c a6 e0 0c bb b5 62 c6 bc 12 b9 fd ba
       0.010917942 -0.0021496206 -0.024216989 -0.0019357523
0001c0 6b bd 51 3d f6 b0 b1 3a 7a ab 93 bc 16 35 97 bc
       0.051206034 0.0013556767 -0.018026102 -0.01845793
0001d0 98 ac 96 bc 56 26 b4 bc 60 84 9c 39 ad 26 cf 3d
       -0.018392846 -0.021990936 0.00029853266 0.10114799
0001e0 32 ad 79 3c b1 5c b0 ba cd 3a 0e 3e 78 cb dd bc
       0.015239047 -0.0013455359 0.13889618 -0.02707456
0001f0 42 b7 86 3e ba ba cc bc b4 8a 80 bc 2c 58 96 bc
       0.2631169 -0.024991382 -0.015691139 -0.01835259
000200 b2 50 8d 3b bd b2 03 bb b2 43 ef b8 7f 08 ec 3a
       0.004312598 -0.002009555 -0.00011409017 0.0018007903
000210 fe ad e4 bc 21 4c 44 bc 7a 71 ce bc 3e d6 6b bb
       -0.027914997 -0.011981041 -0.025200594 -0.0035985853
000220 43 dd 16 bc 40 6c 8b 3e 6f 65 13 bc 7c 99 f2 ba
       -0.009208026 0.27231026 -0.008996352 -0.0018508877
000230 f0 ce 59 39 3c 76 8d ba 0f 2d 29 3c 78 7e 19 bb
       0.00020771823 -0.0010792683 0.010325684 -0.0023421329
000240 33 01 34 bc d8 ab f4 3c 08 06 ca bc c4 f5 ed 3a
       -0.010986614 0.029867098 -0.024661079 0.0018154909
000250 a6 69 ff ba a2 01 dc bb b5 bd da 3d 88 b6 3a bd
       -0.0019486442 -0.006714062 0.10680715 -0.04558423
000260 e2 97 ca bc 70 c9 db 3a 13 2d 35 3e 8b 0f 79 bc
       -0.024730626 0.0016768407 0.17692976 -0.01520146
000270 c9 df 46 bd 95 2a ea bc 12 c8 f4 bb c0 ca 0c 3b
       -0.048553262 -0.028584758 -0.0074701393 0.0021483153
000280 40 5c cd bc 9d 40 c4 bc da 59 06 3e aa 11 d5 ba
       -0.025068402 -0.023956591 0.13120213 -0.0016255875
000290 63 3b 82 bb aa 04 6d bb 34 d4 0c bd 04 15 ef 3a
       -0.0039743646 -0.003616611 -0.03438206 0.0018240516
0002a0 d4 31 27 3c 24 b2 21 3a 31 80 14 bb d8 88 ab bc
       0.010204751 0.00061682076 -0.0022659416 -0.020939276
0002b0 b6 5a 55 3b 1c e7 45 ba ad 23 cd bc 41 ba 84 bc
       0.0032555289 -0.00075493916 -0.025041426 -0.016202094
0002c0 7e 3f 48 3c a4 8b a1 bd a8 a3 25 3d 91 5f a9 bc
       0.012222169 -0.078879625 0.040439278 -0.020675452
0002d0 6d 39 eb 3b 83 66 d5 bc d7 80 26 bb 72 bb 96 be
       0.0071784765 -0.026049858 -0.0025406384 -0.29439884
0002e0 fd 4b 57 bc 53 23 05 be c0 55 a9 be e7 c3 fd 3a
       -0.013140676 -0.13001756 -0.33073235 0.0019360752
0002f0 68 20 92 bc f6 c1 21 3c 1f 42 76 3c 57 47 2c 3d
       -0.017837718 0.009872904 0.015030413 0.042060222
000300 0b f9 b5 ba 7f 9f c7 bc fb 6f 97 bc 9e 90 54 3a
       -0.0013883425 -0.024368046 -0.018486014 0.0008108708
000310 e4 c5 b3 be 49 db 5b bd 70 c6 72 3d 34 2f 97 bc
       -0.35111916 -0.053675923 0.059271276 -0.018455125
000320 0b 21 69 3b ab 45 d5 bc 4a 04 e4 bc 98 8d 24 bd
       0.0035572674 -0.026034197 -0.027834076 -0.040174097
000330 d8 11 93 b9 26 2e f7 ba c2 19 31 bb ce 5c 08 3c
       -0.0002805132 -0.0018858358 -0.002702341 0.008322908
000340 b6 b9 c1 3a 63 66 ef bc 0f 8b a8 bc e9 19 5f 3e
       0.0014780078 -0.029223626 -0.02057412 0.21787228
000350 78 e7 e0 3b 5c 11 27 3b 5c e6 8a 3e ee 6e dd bc
       0.0068635307 0.0025492525 0.27128875 -0.027030434
000360 ae 0e 1d 3d b1 df 06 bd 52 da 1c bb c4 1a e5 bc
       0.038344078 -0.032928172 -0.002393384 -0.027966864
000370 cb 23 01 3e e4 ac b9 bc 86 f6 39 be b6 69 e6 bc
       0.1261131 -0.022665448 -0.18160447 -0.028126579
000380 cd 3c ee bc d5 a5 7a be b0 ae a5 39 a8 e2 60 3a
       -0.029081726 -0.24477322 0.00031601405 0.0008578696
000390 56 17 05 3e 36 51 94 bb f7 04 df bd dd cf 39 bb
       0.12997183 -0.0045262827 -0.10889619 -0.0028352656
0003a0 1b df cd bc 21 73 90 ba e2 38 46 3e 7c 1b 07 3b
       -0.025130799 -0.0011020639 0.19357637 0.0020615747
0003b0 17 8b 0e 3b f7 af b7 bc 26 33 b3 ba b8 12 84 bb
       0.0021750384 -0.022422774 -0.001367186 -0.0040305518
0003c0 30 23 8f 3a 2f 50 76 bc 1b a1 b9 3c 04 6b 43 3a
       0.0010920521 -0.015033766 0.022659829 0.0007454606
0003d0 f3 84 08 bc bc 38 ba bb 32 d2 bb bc e1 69 d3 bc
       -0.008332479 -0.005683033 -0.022927377 -0.025807323
0003e0 46 3e fc bc e0 99 00 bd 45 7e 65 3e ac 4b 9c ba
       -0.030791413 -0.031396747 0.22411449 -0.0011924407
0003f0 cf 9c dc 3a 10 a4 a2 3b e8 cc ec ba 3a 4c 01 bd
       0.00168314 0.0049634054 -0.0018066438 -0.031566836

output_linear.bias f4 [3]
000000 19 31 d2 bc 82 b2 d7 bd 1a d6 dd 3b
       -0.025658177 -0.105320945 0.0067699077
