examples/player_template_py/models/actor_header1.pkl (torch, 276895 bytes, 6 tensors)

input_linear.weight f4 [256, 7]
00000000: 204e 7bbd 74e0 243d 70b1 5cbc 325c 3e3d
00000010: d210 183d c4ca 7a3d a07f aebb 3b19 a6bb
00000020: c9c0 8e3e bd43 923e 0f1a eabe 2fff 93be
00000030: dd93 323d c55f 9a3d 0c82 23bd c800 8ebc
00000040: 469e 073d 6c24 90bc 58e5 62bd ac3b 763d
00000050: bccf ec3c 1080 793d fc45 d93e 5e8c be3e
00000060: 5702 d3be 9c26 dfbe b249 0fbd 1bdc 0abd
00000070: 8a91 083d a3d7 3e3e 280c b63d e5a9 c9bc
00000080: 3743 32be 039e 2d3d c41c ec3d c85c 683d
00000090: 4814 0a3c 5c0c 263d 8eee 7a3d b829 783d
000000a0: cadf 58bd 68cf fd3c 7387 59bc b9c5 0a3e
000000b0: 5d21 2b3e d259 2dbd 0376 41be 590a 82bd
000000c0: 01cd d43d 18de 313d 28a0 5fbc 5055 08bd
000000d0: 6a47 29bd 3edd 1abd 50da 81bb dcf7 4cbd
000000e0: 9a66 77bd f826 b43e d52d 9e3e 667b 38bf
000000f0: 8651 8fbe 8783 c5bd d8c4 d6bd 4e5c 96bd
00000100: 54d8 ca3c 203f 123c fe0d 303f d4e9 d2bc
00000110: 2659 9bbb f785 063e 2e4d 5abd 0026 933b
00000120: 34ed 413d 98fb 663c 0af1 09bd e88b 143c
00000130: 60ca 76bd eeea 13bd 16a9 653d 6854 bd3c
00000140: 847c 5ebd a881 66bc 58ed 7c3c c424 49bd
00000150: ad8f b7bd 9b84 223e 0500 dd3d b73b 3f3f
00000160: e354 afbd 5311 1bbd 0654 513e 73f2 bd3c
00000170: e627 403e 9c91 213e cf5a 213e fc34 36be
00000180: 6555 1a3d 8658 5d3e f384 d63c 4090 c13e
00000190: baf6 983e f116 62be f0a3 dabe a22d dabc
000001a0: aeaf 92bc 52ed 0f3d 5e61 1f3d 2098 733b
000001b0: 8022 113a c862 293d d896 bfbc 9817 60bc
000001c0: 3cd3 9fbd 2904 993e 9bd8 ae3e 39ad d8be
000001d0: a399 94be 217e f7bd 7d45 acbd a89e 923c
000001e0: ba1b 453d b8f3 08bd e861 333c 90ac 43bd
000001f0: a82d b7bc 18b1 143c 769f 073d fa3e 143d
00000200: 60ad 0c3d 8026 0cbb d822 573d 2e3c 4ebd
00000210: f06b 923c 0083 d9bc 7405 b53c da2b 5f3d
00000220: 50d6 21bd 54b3 26bd 9044 ee3c 1e90 58bd
00000230: 485c 303d 3834 44bc 60f8 2c3d 5649 3d3d
00000240: bab9 6abd ecde de3c 1c21 323d 4409 713d
00000250: e051 173c 781c 85bc 4063 8cba dcdc f33c
00000260: 00d7 75ba 446d a83c 7d76 83bd 96ae 3d3e
00000270: e212 2d3e fb36 eb3d c7af 83be ff2b 64bd
00000280: 3a5a 0d3e 2892 abbc e813 37bd 0003 f3b9
00000290: 8063 ffbc f001 e0bc 70e5 31bc 14f5 dabc
000002a0: 912d 373d 9be7 c7bd fabb 13be ea1f 0e3f
000002b0: 2523 353e e756 943c fe94 a93d 74d9 0ebd
000002c0: d0c1 85bb 409a 573d c85b f53c c8e6 4fbc
000002d0: 3ef0 5a3d e421 913c c432 94bb 463d 9a3e
000002e0: af6b a03e b503 ec3e 8f02 8ebe 75e7 2abd
000002f0: a14b a63d ac75 eabc d8e4 19bc c025 733d
00000300: 98de 67bd 98bf 8a3c ee00 523d f07c 7ebd
00000310: 5817 22bd e456 5ebd f640 0f3d 54d4 31bd
00000320: a0fe 51bc ce75 053d 3cd4 693d dbc3 42bd
00000330: 7e57 533e 77b9 dd3d 837a 323d 5ce2 33be
00000340: e8e8 063d 58d2 053e 4024 503b 701d 833c
00000350: c07f c3bc 4449 593d 94cb 453d e023 42bc
00000360: 8cc4 cd3c f1fc 433d 4811 673d 5902 35bd
00000370: 262e af3c 056d e33c 893e 4cbd 0d84 81bb
00000380: 56ee 74bd 24e1 f3bc a0b1 cabc 146f 1ebd
00000390: 50ae 2d3c 20e8 3fbd fad6 74bd 8ab1 7fbd
000003a0: 80ae 52bc aefd 45bd 78ea cfbc c630 2d3d
000003b0: 2a04 02bd 903e 0bbd 3c94 543d 44c4 61bd
000003c0: f8c7 43bd c043 b8ba 4a27 693d 1096 e7bb
000003d0: d4d7 443d 6c46 73bd 9075 3b3d a46b 83bc
000003e0: 38de 363c facf 6fbd a0a1 603c 745b b6bc
000003f0: 6922 3fbc f9d5 503e 971f 3a3e 18f5 9e3d
-0.061353803 0.040253118 -0.013470039 0.046474643 0.037125416 0.06122853 -0.0053252727 -0.0050689257
0.27881458 0.28567305 -0.45723006 -0.28905627 0.043598045 0.07537798 -0.039918944 -0.017334357
0.033109926 -0.017595492 -0.0553945 0.0601155 0.02890765 0.060913146 0.42436206 0.37216467
-0.41212723 -0.43584144 -0.03498239 -0.033901315 0.033341922 0.18636946 0.08889037 -0.024617145
-0.17408453 0.04238702 0.11528924 0.056729108 0.008427687 0.04053913 0.06126266 0.06058666
-0.052947797 0.030982688 -0.0132769225 0.13551988 0.16711946 -0.042321987 -0.18892674 -0.0634963
0.10390664 0.043424696 -0.013649024 -0.033284485 -0.04132787 -0.03780865 -0.0039627925 -0.050041065
-0.060400583 0.3518598 0.30894342 -0.7206329 -0.27991885 -0.096442275 -0.10486764 -0.073418245
0.024761356 0.008926183 0.6877135 -0.025746264 -0.004740852 0.13137041 -0.05329626 0.004490614
0.047345355 0.014098071 -0.03367714 0.009066559 -0.060251594 -0.03611272 0.056069456 0.023111537
-0.054317966 -0.014068998 0.015437447 -0.049107328 -0.08962951 0.15870897 0.10791019 0.7470049
-0.08561113 -0.03785832 0.20442209 0.023186898 0.1876522 0.15778202 0.15757297 -0.1779365
0.037679095 0.216158 0.026186442 0.37805367 0.29875737 -0.22079064 -0.427032 -0.026633088
-0.017906036 0.035138436 0.038911216 0.003716953 0.0005536452 0.04135397 -0.023387358 -0.0136775
-0.07803962 0.29885986 0.34149632 -0.42319658 -0.29023466 -0.12084604 -0.08411691 0.017897919
0.048122145 -0.033435553 0.010948636 -0.04777199 -0.022360638 0.009075426 0.03311106 0.03619287
0.03434503 -0.0021385252 0.052523464 -0.05035036 0.017873734 -0.026551723 0.022097327 0.05448518
-0.039511025 -0.040698364 0.029085428 -0.052871816 0.043056756 -0.011975341 0.042229056 0.046212517
-0.05730603 0.027205907 0.043488607 0.058846727 0.009235829 -0.016248927 -0.0010710731 0.0297684
-0.0009378046 0.020559914 -0.06419084 0.1852363 0.16901734 0.11485096 -0.25720045 -0.05570602
0.1380395 -0.020943716 -0.04469672 -0.00046350807 -0.031175375 -0.027344674 -0.010857925 -0.02672819
0.04472119 -0.09760972 -0.14427176 0.55517447 0.17689188 0.018107845 0.08280371 -0.03487535
-0.004081942 0.05263734 0.029950991 -0.0126893 0.05345177 0.017716356 -0.0045226533 0.30124873
0.31332156 0.46096578 -0.27736327 -0.04172464 0.08119894 -0.028620563 -0.0093929395 0.059362173
-0.056608766 0.016937062 0.051270418 -0.06213087 -0.039573044 -0.054282084 0.03497406 -0.043415383
-0.012817055 0.03258305 0.057087168 -0.047550064 0.20638844 0.1082639 0.043573868 -0.17566818
0.03293696 0.13068521 0.0031759888 0.016005248 -0.023864627 0.053048387 0.04828985 -0.011849374
0.025118135 0.047848646 0.056412965 -0.044191692 0.02138431 0.027761946 -0.049864326 -0.0039525093
-0.059797607 -0.029770441 -0.024742901 -0.03868015 0.010600641 -0.04685223 -0.05977533 -0.062425174
-0.012858987 -0.04833763 -0.025380358 0.042282842 -0.031742252 -0.03399521 0.05189918 -0.055118814
-0.047798127 -0.0014058277 0.056922235 -0.0070674494 0.048057392 -0.05939333 0.045766413 -0.016042538
0.0111613795 -0.05854795 0.013710409 -0.022260405 -0.011665919 0.20394124 0.18176113 0.07761592

input_linear.bias f4 [256]
00000000: 6973 40be ece1 4d3e e83b 56bd 5574 8e3e
00000010: aad2 de3c f69f 98be 59fa f63d c451 8dbd
00000020: e820 823d 489e 313e e0a1 84bc 79a7 57be
00000030: 49d8 9b3e a2db 82bd 4171 8e3e c84b b6be
00000040: 32a8 b63a f161 52be 2434 95bd d7ce 2abe
00000050: 2533 6bbe 635f c0be d84e 303e 40a0 98bc
00000060: 3a33 833e d35f b0be d347 9a3e 42e5 1dbe
00000070: 5737 8bbe 57b3 ce3d 3ad0 71be c3ef 16bd
00000080: cbe7 bebe ea57 61be bd22 3cbe 8ffe 3cbe
00000090: 6875 953d 2979 55be f5d0 80be 8cde fd3d
000000a0: 6152 be3d 7255 363e c719 a6be 8092 d63d
000000b0: e06d 483e 73f6 c0be 7ab5 0c3d 50c8 5fbd
000000c0: 9c36 cbbd 02fc 33be a724 a33c 0f91 843d
000000d0: 5d85 583e 3cd7 f2bd 80ec c8bc b624 9cbe
000000e0: 3c56 fb3c f829 6abe 7698 de3d a0f1 763e
000000f0: e068 8cbe 7c6c 0d3e 47c5 a03e eb69 d13d
00000100: 1708 81bb e886 0cbe 2067 cabd df4e 163d
00000110: 6167 a33e 8f10 a4be 503b 12bd e652 3f3e
00000120: 9cca 9d3e 5848 0e3e 876e 24be f07c fbbd
00000130: 9407 423e f806 b1be 0220 0a3e 97d5 833e
00000140: 507c 92be 4cbb 9cbe 7b75 a3be 76d3 99be
00000150: bc5d a23e 9563 6ebe 83e7 8b3e 3626 79be
00000160: fd08 2fbe c04d 5abd da3b 6ebe 77fa b8be
00000170: d4ad 87be b813 edbd 8768 8dbd e6b1 9e3e
00000180: 9a52 563e 04c0 f3bd c0b7 c03d 8068 493b
00000190: 93a3 b13e b8e8 e6bd 1822 55bd aee5 943e
000001a0: ef69 a1bb 44f4 80bd de22 793c 32ad 9f3e
000001b0: 4017 d83c a52f a03e c0ee 68bc 5b8a 2ebe
000001c0: 6b9a 123e f448 aebe 0223 b03d 462e 863e
000001d0: 35ed 093e bc20 f9bc 0041 acbe f1b3 0fbe
000001e0: 8a24 0bbe 80f6 c3bb fbdd 14be 4b2c 9b3e
000001f0: 3100 9ebe 1968 b1be 55c2 2abe 1c75 9cbd
00000200: bc43 80bd 2b2e adbe c8e3 e63c b821 083e
00000210: 9af8 0f3e 6ce7 203e fa94 903e e00e fb3d
00000220: 0e25 a4be ec1c b23c 3e32 01be a3ea 77be
00000230: f071 6fbd d3c7 91bd 2481 693e 8820 6f3e
00000240: dca1 01be 68e5 c1bd 0730 e53d e689 553e
00000250: 746f 933d 0424 513d 944b 5c3e b9ff 803e
00000260: 5d6b 9ebe 63ae 8ebe 7458 983e 1c9d aa3e
00000270: ddfb 10be 6608 a03e d962 2ebe 685b efbd
00000280: da07 853e a8be b13e b22c dd3d 34d2 ffbd
00000290: 40a4 8d3e 1906 ad3e 86c8 513e 8ce3 95bd
000002a0: 1655 33be f12e 11bd 001f 1b3c 2d25 a9be
000002b0: 4270 8fbe 5406 f83d 682a 153d 6b0a 58be
000002c0: 7035 cabc d864 503e 0b80 a73d 4be5 15be
000002d0: c2a4 41be 3b2c 06be c6b6 b138 2640 b23e
000002e0: b6fa abbe 463a 533e c0ae cabd 3751 ab3e
000002f0: a9ed 71be 9c61 903a 1b4b 7c3e 634a 27be
00000300: 9b25 20be c309 a03e 59f3 823e a850 b23e
00000310: b27f 6e3e 3aea 9cbe 0fb3 513e 9a77 b9be
00000320: 30b5 d3bc 2420 373e 2eff 1f3e 2b19 24be
00000330: 3e45 aebe c8ac b93d 08c8 e9bd 591d 90be
00000340: fbdd a13e 1057 33bd d542 93be b331 893e
00000350: e311 6f3e 9be1 653d 0688 71be 3269 bf3e
00000360: c070 103e c6d6 8cbe aa9b 443e ec5d a2be
00000370: ab55 b6be 2abe 493d 3b52 a33d 9fec 603b
00000380: c761 473d d4e6 4cbe beff 59be a4b3 4ebe
00000390: 03d0 51be 858d 233d 9498 41be a83a 6abd
000003a0: 1ffa 843d 62f3 20be c08a 053e 08b1 a7be
000003b0: c5d2 873e d50d 5a3e bf92 47bc 51f4 963e
000003c0: a80c 563d ba64 303e 7788 b73e 351e 783e
000003d0: 71b3 953b 9ce8 95be 6c3d 80be 4e6a 263e
000003e0: aeef 69be 11de 773e 9baa 573e dfa4 90be
000003f0: cb6b 8fbe 33bd 023e 7ba5 67be 4969 9f3e
-0.18794025 0.20105714 -0.052303225 0.2782313 0.027200062 -0.2980954 0.12059469 -0.06900361
0.063539326 0.17345536 -0.01619047 -0.2105998 0.3043845 -0.06389548 0.2782078 -0.35604692
0.0013935624 -0.20545174 -0.07285336 -0.16680466 -0.22968729 -0.37572774 0.17217577 -0.0186311
0.2562502 -0.34448108 0.30132923 -0.15419486 -0.27190658 0.100928 -0.23614588 -0.03684975
-0.3728622 -0.22006193 -0.18372627 -0.18456481 0.07297784 -0.20847 -0.25159422 0.12395963
0.09293056 0.17806032 -0.32441542 0.104771614 0.19573164 -0.37688026 0.034352757 -0.054634392
-0.09922525 -0.17576602 0.019914938 0.0647298 0.21144624 -0.11857459 -0.024526834 -0.30496758
0.030680768 -0.22867572 0.10868923 0.2411561 -0.27423763 0.13810915 0.3140051 0.102252804
-0.003937732 -0.13723338 -0.09882951 0.03669631 0.3191481 -0.32043883 -0.035701096 0.18683967
0.3081864 0.13894784 -0.16057788 -0.12279689 0.18948203 -0.3457563 0.13488773 0.25748894
-0.28610468 -0.30611646 -0.31925568 -0.30044144 0.3171214 -0.23280175 0.27325067 -0.24330983
-0.17093273 -0.053296804 -0.23265019 -0.3612859 -0.26499808 -0.11576027 -0.06904703 0.309951
0.20929947 -0.119018584 0.094100475 0.0030732453 0.3469511 -0.11274856 -0.052034467 0.29081482
-0.0049259583 -0.0629659 0.015206067 0.31186825 0.026378274 0.3128635 -0.014217079 -0.17044966
0.14316718 -0.34040034 0.08600427 0.2620718 0.13469394 -0.030411117 -0.3364334 -0.14033486
-0.13588157 -0.005980313 -0.14537804 0.3030723 -0.3085952 -0.34649733 -0.16675694 -0.07639524
-0.06262919 -0.33824286 0.028184786 0.13294113 0.14059678 0.1571328 0.2823866 0.122586966
-0.3205952 0.021742307 -0.12616822 -0.242106 -0.05845827 -0.071181916 0.2280317 0.23352253
-0.126594 -0.09467584 0.11190801 0.20853385 0.07198992 0.051059738 0.21513206 0.251951
-0.30941287 -0.27867422 0.29754984 0.3332299 -0.14158578 0.31256407 -0.17029895 -0.11687356
0.25982553 0.34715772 0.107995406 -0.12491265 0.27664375 0.33793715 0.2048665 -0.07318792
-0.17512926 -0.035445157 0.00946784 -0.33036175 -0.28015333 0.12110582 0.036417395 -0.21097724
-0.024683684 0.20350969 0.08178719 -0.1463825 -0.18910506 -0.1310281 8.474062e-05 0.34814566
-0.33589715 0.20627698 -0.09896612 0.334604 -0.23625816 0.0011015418 0.24638025 -0.1633697
-0.15639345 0.31257448 0.25576285 0.3482716 0.232909 -0.3064745 0.20478462 -0.3622406
-0.025843233 0.17883354 0.15624687 -0.16025226 -0.34037203 0.090661585 -0.11415106 -0.2814739
0.3161467 -0.0437842 -0.28761926 0.2679573 0.23346667 0.056123357 -0.23587045 0.37384945
0.1410551 -0.2750761 0.19200006 -0.31712282 -0.35612234 0.04925362 0.079746686 0.0034320725
0.048677232 -0.20009929 -0.21288964 -0.20185715 -0.20489506 0.039929885 -0.1890586 -0.057184845
0.06493019 -0.15717843 0.1304121 -0.32752252 0.26527992 0.21294339 -0.012180983 0.29483274
0.052258164 0.17225924 0.35846302 0.24230273 0.00456851 -0.2927903 -0.2504686 0.1625149
-0.22845337 0.24205805 0.21061175 -0.28250787 -0.28011927 0.12767486 -0.2262172 0.31135014

middle_linear.0.weight f4 [256, 256]
00000000: c0ac ebbc b828 213c e8f4 0cbd 4095 f33b
00000010: 90e7 7fbc c888 06bd 2047 11bb 401f 463c
00000020: ea63 6e3d a689 63bd c855 293c 70a9 ecbc
00000030: 14da 38bd febf 3fbd 5c4b d5bc 2e1c 2abd
00000040: f0d3 c43b a6bd 063d 38c7 5abc 18fa fa3c
00000050: 700b c93c c0ff 413b bc98 45bd 8044 5ebc
00000060: 34b6 8d3c e4a5 afbc b64e 08bd d812 29bd
00000070: d0b1 d03b 8ee8 29bd c884 2fbc e094 373d
00000080: 2c58 f83c b42d 34bd d4d4 9b3c 78e7 463d
00000090: 3402 1ebd d83b e33c 0cee e13c 0816 993c
000000a0: 6a9d 26bd 0039 01bc aa14 01bd 7486 333d
000000b0: d88c 2dbc 4c69 ce3c 84f8 90bc b0f9 f5bb
000000c0: 2c18 033d 000c 7b3c 80fc 89bb 904d 3b3c
000000d0: c80f 0bbc 5021 0a3c 20a1 49bb 2e01 5ebd
000000e0: bce9 41bd 409d 18bb 9442 47bd 5001 26bd
000000f0: f09c e23c 3c28 bb3c 384a e03c 8072 763a
00000100: eed9 70bd f2ae 19bd bcfa e5bc eed6 7f3d
00000110: f02d 32bc fc0b fbbc c0e8 d83c 865c 02bd
00000120: 2ce0 2bbd 60a4 533b 0069 ac3b 3070 0e3c
00000130: e02c 723c a0e2 66bc 32e7 11bd 60a2 e13b
00000140: b09e 073d 7c4f f63c 2050 67bd 00cd 41bc
00000150: 2290 63bd 9c90 673d 0653 4a3d 3420 51bd
00000160: 8ab5 063d d022 7c3c 96e7 18bd 5a65 533d
00000170: b8f0 7b3c 8090 93ba 4453 c4bc 32b8 013d
00000180: 5e8a 743d 8035 663d 529d 5e3d b4a5 00bd
00000190: 38b8 a1bc 2ee4 38bd c6d1 183d 003a 633d
000001a0: 4a3a 77bd 1806 79bc 0045 903a 409a ce3b
000001b0: b0f1 ef3c 3ef5 43bd 64e8 04bd 8060 d7ba
000001c0: bea4 5bbd a002 383d 8a88 21bd d8c6 e53c
000001d0: 4452 663d 5485 2c3d 5e36 77bd 5c1d b73c
000001e0: 9812 3cbc 0057 d5ba 1011 693d bcfd fbbc
000001f0: 28dc 053c 70ec 413c 6006 7abd 7ee5 18bd
00000200: ac20 11bd 88fb b7bc 1008 053c 788e 0fbc
00000210: 14f7 4abd 2244 1e3d 20b6 bb3b d4d6 d8bc
00000220: 5809 9f3c 6a88 2d3d ee53 603d dc03 c4bc
00000230: 880d a93c 486c 243d e8d2 99bc b0b2 7abd
00000240: 90ec 603c dcd9 543d d45a 45bd 54e8 5cbd
00000250: 9cc8 4b3d 2093 a13c 76ef 1dbd a063 173c
00000260: 86be 483d 1038 28bc 00a9 9f3a 8e43 59bd
00000270: a8c7 24bd f822 e9bc 42cc 07bd 5823 433d
00000280: 4005 98ba 102a ac3b 404b 143c 9021 3fbd
00000290: 9a4b 2ebd 38c9 ab3c 9431 abbc a6a1 563d
000002a0: d28d 3d3d 1e33 1e3d 920d 1fbd 78a4 433c
000002b0: a029 0d3d ca7c 5fbd 0489 1e3d 5ae4 15bd
000002c0: 60fd 803b e859 1cbc 7a83 52bd 18ed 71bd
000002d0: 1cd2 c13c 84cb e9bc 205a 753c 2e41 31bd
000002e0: 068e 2b3d 5cc9 28bd 5e43 72bd 38e8 7a3c
000002f0: a086 af3b 7631 53bd 7827 7ebc d096 ba3c
00000300: 6013 d33c 48f5 203d 303b 0dbd 7a63 06bd
00000310: c64a 10bd 548b 27bd 8872 a13c 2a35 58bd
00000320: 70b9 4d3c 42da 1cbd f0a6 d2bb e01b c6bb
00000330: 1c23 273d ca3a 303d 8496 213d c609 7cbd
00000340: 5844 f3bc 2a91 27bd 56b4 3c3d dc21 323d
00000350: a0db c8bc 98b5 e0bc 00bb 2dba 70a0 25bc
00000360: ee43 763d 8058 f83a 9e86 6bbd 92be 0bbd
00000370: 4061 843a 64f9 483d bac1 1d3d 62b1 1fbd
00000380: a46f 383d 1871 d6bc 0402 eabc 54e1 463d
00000390: a851 d1bc 70fd 7cbc 80f7 e93a 80bc 903c
000003a0: 1c06 a53c 44c1 543d a093 53bc b087 dfbc
000003b0: d8d2 103c 8453 773d 34b6 acbc 00c1 f139
000003c0: be6c 40bd e83d 603d 4058 5e3c 00ae 7cbc
000003d0: 0479 cd3c 74d4 0fbd b026 4c3c 0a0d 7bbd
000003e0: 3277 1d3d 50f8 13bd 147a 89bc d0f4 9b3b
000003f0: 20bf 30bd a8c1 a8bc 1eb8 29bd 203c 3fbc
-0.028768897 0.009836368 -0.03441325 0.0074335635 -0.015619174 -0.03284529 -0.0022167638 0.0120924115
0.058200754 -0.055551194 0.010335393 -0.028889388 -0.04512985 -0.046813957 -0.02603691 -0.04153078
0.00600671 0.032895707 -0.0133531615 0.030636832 0.024541587 0.0029601902 -0.048241362 -0.013566136
0.017298795 -0.021441408 -0.03327819 -0.041277736 0.006368853 -0.041481547 -0.01071281 0.044819713
0.030315481 -0.0439889 0.019022383 0.04856059 -0.03857632 0.027738497 0.02757933 0.018687263
-0.040677465 -0.007887125 -0.031513847 0.043829396 -0.010592662 0.025196694 -0.017696626 -0.0075065717
0.032005474 0.015322685 -0.0042110085 0.011432067 -0.008487649 0.008430794 -0.0030766204 -0.054200344
-0.047342047 -0.0023287088 -0.04864748 -0.040528595 0.027662724 0.022846334 0.02737914 0.0009401217
-0.058801584 -0.037520356 -0.028073661 0.062460832 -0.01087521 -0.030645363 0.026478171 -0.03182652
-0.041961834 0.003229402 0.0052615404 0.00869374 0.014781207 -0.014092118 -0.035620876 0.0068858117
0.03311032 0.030067198 -0.056472898 -0.011828661 -0.055557378 0.056534395 0.049395584 -0.051056102
0.032887973 0.015389159 -0.037330233 0.05161033 0.015377216 -0.0011258274 -0.023965485 0.031669803
0.05970227 0.056203365 0.05434925 -0.031408027 -0.019741163 -0.045139484 0.03730943 0.055475235
-0.060358323 -0.015199207 0.0011006892 0.006305009 0.02929005 -0.047841303 -0.032448187 -0.0016431957
-0.053623907 0.04492438 -0.039436854 0.028048918 0.0562308 0.04211934 -0.060354583 0.022352867
-0.0114790425 -0.0016276538 0.056901038 -0.030760638 0.008170165 0.011836156 -0.061041236 -0.037328236
-0.03543155 -0.022458807 0.008119598 -0.008761995 -0.04955204 0.038639195 0.005728498 -0.026469626
0.019413635 0.042366423 0.05476754 -0.023927622 0.020636335 0.040142328 -0.018777326 -0.061205566
0.013728276 0.05196558 -0.048182324 -0.053932503 0.049751863 0.019723475 -0.038558446 0.009240061
0.049009822 -0.010267273 0.0012181103 -0.05304294 -0.04022947 -0.028459057 -0.03315378 0.04764113
-0.0011598244 0.0052540377 0.009051144 -0.046662867 -0.042552568 0.020969972 -0.020897664 0.052400254
0.04627783 0.038622968 -0.0388313 0.011941068 0.034463525 -0.054562367 0.038704887 -0.036594726
0.0039364547 -0.00954292 -0.051394917 -0.059064 0.023659758 -0.028539427 0.014975101 -0.04327505
0.04188349 -0.041207656 -0.059146278 0.015314154 0.0053566247 -0.05156084 -0.01551234 0.022776991
0.025766075 0.03929642 -0.034480274 -0.032809712 -0.03522756 -0.040904358 0.019707933 -0.052785076
0.012556419 -0.038294084 -0.006428592 -0.0060458034 0.040804967 0.043024816 0.039450184 -0.06153276
-0.029695675 -0.040909924 0.04607042 0.043489322 -0.024518788 -0.02743034 -0.00066272914 -0.010109052
0.060123377 0.0018947273 -0.057501428 -0.03411729 0.0010099784 0.049065962 0.03851483 -0.038987525
0.045028344 -0.026176974 -0.028565414 0.048554733 -0.025551632 -0.015441284 0.001785025 0.017668009
0.020144515 0.051942125 -0.0129136145 -0.02728638 0.008839332 0.06038238 -0.021082975 0.00046110898
-0.046978705 0.05474654 0.013570845 -0.015422344 0.025082119 -0.03511472 0.012460396 -0.061291732
0.03844375 -0.03612548 -0.016781844 0.0047594085 -0.04315102 -0.020600155 -0.041435353 -0.01167205

middle_linear.0.bias f4 [256]
00000000: 5c65 97bc 801c 86bd 6054 94bb f8c1 4ebd
00000010: 40c6 6d3c 006e 953a 5e1d fc3b 895f 4b3d
00000020: 2e8a e0bd bab9 b23d 40aa 1c3e 851a 163d
00000030: d700 ca3c 7b8f 0cbd 897a b5bb 4ecf 393d
00000040: ece5 3abd fff3 e63b 3add 853d 44e8 6a3c
00000050: f12a 283c 961e 34bd f3e8 acbb dd59 663d
00000060: 711c ecbc ec3d 3c3d c46a 0a3e 58b5 8f3d
00000070: 55e0 b5bc 05a7 7ebd 3ccf 743d 3654 1bbb
00000080: f826 443c 42ca f63c defa eabc 5ae1 32bd
00000090: 3178 43bc 37eb af3d 517d f93c 3ea7 fa3d
000000a0: 86fe 333e b390 253d ab05 0a3d 5c5b 423d
000000b0: d660 85bd 91a2 bd3c 6fa2 213e 8658 c83c
000000c0: 47d9 0f3b d8db 913c cda5 5abd 9070 6dbd
000000d0: d1a0 babd b858 16bd 3cc7 ad3c 2065 5abc
000000e0: 70be f73c ddd1 11bd f14e 77bd 6d48 59bd
000000f0: 7500 b13c fd71 00bd bdee d53d dc98 14bd
00000100: ae44 70bd d6ba dbbc 8905 5dbc 6b34 8a3d
00000110: b039 8c3c 5e61 493c 10f1 8f3c a6f1 92bd
00000120: 07a1 13bd b85c a93c 4bd7 683c 3a3e 473d
00000130: ad45 75bd 4afa 013d 7020 f83d 7113 07bd
00000140: 099e 683b c451 0b3e 2847 c7bd 1f5d 713c
00000150: a0d0 b2bc 9c01 c8bc 795a 103d 6e2f 0cbd
00000160: 4411 c83d 1a5c 76bd 3386 433d 5825 4d3c
00000170: 2c96 0abd 4243 91bd 8bd0 5ebd b0d6 363d
00000180: b6f0 633d 208c 573c dde4 f8bc 9d02 dbbb
00000190: 1277 763d 2b71 aabc 06ba ef3c a84f 49bd
000001a0: e09e 663c f0c2 65bd 6bbf 01be ada2 e93d
000001b0: ef36 4ebc e0f4 f1bc 3097 bcbc 4c69 68bd
000001c0: 3e13 9c3d e036 68bd e9e9 273d ed39 d0bd
000001d0: 8859 b6bd 4936 c23d 499e a5bc 9218 343d
000001e0: 8e50 4b3c 7f91 6c3d f38f 7bbc 30d8 0d3c
000001f0: dc1c 893d b662 f9bc f858 76bc 03b2 513c
00000200: f96a 1d3e 361d 4b3d 91aa 303d 7c15 f13d
00000210: 044f 993c 2f23 173d 3020 53bd ad3c d1bb
00000220: de65 18bd c4b3 ddbb 526c 60bd 7680 b53c
00000230: e008 d23b 37a6 0f3d 8e69 f738 2224 98bc
00000240: 0838 163d 1c90 39bd a3aa c73c adc8 143d
00000250: 91ef 003e 6c47 3f3c 4221 8a3d 36c6 5abd
00000260: 310b 1dbd da37 a0bd e149 913d 9d61 6c3c
00000270: 108b 2dbc d3c7 513d c6fe 0fbd 16eb a6bc
00000280: 3ba5 8e3d 40de 57bd e0d4 093c a05c 8d3d
00000290: 4e50 993c 1ebc 17bd 74b8 c9bc f6d0 c2ba
000002a0: eeff aa3d 0102 f23c 8c2f 073d f10c edbb
000002b0: d8da 67bc 7cb8 5bbd 0415 96bc b439 ebbc
000002c0: 4823 d6bc e678 20bd 6afb 193d e7c3 20bd
000002d0: c09f 4fbd ef43 163c 6553 24bd 5533 00be
000002e0: 233e 33bd 7135 82bd fc13 eaba 45a5 ab3c
000002f0: 2a3f 23bb f4b8 0a3e a75e cdbd a8ef c73c
00000300: a624 33bd cccf 87bc 6bda 2a3d f47f 303d
00000310: 6618 af3b ac50 b43d 3832 053d 2bbe e3bb
00000320: 3021 b7bb 7951 443d f9ff a23b 7564 6abc
00000330: b780 693d 82a4 923c a544 76bd e59c 5e3d
00000340: c35d 80bd c09b 91bd 4caf 04bc dd77 42bd
00000350: 3009 a1bc 614a ef3b fa2c b83c aac6 ebbd
00000360: 9f74 823c 4887 193e 54cf 08bd 0138 803c
00000370: 041f 8b3d de74 d3bd 5506 2c3d c52f 083d
00000380: 151d b03d 3f8f d93d c3c9 d7bd 786e 18bd
00000390: 8896 38bd 3690 833d 4aed 27bd 3d34 033d
000003a0: bda9 f03c 17f6 10bd 7b3a 4abd ee6d 083d
000003b0: e639 3c38 d8db 723c c4b4 4cbd 5155 9e3d
000003c0: 8264 0cbc 7e6f 383d b607 bc3c 0f66 f83c
000003d0: 41f6 b33c 2151 e23c 91e0 b0bc 0de4 ac3d
000003e0: 247e 8a3d fefc 28bd 407c e83a 6b49 473d
000003f0: 3468 8e3d 095b 0cbd b8d9 54bd b54d 34bd
-0.01848095 -0.06548405 -0.00452666 -0.05047795 0.0145125985 0.001140058 0.0076939305 0.049651656
-0.10963856 0.08726831 0.1529932 0.036646385 0.024658604 -0.03431652 -0.005538289 0.045363717
-0.045629427 0.0070481296 0.06536336 0.014337603 0.010264144 -0.04397448 -0.005276793 0.056238044
-0.028822156 0.04595749 0.1351729 0.070170105 -0.022201696 -0.062171 0.059767947 -0.0023701317
0.0119721815 0.03012574 -0.028684076 -0.043671943 -0.011930511 0.085897855 0.030455263 0.1223893
0.17577562 0.0404212 0.03369681 0.04745041 -0.065126106 0.023148807 0.1578462 0.024456274
0.0021949576 0.017805025 -0.053380776 -0.057968676 -0.091127045 -0.036705703 0.021213166 -0.013329774
0.030242175 -0.03560053 -0.06037802 -0.053047586 0.021606663 -0.031358708 0.10445926 -0.03627859
-0.058659248 -0.026822489 -0.013490089 0.06748279 0.017117351 0.012291281 0.017571002 -0.07174997
-0.03604224 0.020674095 0.014211486 0.04864333 -0.0598809 0.031732835 0.12115562 -0.032977525
0.0035494587 0.1360541 -0.09730369 0.014731674 -0.021827996 -0.02441483 0.03524253 -0.03422492
0.09768918 -0.06014643 0.047735404 0.0125211105 -0.03383462 -0.070929065 -0.0543981 0.044638336
0.05564948 0.013155967 -0.030382568 -0.006683661 0.060172148 -0.020805916 0.029263508 -0.04914823
0.014075965 -0.05609411 -0.12670676 0.11407981 -0.012586339 -0.02953571 -0.02302131 -0.056741044
0.07620858 -0.056692958 0.04099456 -0.101672985 -0.089037955 0.0948301 -0.020217078 0.043968745
0.012409342 0.057755943 -0.015354144 0.0086575 0.066949576 -0.030442577 -0.01503586 0.012798789
0.15372838 0.049588405 0.043131415 0.11771676 0.018714435 0.036898788 -0.05154437 -0.006385407
-0.037206523 -0.0067658145 -0.054790802 0.022155982 0.0064097494 0.035070624 0.00011797539 -0.018571917
0.03667453 -0.04530345 0.024373358 0.03632419 0.12591387 0.011674743 0.06744625 -0.053411685
-0.03834075 -0.07823153 0.070941694 0.01442757 -0.010592237 0.051215958 -0.03515508 -0.02037577
0.06965109 -0.05270219 0.00841257 0.069024324 0.01871505 -0.037044637 -0.024624087 -0.0014863301
0.08349596 0.029541971 0.03300433 -0.0072342088 -0.0141512975 -0.053642735 -0.018320568 -0.028714038
-0.02613987 -0.039177798 0.037593283 -0.039249327 -0.05068946 0.00917147 -0.040118594 -0.12519582
-0.04376043 -0.063578494 -0.0017858739 0.02095283 -0.0024909475 0.13547117 -0.10027819 0.02440627
-0.043736123 -0.016578577 0.041712206 0.043090776 0.0053434847 0.088044494 0.032518595 -0.00695016
-0.005588673 0.04792926 0.004974362 -0.014306177 0.057007518 0.017900709 -0.06012406 0.054348845
-0.06267884 -0.07109785 -0.008098435 -0.04747759 -0.019657701 0.007302568 0.022482384 -0.115125015
0.01592475 0.14993012 -0.03340085 0.015651705 0.06793025 -0.10325025 0.041998226 0.03324868
0.08599297 0.10623025 -0.1053653 -0.037214726 -0.045065433 0.064239904 -0.04099778 0.03203224
0.029377813 -0.03539094 -0.049372178 0.033307962 4.4876615e-05 0.014822923 -0.04997708 0.077311166
-0.008568885 0.045028202 0.022952896 0.030322103 0.021968009 0.027626576 -0.021591457 0.08441935
0.06762341 -0.041256897 0.0017737225 0.048654 0.06953469 -0.034266505 -0.051965445 -0.04401942

output_linear.weight f4 [3, 256]
00000000: 4421 cd3a 1eb7 d139 98ba 863d d63e 02bb
00000010: c647 24be 843c 3f3b 7820 16be 68e1 ef3b
00000020: dd69 7cbe e624 093c ca4f 693d 7cc3 d3bd
00000030: 434b ebbe 1009 cd3e bc5c 893e e0f3 c9ba
00000040: b0c3 eb39 2983 d8bd a5f4 07bf 2846 e73d
00000050: 4d89 af3c d4ce 403b d0c3 e8b9 2ea7 a73a
00000060: 3277 a43e 7147 a3bd efa9 ab3d 5f46 15be
00000070: 041c e53e 5885 763a b41d e7bd ea13 083e
00000080: f48e 84bd 2a82 5ebe a3c6 bb3d 34fc b7ba
00000090: 52f2 a33e 5b56 883d 7198 143e 76f0 14bc
000000a0: d6d6 20be 75d3 4d3e c98d 98bc 39a7 abbd
000000b0: 9516 cd3d d314 95ba f23e a93d 1fbf e7bd
000000c0: b2f2 a53e 7b84 2fbe 61c0 af3d 6016 db3d
000000d0: 37bd a13e ca9f 1cbb c8a2 f9bd 2070 fd3a
000000e0: eaa1 b7bc 453f d83a 7c23 ffbb 35d5 9f3e
000000f0: 15be 5bbc 736c 953e 56fd 0abe d092 0ab9
00000100: 809f e139 6598 e6bb 7c43 493d f00c 30be
00000110: 0417 11bb 556b 1fbe b30c 15bf 024e 89bf
00000120: 4af7 49bf 9e42 26bd 4dda 66be 9686 b2bd
00000130: c246 283b 5701 d8bd 4167 36bc 4415 b63e
00000140: d4ce 013d c478 dbbc 2ba3 a7be 575c 2abe
00000150: 1afd c3bd 805a e63b c9aa 373c 111c 043b
00000160: 78a4 843d 1dc1 39bb 5bbe 3c3b 94a3 023b
00000170: a1e7 3fbb d7c6 2dbf 0116 2b3e a877 8bbd
00000180: 2150 19be a8b5 9a3e 77cf b3bd 47a2 ba3a
00000190: ccdc 2cbd 7be4 94bb 4a56 973d 4ae9 eb3a
000001a0: 8c0c f03a ec47 2c3b 65fd cfbd 6ba0 f8bd
000001b0: cda4 2ebe 90cd f83a 98b9 dd3a 6243 e9ba
000001c0: 344d 0abe b732 f8ba 7b2d 61bb 9b86 763d
000001d0: 1ecd 60be fe6c 823d 4b2b 153e 9083 1f3b
000001e0: e142 983c a7f6 c4bd cb13 17be 5001 8ebe
000001f0: 5ea6 2cbe b4b9 06ba 1f89 f7bd 433f a2bf
00000200: c638 9a3d 7d8e 1ebe 640d 2b3c 327d acbc
00000210: 84f4 4aba 466c bbbd 3d5b 1c3e 7ce8 823e
00000220: b499 77bd 86ed 76ba 18fe 03bb 4ed6 983a
00000230: 3061 f039 ccea f3bc aed5 953e aa8d 50be
00000240: 0872 b13c d0aa c03a 307b 843c 5769 bbbb
00000250: 2fff 803d 129d 1bbb 3173 e7bd a0c1 433a
00000260: a1c9 9dbd f1b0 b4be 50b8 923d cb0c 1cbd
00000270: fc5c 3ebf 761a 9dbd 4e3e df3d 8afc b23d
00000280: 11d7 403d cde2 a2ba 28a0 8fb9 6321 d7be
00000290: 2eda 873b 580c 8d3a bcfd 333b 7c07 d9bd
000002a0: f693 1f3c 2c7c 203d 1cfc 99ba 3e57 02ba
000002b0: e09f a538 f457 313b 9896 f2b9 c2c0 063b
000002c0: d800 32bc 7c51 98ba d60f 92bd 4991 adb9
000002d0: ac3f 213b 0f9d f1bd 73fa 13be 57bd 653e
000002e0: 70f3 af3e 0bec a5bd 1c18 28be 387a 7c3c
000002f0: bd9a 9cbe 1704 a6bc 41bc 9e3d a837 79ba
00000300: 2831 953d 8435 843a b127 efb9 7735 c9be
00000310: e93c c93d 9d3c db3b 4341 24be e6f3 0abb
00000320: 08f5 3bbb 5a0c 3a3b ac18 2bbb 147b 943d
00000330: 8e7c b6bd 6f38 d53c 9940 b13c ec8e 11ba
00000340: 33e6 473d eac5 85be d28c 933e 03f0 d13e
00000350: 22c9 4a3a d6a3 823d 22f9 e6bd f383 8d3e
00000360: 7a59 7abb 21d6 b63d 94a1 303b b33e 433b
00000370: 9e8a 983c c0f1 463e c6cb 233c 2b5e f03b
00000380: 4f69 0dbe 7d8e 78bc b4a2 dfbd 04fb a63a
00000390: cb40 933b 9fbd 8f3c 852f 16bb 08e9 13be
000003a0: 47d0 9e3e 94a6 dbbd 7e02 45bf 0e03 a4bd
000003b0: f260 e0bd 4bf0 1cbf 76bd b93e 17ac 173d
000003c0: 97de 423b 4941 11be 6fc1 2fba f012 c13d
000003d0: 62ed 043d 56cb b03c 9e68 89bc ea82 c9bc
000003e0: 46c0 21be ffaa b5ba 395f b0ba 93b5 183c
000003f0: 58d8 8c3b e208 3ebe d4a9 f43b 7760 41bc
0.0015650173 0.0004000002 0.06578559 -0.001987388 -0.16043004 0.0029180357 -0.14660823 0.0073205717
-0.24649759 0.008370614 0.05696086 -0.1034002 -0.45955858 0.40045977 0.26828563 -0.0015407763
0.0004496849 -0.10571892 -0.5310767 0.11292678 0.021427775 0.0029420154 -0.0004439638 0.0012790912
0.3212219 -0.07972611 0.08382022 -0.14577626 0.44747937 0.0009404025 -0.11284962 0.13288847
-0.06472579 -0.21729341 0.09168746 -0.0014036954 0.32020813 0.06657096 0.14511277 -0.0090905335
-0.15706953 0.20100196 -0.018622296 -0.083815046 0.10014073 -0.0011374004 0.08263959 -0.1131575
0.32411724 -0.17140381 0.08581615 0.10697627 0.31589672 -0.0023898953 -0.12189251 0.0019335784
-0.022416074 0.0016498348 -0.0077862125 0.31217352 -0.013412018 0.29184303 -0.13573202 -0.00013215397
0.0004303418 -0.00703721 0.049136624 -0.17192435 -0.0022138963 -0.15568288 -0.582225 -1.0726931
-0.7889296 -0.040590875 -0.22544213 -0.087170765 0.002567694 -0.105471306 -0.011133016 0.355631
0.031691387 -0.026790984 -0.32741675 -0.16636787 -0.0956976 0.0070298314 0.011210152 0.002015833
0.064766824 -0.0028343864 0.0028799984 0.0019933926 -0.0029282349 -0.6788153 0.16707613 -0.06809932
-0.14971973 0.30216718 -0.08779805 0.0014239036 -0.042202756 -0.0045438386 0.07389505 0.0017998603
0.0018314286 0.0026287986 -0.10155753 -0.12139972 -0.17055054 0.0018982161 0.0016916273 -0.0017796571
-0.13506013 -0.0018936013 -0.0034359384 0.060186964 -0.21953246 0.06368445 0.14567296 0.0024339892
0.018586578 -0.09617358 -0.14753644 -0.27735376 -0.16860339 -0.0005139366 -0.12086701 -1.2675556
0.0753036 -0.15484042 0.010440204 -0.021055792 -0.0007742124 -0.09151511 0.1526918 0.25567997
-0.060449317 -0.0009419549 -0.0020140465 0.0011660547 0.00045848778 -0.029775046 0.29264587 -0.2036654
0.02166082 0.0014699344 0.016172022 -0.0057193446 0.062986724 -0.0023744744 -0.11301268 0.0007467512
-0.07704473 -0.35291246 0.07164061 -0.038098138 -0.7436063 -0.07671063 0.109005556 0.08739574
0.047080103 -0.0012427211 -0.0002739441 -0.4201766 0.004145882 0.0010761125 0.002746447 -0.10597131
0.0097398665 0.03918092 -0.0011748108 -0.00049721065 7.897592e-05 0.002706048 -0.00046270038 0.002056167
-0.010864459 -0.0011620964 -0.07131927 -0.00033105377 0.0024604602 -0.11797535 -0.14451008 0.22435509
0.34365416 -0.08101662 -0.16415447 0.015409999 -0.30586806 -0.020265622 0.0775075 -0.00095068896
0.072847664 0.001008675 -0.00045615205 -0.39298603 0.09826071 0.0066905753 -0.1604052 -0.0021202504
-0.0028679986 0.002838871 -0.0026107235 0.07250038 -0.08910476 0.026027886 0.021637248 -0.0005552608
0.04880352 -0.2612756 0.28818375 0.41003427 0.00077356596 0.063789055 -0.11277987 0.27639732
-0.0038200305 0.089275606 0.0026951777 0.002979201 0.018620785 0.19428158 0.009997314 0.0073354444
-0.13809703 -0.015170691 -0.10919705 0.0012739603 0.004493808 0.017546473 -0.0022916507 -0.14444363
0.31018278 -0.10725132 -0.7695693 -0.08008395 -0.10955991 -0.6130416 0.3627736 0.037029352
0.0029734725 -0.1418506 -0.0006704544 0.0942744 0.03245295 0.021581333 -0.016773518 -0.024598558
-0.15796003 -0.0013860165 -0.0013456113 0.009320634 0.004298251 -0.18558076 0.007466534 -0.011802784

output_linear.bias f4 [3]
00000000: aa5e 3f3d 29cc e7bd 51fd 4e3d
0.046721138 -0.11318237 0.05053455
