examples/player_template_py/models/actor.pkl (torch, 276895 bytes, 6 tensors)

input_linear.weight f4 [256, 7]
0	0xbd7b4e20	-0.061353803
1	0x3d24e074	0.040253118
2	0xbc5cb170	-0.013470039
3	0x3d3e5c32	0.046474643
4	0x3d1810d2	0.037125416
5	0x3d7acac4	0.06122853
6	0xbbae7fa0	-0.0053252727
7	0xbcb4a178	-0.02204965
8	0x3ca23eb4	0.01980529
9	0x3d4e0d30	0.050305545
10	0x3cbd06a4	0.023074456
11	0xbcf6257c	-0.03004717
12	0x3d4e0bb6	0.050304137
13	0xbcf9b158	-0.030480072
14	0xbd23820c	-0.039918944
15	0xbc8e00c8	-0.017334357
16	0x3d079e46	0.033109926
17	0xbc90246c	-0.017595492
18	0xbd62e558	-0.0553945
19	0x3d763bac	0.0601155
20	0x3ceccfbc	0.02890765
21	0x3c995860	0.018718898
22	0x3cf3582c	0.02970513
23	0xbbd9a6c0	-0.0066421926
24	0xbd5d27d0	-0.053993046
25	0xbd28b020	-0.04118359
26	0xbd2873c0	-0.041126013
27	0xbd43c94a	-0.047799386
28	0x3ba9cff0	0.005182259
29	0x3d4ef27c	0.05052422
30	0xbd235ffa	-0.039886452
31	0xbcaa940c	-0.020822547
32	0xbd1ca008	-0.038238555
33	0x3c88b55c	0.016688041
34	0x3a165600	0.0005734861
35	0x3d685cc8	0.056729108
36	0x3c0a1448	0.008427687
37	0x3d260c5c	0.04053913
38	0x3d7aee8e	0.06126266
39	0x3d7829b8	0.06058666
40	0xbd58dfca	-0.052947797
41	0x3cfdcf68	0.030982688
42	0xbbe79240	-0.007066995
43	0xbd289f66	-0.04116764
44	0x3b572040	0.003282562
45	0x3c4b84f0	0.0124218315
46	0xbc488a00	-0.012239933
47	0xbd5b0500	-0.053471565
48	0x3cf7fe74	0.0302727
49	0x3d31de18	0.043424696
50	0xbc5fa028	-0.013649024
51	0xbd085550	-0.033284485
52	0xbd29476a	-0.04132787
53	0xbd1add3e	-0.03780865
54	0xbb81da50	-0.0039627925
55	0xbd4cf7dc	-0.050041065
56	0xbca9ad88	-0.020712629
57	0x3d445886	0.047935985
58	0xbc2e5020	-0.0106392205
59	0xbc7719d0	-0.015081838
60	0x3cc4a700	0.024005413
61	0xbcf74528	-0.030184343
62	0x3cbe8304	0.023255832
63	0xbac3ccc0	-0.001493834
64	0xbce26cdc	-0.027639799
65	0xbd35bb2e	-0.04436796
66	0xbd71833a	-0.058963038
67	0x3cda5ce4	0.026655622
68	0x3d087b20	0.033320546
69	0xbc2b9e00	-0.010474682
70	0xbd5a4d2e	-0.05329626
71	0x3b932600	0.004490614
72	0x3d41ed34	0.047345355
73	0x3c66fb98	0.014098071
74	0xbd09f10a	-0.03367714
75	0x3c148be8	0.009066559
76	0xbd76ca60	-0.060251594
77	0xbd13eaee	-0.03611272
78	0x3d65a916	0.056069456
79	0x3cbd5468	0.023111537
80	0xbd5e7c84	-0.054317966
81	0xbc6681a8	-0.014068998
82	0x3c7ced58	0.015437447
83	0xbd4924c4	-0.049107328
84	0x3c58a5f8	0.013223164
85	0x3ce5f21c	0.028069548
86	0xbcbb2fc0	-0.022849917
87	0xbc9ac9cc	-0.018895052
88	0x3d3870f2	0.045029588
89	0x3cca1e0c	0.02467253
90	0x3d0fc974	0.03510423
91	0x3d626498	0.055271715
92	0x3ba72f90	0.0051021054
93	0xbcad9d2c	-0.02119311
94	0xbc951f30	-0.018203348
95	0x3b972e50	0.004613675
96	0x3d728d02	0.059216507
97	0x3cb44fdc	0.022010736
98	0xbbe29f40	-0.0069159567
99	0x3b9f6fc0	0.0048656166
100	0xbd724276	-0.059145413
101	0x3c930be0	0.017949998
102	0xbd5c89e6	-0.053842448
103	0xbd11cd8a	-0.035596408
104	0xbcbd0150	-0.023071915
105	0x3d0fed52	0.035138436
106	0x3d1f615e	0.038911216
107	0x3b739820	0.003716953
108	0x3a112280	0.0005536452
109	0x3d2962c8	0.04135397
110	0xbcbf96d8	-0.023387358
111	0xbc601798	-0.0136775
112	0xbcd9e730	-0.026599497
113	0xbcc3634c	-0.02385106
114	0xbbd60c70	-0.0065322444
115	0x3d299df4	0.0414104
116	0x3d0505a0	0.032476068
117	0xbd50fdea	-0.0510234
118	0xbd3d54c6	-0.046223424
119	0x3c929ea8	0.017897919
120	0x3d451bba	0.048122145
121	0xbd08f3b8	-0.033435553
122	0x3c3361e8	0.010948636
123	0xbd43ac90	-0.04777199
124	0xbcb72da8	-0.022360638
125	0x3c14b118	0.009075426
126	0x3d079f76	0.03311106
127	0x3d143efa	0.03619287
128	0x3d0cad60	0.03434503
129	0xbb0c2680	-0.0021385252
130	0x3d5722d8	0.052523464
131	0xbd4e3c2e	-0.05035036
132	0x3c926bf0	0.017873734
133	0xbcd98300	-0.026551723
134	0x3cb50574	0.022097327
135	0x3d5f2bda	0.05448518
136	0xbd21d650	-0.039511025
137	0xbd26b354	-0.040698364
138	0x3cee4490	0.029085428
139	0xbd58901e	-0.052871816
140	0x3d305c48	0.043056756
141	0xbc443438	-0.011975341
142	0x3d2cf860	0.042229056
143	0x3d3d4956	0.046212517
144	0xbd6ab9ba	-0.05730603
145	0x3cdedeec	0.027205907
146	0x3d32211c	0.043488607
147	0x3d710944	0.058846727
148	0x3c1751e0	0.009235829
149	0xbc851c78	-0.016248927
150	0xba8c6340	-0.0010710731
151	0x3cf3dcdc	0.0297684
152	0xba75d700	-0.0009378046
153	0x3ca86d44	0.020559914
154	0xbcd49ea0	-0.025954545
155	0xbcc6b98c	-0.024258398
156	0xbcd0ffc0	-0.025512576
157	0x3d1d7b1c	0.038447484
158	0xbd4362ce	-0.04770165
159	0xbcbef214	-0.023308791
160	0x3d3b24ce	0.045689397
161	0xbcab9228	-0.020943716
162	0xbd3713e8	-0.04469672
163	0xb9f30300	-0.00046350807
164	0xbcff6380	-0.031175375
165	0xbce001f0	-0.027344674
166	0xbc31e570	-0.010857925
167	0xbcdaf514	-0.02672819
168	0x3d6f635e	0.058444373
169	0x3c8bc958	0.017063782
170	0xbc88f4cc	-0.01671829
171	0xbd07ab6e	-0.033122472
172	0x3d7ed554	0.062215164
173	0x3c41a838	0.011819892
174	0xbd38d368	-0.045123488
175	0xbd0ed974	-0.03487535
176	0xbb85c1d0	-0.004081942
177	0x3d579a40	0.05263734
178	0x3cf55bc8	0.029950991
179	0xbc4fe6c8	-0.0126893
180	0x3d5af03e	0.05345177
181	0x3c9121e4	0.017716356
182	0x3d2886f0	0.04114431
183	0x3d77b562	0.060475715
184	0x3d24a9f4	0.040201142
185	0x3d6459fe	0.055749886
186	0xbd15dd1e	-0.036587827
187	0xbc8ca138	-0.017166719
188	0x3d1d200a	0.038360633
189	0xbcea75ac	-0.028620563
190	0xbc19e4d8	-0.0093929395
191	0x3d7325c0	0.059362173
192	0xbd67de98	-0.056608766
193	0x3c8abf98	0.016937062
194	0x3d5200ee	0.051270418
195	0xbd7e7cf0	-0.06213087
196	0xbd221758	-0.039573044
197	0xbd5e56e4	-0.054282084
198	0x3d0f40f6	0.03497406
199	0xbd31d454	-0.043415383
200	0xbc51fea0	-0.012817055
201	0x3d0575ce	0.03258305
202	0x3d69d43c	0.057087168
203	0xbd5704b4	-0.05249472
204	0x3d692fe4	0.056930438
205	0xbd08ffaa	-0.033446945
206	0x3c004590	0.007829085
207	0xbcd6b59c	-0.026209645
208	0x3ce2117c	0.027596228
209	0x3d1e0898	0.038582414
210	0x3b502440	0.0031759888
211	0x3c831d70	0.016005248
212	0xbcc37fc0	-0.023864627
213	0x3d594944	0.053048387
214	0x3d45cb94	0.04828985
215	0xbc4223e0	-0.011849374
216	0x3ccdc48c	0.025118135
217	0x3d5438fe	0.051812164
218	0x3d6dbd40	0.05804181
219	0xbd2cb496	-0.042164408
220	0x3cac4fc8	0.021034136
221	0x3cd61500	0.02613306
222	0xbd3944f8	-0.04523179
223	0xbadef200	-0.0017009377
224	0xbd74ee56	-0.059797607
225	0xbcf3e124	-0.029770441
226	0xbccab1a0	-0.024742901
227	0xbd1e6f14	-0.03868015
228	0x3c2dae50	0.010600641
229	0xbd3fe820	-0.04685223
230	0xbd74d6fa	-0.05977533
231	0xbd7fb18a	-0.062425174
232	0xbc52ae80	-0.012858987
233	0xbd45fdae	-0.04833763
234	0xbccfea78	-0.025380358
235	0x3d2d30c6	0.042282842
236	0xbd02042a	-0.031742252
237	0xbd0b3e90	-0.03399521
238	0x3d54943c	0.05189918
239	0xbd61c444	-0.055118814
240	0xbd43c7f8	-0.047798127
241	0xbab843c0	-0.0014058277
242	0x3d69274a	0.056922235
243	0xbbe79610	-0.0070674494
244	0x3d44d7d4	0.048057392
245	0xbd73466c	-0.05939333
246	0x3d3b7590	0.045766413
247	0xbc836ba4	-0.016042538
248	0x3c36de38	0.0111613795
249	0xbd6fcffa	-0.05854795
250	0x3c60a1a0	0.013710409
251	0xbcb65b74	-0.022260405
252	0xbc8b0ee4	-0.016974874
253	0x3d7fe8ca	0.062477864
254	0x3d3e0e78	0.046400517
255	0x3c76ce30	0.015063807

input_linear.bias f4 [256]
0	0xbe407369	-0.18794025
1	0x3e54c4ca	0.20778194
2	0xbd563be8	-0.052303225
3	0x3e8b5065	0.27209774
4	0x3ac3b200	0.0014930367
5	0xbe989ff6	-0.2980954
6	0x3e05c2a6	0.13062534
7	0xbd8d51c4	-0.06900361
8	0x3e04e882	0.1297932
9	0x3e589552	0.21150711
10	0xbc84a1e0	-0.01619047
11	0xbe57a779	-0.2105998
12	0x3ebbdfdb	0.36694226
13	0xbd2d8420	-0.042362332
14	0x3e89db9d	0.26925364
15	0xbeb64bc8	-0.35604692
16	0x3d91d5a8	0.0712083
17	0xbe5261f1	-0.20545174
18	0xbd953424	-0.07285336
19	0xbe2aced7	-0.16680466
20	0xbe6b3325	-0.22968729
21	0xbec05f63	-0.37572774
22	0x3e517f3a	0.2045869
23	0xbc98a040	-0.0186311
24	0x3e7ff8c2	0.24997237
25	0xbeb05fd3	-0.34448108
26	0x3ea6db61	0.32589248
27	0xbe1de542	-0.15419486
28	0xbe8b3757	-0.27190658
29	0x3dc3c554	0.09559122
30	0xbe71d03a	-0.23614588
31	0xbd069ed8	-0.03286633
32	0xbebee7cb	-0.3728622
33	0xbe6157ea	-0.22006193
34	0xbe3c22bd	-0.18372627
35	0xbe3cfe8f	-0.18456481
36	0x3d85eb38	0.06539005
37	0xbe557929	-0.20847
38	0xbe80d0f5	-0.25159422
39	0x3e02ae8a	0.12761894
40	0x3dbcc470	0.09217155
41	0x3e5edfe2	0.21765092
42	0xbea619c7	-0.32441542
43	0x3ded8298	0.115971744
44	0x3e5fd86e	0.21859905
45	0xbec0f673	-0.37688026
46	0x3d740050	0.05957061
47	0xbd5fc850	-0.054634392
48	0xbdcb369c	-0.09922525
49	0xbe33fc02	-0.17576602
50	0xba161c00	-0.0005726218
51	0x3dc9d070	0.098542094
52	0x3e6bf56a	0.23042837
53	0xbdf2d73c	-0.11857459
54	0xbcc8ec80	-0.024526834
55	0xbe9c24b6	-0.30496758
56	0x3d87460c	0.06605157
57	0xbe6a29f8	-0.22867572
58	0x3dda672c	0.1066421
59	0x3e780b7a	0.24223128
60	0xbe8c68e0	-0.27423763
61	0x3e32ef06	0.17473993
62	0x3eb47887	0.35248205
63	0x3dd1fdf0	0.10253513
64	0x3c529e20	0.012855083
65	0xbe0c86e8	-0.13723338
66	0xbdca6720	-0.09882951
67	0x3ce9f5f0	0.028559655
68	0x3ea8bcdf	0.32956597
69	0xbea4108f	-0.32043883
70	0xbd123b50	-0.035701096
71	0x3e55db76	0.20884499
72	0x3eb4fcb5	0.3534905
73	0x3e1d5e66	0.15368041
74	0xbe246e87	-0.16057788
75	0xbdfb7cf0	-0.12279689
76	0x3e35394a	0.17697635
77	0xbeb106f8	-0.3457563
78	0x3e14a23e	0.14515015
79	0x3e8b221f	0.2717447
80	0xbe927c50	-0.28610468
81	0xbe9cbb4c	-0.30611646
82	0xbea3757b	-0.31925568
83	0xbe99d376	-0.30044144
84	0x3ea3a19f	0.31959245
85	0xbe6e6395	-0.23280175
86	0x3e97cb1f	0.29647157
87	0xbe792636	-0.24330983
88	0xbe2f08fd	-0.17093273
89	0xbd573b70	-0.05254692
90	0xbe6e3bda	-0.23265019
91	0xbeb8fa77	-0.3612859
92	0xbe87add4	-0.26499808
93	0xbded13b8	-0.11576027
94	0xbd870374	-0.065924555
95	0x3e9ae031	0.3024917
96	0x3e5ffe52	0.21874359
97	0xbdf3c004	-0.119018584
98	0x3dfdb99c	0.12388918
99	0x3b496880	0.0030732453
100	0x3eb3d547	0.35123655
101	0xbde6e8b8	-0.11274856
102	0xbd552218	-0.052034467
103	0x3e9674ff	0.29386136
104	0x3cd424c0	0.02589643
105	0xbd80f444	-0.0629659
106	0x3c98ed70	0.018667907
107	0x3e9c55e1	0.3053427
108	0x3bb28540	0.0054480135
109	0x3ebaf5ab	0.36515555
110	0xbd1961b0	-0.037446678
111	0xbe2e8a5b	-0.17044966
112	0x3e2477fa	0.16061392
113	0xbeae48f4	-0.34040034
114	0x3d885384	0.06656554
115	0x3e95d937	0.29267284
116	0x3df26a8c	0.118367285
117	0xbc7c63e0	-0.015404671
118	0xbeac4100	-0.3364334
119	0xbe0fb3f1	-0.14033486
120	0xbe0b248a	-0.13588157
121	0xbbc3f680	-0.005980313
122	0xbe14ddfb	-0.14537804
123	0x3eb46059	0.35229757
124	0xbe9e0031	-0.3085952
125	0xbeb16819	-0.34649733
126	0xbe2ac255	-0.16675694
127	0xbd9c751c	-0.07639524
128	0xbd8043bc	-0.06262919
129	0xbead2e2b	-0.33824286
130	0x3d8abc9c	0.06774256
131	0x3e2733ee	0.16328403
132	0x3e231602	0.15926364
133	0x3e32958e	0.17439863
134	0x3e9f5605	0.31120315
135	0x3dd729c0	0.1050601
136	0xbea4250e	-0.3205952
137	0x3d5d57b8	0.054038733
138	0xbe01323e	-0.12616822
139	0xbe77eaa3	-0.242106
140	0xbd6f71f0	-0.05845827
141	0xbd8cc32c	-0.068731636
142	0x3e7fcee6	0.24981269
143	0x3e77a70e	0.2418482
144	0xbe01a1dc	-0.126594
145	0xbdc1e568	-0.09467584
146	0x3e2b5e36	0.16735157
147	0x3e64e80e	0.22354147
148	0x3dfeabf4	0.12435141
149	0x3d091488	0.033466846
150	0x3e5bc59e	0.21462104
151	0x3e737316	0.2377437
152	0xbe9e6b5d	-0.30941287
153	0xbe8eae63	-0.27867422
154	0x3ea30689	0.31840923
155	0x3ebdec6b	0.37094435
156	0xbe10fbdd	-0.14158578
157	0x3ea1ae1b	0.31578144
158	0xbe2e62d9	-0.17029895
159	0xbdef5b68	-0.11687356
160	0x3e90e209	0.2829745
161	0x3ebc4081	0.36767963
162	0x3e0f030a	0.13966003
163	0xbdffd234	-0.12491265
164	0x3e930fb1	0.2872291
165	0x3ebcbdf1	0.36863664
166	0x3e75256a	0.23940054
167	0xbd95e38c	-0.07318792
168	0xbe335516	-0.17512926
169	0xbd0eeab0	-0.034891784
170	0xbbb50dc0	-0.005525321
171	0xbea9252d	-0.33036175
172	0xbe8f7042	-0.28015333
173	0x3e0a9c6e	0.13536236
174	0xbc9cdfe0	-0.01914972
175	0xbe580a6b	-0.21097724
176	0xbcca3570	-0.024683684
177	0x3e3644b6	0.17799649
178	0x3dcbe14c	0.09955081
179	0xbe15e54b	-0.1463825
180	0xbe41a4c2	-0.18910506
181	0xbe062c3b	-0.1310281
182	0x3c3f6000	0.011680603
183	0x3eb9ab81	0.3626366
184	0xbeabfab6	-0.33589715
185	0x3e637eae	0.22216293
186	0xbdcaaec0	-0.09896612
187	0x3ea90bd7	0.33016846
188	0xbe71eda9	-0.23625816
189	0x3d4ef900	0.050530434
190	0x3e9df6e9	0.3085244
191	0xbe274a63	-0.1633697
192	0xbe20259b	-0.15639345
193	0x3eb32bcb	0.3499435
194	0x3e88aa21	0.26692298
195	0x3eac6265	0.3366882
196	0x3e5c3892	0.21505955
197	0xbe9cea3a	-0.3064745
198	0x3e76de5e	0.24108264
199	0xbeb9779a	-0.3622406
200	0xbcd3b530	-0.025843233
201	0x3e479b1a	0.1949276
202	0x3e2c993e	0.16855332
203	0xbe24192b	-0.16025226
204	0xbeae453e	-0.34037203
205	0x3df136b8	0.11778015
206	0xbde9c808	-0.11415106
207	0xbe901d59	-0.2814739
208	0x3e9bdc59	0.3044155
209	0xbd335710	-0.0437842
210	0xbe9342d5	-0.28761926
211	0x3e98e5c7	0.29862806
212	0x3e67a56a	0.22621694
213	0x3d8209ec	0.06349549
214	0xbe718806	-0.23587045
215	0x3ebaf58f	0.3651547
216	0x3e2b1dd2	0.16710594
217	0xbe8cd6c6	-0.2750761
218	0x3e6c6ff2	0.23089579
219	0xbea25dec	-0.31712282
220	0xbeb655ab	-0.35612234
221	0x3d28da78	0.041223973
222	0x3dd9b3a8	0.1062997
223	0xbc7c5a20	-0.015402347
224	0x3ce4a150	0.027908951
225	0xbe4ce6d4	-0.20009929
226	0xbe59ffbe	-0.21288964
227	0xbe4eb3a4	-0.20185715
228	0xbe51d003	-0.20489506
229	0x3d2d6798	0.042335123
230	0xbe419894	-0.1890586
231	0xbd6a3aa8	-0.057184845
232	0x3dd20ee0	0.102567434
233	0xbe20f362	-0.15717843
234	0x3e23a6ba	0.1598157
235	0xbea7b108	-0.32752252
236	0x3e9d490b	0.3071979
237	0x3e6f50c2	0.2337065
238	0x3c83ac60	0.016073406
239	0x3e8f2b47	0.27962705
240	0x3d450e88	0.04810956
241	0x3e4d8e6a	0.20073858
242	0x3eb17a3d	0.34663573
243	0x3e8ff0ab	0.28113303
244	0x3ce1a530	0.027544588
245	0xbe95e89c	-0.2927903
246	0xbe803d6c	-0.2504686
247	0x3e289186	0.16461763
248	0xbe69efae	-0.22845337
249	0x3e7aad36	0.24480137
250	0x3e4ca922	0.19986394
251	0xbe90a4df	-0.28250787
252	0xbe8f6bcb	-0.28011927
253	0x3e06b1b2	0.13153723
254	0xbe67a57b	-0.2262172
255	0x3ebdcf6d	0.37072316

middle_linear.0.weight f4 [256, 256]
0	0xbcebacc0	-0.028768897
1	0x3c2128b8	0.009836368
2	0xbd0cf4e8	-0.03441325
3	0x3bf39540	0.0074335635
4	0xbc7fe790	-0.015619174
5	0xbd0688c8	-0.03284529
6	0xbb114720	-0.0022167638
7	0x3c461f40	0.0120924115
8	0x3d6e63ea	0.058200754
9	0xbd6389a6	-0.055551194
10	0x3c2955c8	0.010335393
11	0xbceca970	-0.028889388
12	0xbd38da14	-0.04512985
13	0xbd3fbffe	-0.046813957
14	0xbcd54b5c	-0.02603691
15	0xbd2a1c2e	-0.04153078
16	0x3bc4d3f0	0.00600671
17	0x3d06bda6	0.032895707
18	0xbc5ac738	-0.0133531615
19	0x3cfafa18	0.030636832
20	0x3cc90b70	0.024541587
21	0x3b41ffc0	0.0029601902
22	0xbd4598bc	-0.048241362
23	0xbc5e4480	-0.013566136
24	0x3c8db634	0.017298795
25	0xbcafa5e4	-0.021441408
26	0xbd084eb6	-0.03327819
27	0xbd2912d8	-0.041277736
28	0x3bd0b1d0	0.006368853
29	0xbd29e88e	-0.041481547
30	0xbc2f84c8	-0.01071281
31	0x3d3794e0	0.044819713
32	0x3cf8582c	0.030315481
33	0xbd342db4	-0.0439889
34	0x3c9bd4d4	0.019022383
35	0x3d46e778	0.04856059
36	0xbd1e0234	-0.03857632
37	0x3ce33bd8	0.027738497
38	0x3ce1ee0c	0.02757933
39	0x3c991608	0.018687263
40	0xbd269d6a	-0.040677465
41	0xbc013900	-0.007887125
42	0xbd0114aa	-0.031513847
43	0x3d338674	0.043829396
44	0xbc2d8cd8	-0.010592662
45	0x3cce694c	0.025196694
46	0xbc90f884	-0.017696626
47	0xbbf5f9b0	-0.0075065717
48	0x3d03182c	0.032005474
49	0x3c7b0c00	0.015322685
50	0xbb89fc80	-0.0042110085
51	0x3c3b4d90	0.011432067
52	0xbc0b0fc8	-0.008487649
53	0x3c0a2150	0.008430794
54	0xbb49a120	-0.0030766204
55	0xbd5e012e	-0.054200344
56	0xbd41e9bc	-0.047342047
57	0xbb189d40	-0.0023287088
58	0xbd474294	-0.04864748
59	0xbd260150	-0.040528595
60	0x3ce29cf0	0.027662724
61	0x3cbb283c	0.022846334
62	0x3ce04a38	0.02737914
63	0x3a767280	0.0009401217
64	0xbd70d9ee	-0.058801584
65	0xbd19aef2	-0.037520356
66	0xbce5fabc	-0.028073661
67	0x3d7fd6ee	0.062460832
68	0xbc322df0	-0.01087521
69	0xbcfb0bfc	-0.030645363
70	0x3cd8e8c0	0.026478171
71	0xbd025c86	-0.03182652
72	0xbd2be02c	-0.041961834
73	0x3b53a460	0.003229402
74	0x3bac6900	0.0052615404
75	0x3c0e7030	0.00869374
76	0x3c722ce0	0.014781207
77	0xbc66e2a0	-0.014092118
78	0xbd11e732	-0.035620876
79	0x3be1a260	0.0068858117
80	0x3d079eb0	0.03311032
81	0x3cf64f7c	0.030067198
82	0xbd675020	-0.056472898
83	0xbc41cd00	-0.011828661
84	0xbd639022	-0.055557378
85	0x3d67909c	0.056534395
86	0x3d4a5306	0.049395584
87	0xbd512034	-0.051056102
88	0x3d06b58a	0.032887973
89	0x3c7c22d0	0.015389159
90	0xbd18e796	-0.037330233
91	0x3d53655a	0.05161033
92	0x3c7bf0b8	0.015377216
93	0xba939080	-0.0011258274
94	0xbcc45344	-0.023965485
95	0x3d01b832	0.031669803
96	0x3d748a5e	0.05970227
97	0x3d663580	0.056203365
98	0x3d5e9d52	0.05434925
99	0xbd00a5b4	-0.031408027
100	0xbca1b838	-0.019741163
101	0xbd38e42e	-0.045139484
102	0x3d18d1c6	0.03730943
103	0x3d633a00	0.055475235
104	0xbd773a4a	-0.060358323
105	0xbc790618	-0.015199207
106	0x3a904500	0.0011006892
107	0x3bce9a40	0.006305009
108	0x3ceff1b0	0.02929005
109	0xbd43f53e	-0.047841303
110	0xbd04e864	-0.032448187
111	0xbad76080	-0.0016431957
112	0xbd5ba4be	-0.053623907
113	0x3d3802a0	0.04492438
114	0xbd21888a	-0.039436854
115	0x3ce5c6d8	0.028048918
116	0x3d665244	0.0562308
117	0x3d2c8554	0.04211934
118	0xbd77365e	-0.060354583
119	0x3cb71d5c	0.022352867
120	0xbc3c1298	-0.0114790425
121	0xbad55700	-0.0016276538
122	0x3d691110	0.056901038
123	0xbcfbfdbc	-0.030760638
124	0x3c05dc28	0.008170165
125	0x3c41ec70	0.011836156
126	0xbd7a0660	-0.061041236
127	0xbd18e57e	-0.037328236
128	0xbd1120ac	-0.03543155
129	0xbcb7fb88	-0.022458807
130	0x3c050810	0.008119598
131	0xbc0f8e78	-0.008761995
132	0xbd4af714	-0.04955204
133	0x3d1e4422	0.038639195
134	0x3bbbb620	0.005728498
135	0xbcd8d6d4	-0.026469626
136	0x3c9f0958	0.019413635
137	0x3d2d886a	0.042366423
138	0x3d6053ee	0.05476754
139	0xbcc403dc	-0.023927622
140	0x3ca90d88	0.020636335
141	0x3d246c48	0.040142328
142	0xbc99d2e8	-0.018777326
143	0xbd7ab2b0	-0.061205566
144	0x3c60ec90	0.013728276
145	0x3d54d9dc	0.05196558
146	0xbd455ad4	-0.048182324
147	0xbd5ce854	-0.053932503
148	0x3d4bc89c	0.049751863
149	0x3ca19320	0.019723475
150	0xbd1def76	-0.038558446
151	0x3c1763a0	0.009240061
152	0x3d48be86	0.049009822
153	0xbc283810	-0.010267273
154	0x3a9fa900	0.0012181103
155	0xbd59438e	-0.05304294
156	0xbd24c7a8	-0.04022947
157	0xbce922f8	-0.028459057
158	0xbd07cc42	-0.03315378
159	0x3d432358	0.04764113
160	0xba980540	-0.0011598244
161	0x3bac2a10	0.0052540377
162	0x3c144b40	0.009051144
163	0xbd3f2190	-0.046662867
164	0xbd2e4b9a	-0.042552568
165	0x3cabc938	0.020969972
166	0xbcab3194	-0.020897664
167	0x3d56a1a6	0.052400254
168	0x3d3d8dd2	0.04627783
169	0x3d1e331e	0.038622968
170	0xbd1f0d92	-0.0388313
171	0x3c43a478	0.011941068
172	0x3d0d29a0	0.034463525
173	0xbd5f7cca	-0.054562367
174	0x3d1e8904	0.038704887
175	0xbd15e45a	-0.036594726
176	0x3b80fd60	0.0039364547
177	0xbc1c59e8	-0.00954292
178	0xbd52837a	-0.051394917
179	0xbd71ed18	-0.059064
180	0x3cc1d21c	0.023659758
181	0xbce9cb84	-0.028539427
182	0x3c755a20	0.014975101
183	0xbd31412e	-0.04327505
184	0x3d2b8e06	0.04188349
185	0xbd28c95c	-0.041207656
186	0xbd72435e	-0.059146278
187	0x3c7ae838	0.015314154
188	0x3baf86a0	0.0053566247
189	0xbd533176	-0.05156084
190	0xbc7e2778	-0.01551234
191	0x3cba96d0	0.022776991
192	0x3cd31360	0.025766075
193	0x3d20f548	0.03929642
194	0xbd0d3b30	-0.034480274
195	0xbd06637a	-0.032809712
196	0xbd104ac6	-0.03522756
197	0xbd278b54	-0.040904358
198	0x3ca17288	0.019707933
199	0xbd58352a	-0.052785076
200	0x3c4db970	0.012556419
201	0xbd1cda42	-0.038294084
202	0xbbd2a6f0	-0.006428592
203	0xbbc61be0	-0.0060458034
204	0x3d27231c	0.040804967
205	0x3d303aca	0.043024816
206	0x3d219684	0.039450184
207	0xbd7c09c6	-0.06153276
208	0xbcf34458	-0.029695675
209	0xbd27912a	-0.040909924
210	0x3d3cb456	0.04607042
211	0x3d3221dc	0.043489322
212	0xbcc8dba0	-0.024518788
213	0xbce0b598	-0.02743034
214	0xba2dbb00	-0.00066272914
215	0xbc25a070	-0.010109052
216	0x3d7643ee	0.060123377
217	0x3af85880	0.0018947273
218	0xbd6b869e	-0.057501428
219	0xbd0bbe92	-0.03411729
220	0x3a846140	0.0010099784
221	0x3d48f964	0.049065962
222	0x3d1dc1ba	0.03851483
223	0xbd1fb162	-0.038987525
224	0x3d386fa4	0.045028344
225	0xbcd67118	-0.026176974
226	0xbcea0204	-0.028565414
227	0x3d46e154	0.048554733
228	0xbcd151a8	-0.025551632
229	0xbc7cfd70	-0.015441284
230	0x3ae9f780	0.001785025
231	0x3c90bc80	0.017668009
232	0x3ca5061c	0.020144515
233	0x3d54c144	0.051942125
234	0xbc5393a0	-0.0129136145
235	0xbcdf87b0	-0.02728638
236	0x3c10d2d8	0.008839332
237	0x3d775384	0.06038238
238	0xbcacb634	-0.021082975
239	0x39f1c100	0.00046110898
240	0xbd406cbe	-0.046978705
241	0x3d603de8	0.05474654
242	0x3c5e5840	0.013570845
243	0xbc7cae00	-0.015422344
244	0x3ccd7904	0.025082119
245	0xbd0fd474	-0.03511472
246	0x3c4c26b0	0.012460396
247	0xbd7b0d0a	-0.061291732
248	0x3d1d7732	0.03844375
249	0xbd13f850	-0.03612548
250	0xbc897a14	-0.016781844
251	0x3b9bf4d0	0.0047594085
252	0xbd30bf20	-0.04315102
253	0xbca8c1a8	-0.020600155
254	0xbd29b81e	-0.041435353
255	0xbc3f3c20	-0.01167205

middle_linear.0.bias f4 [256]
0	0xbc97655c	-0.01848095
1	0xbd766508	-0.060154945
2	0x3d1d1690	0.038351595
3	0xbd4ec1f8	-0.05047795
4	0x3b9e3c90	0.004828997
5	0x3a956e00	0.001140058
6	0x3a604b80	0.0008556172
7	0x3c8f3368	0.017480567
8	0xbd13ee84	-0.036116138
9	0xbd003b1e	-0.03130638
10	0x3ba6e060	0.0050926656
11	0x3ce01ef4	0.02735851
12	0x3b8a6e60	0.0042245835
13	0xbce765ac	-0.028246723
14	0xbd6d307a	-0.05790756
15	0x3d39cf4e	0.045363717
16	0xbd3ae5ec	-0.045629427
17	0x38534800	5.0373375e-05
18	0x3d326ca4	0.04356064
19	0x3d23af9e	0.039962403
20	0x3cb4a224	0.02204997
21	0xbd341e96	-0.04397448
22	0xbb60f120	-0.003432341
23	0x3d7c4d3e	0.0615971
24	0xbc913f24	-0.017730303
25	0x3d104a66	0.035227202
26	0x3ae56300	0.0017500818
27	0x3d64f9b2	0.05590219
28	0xbc1b3b48	-0.009474583
29	0xbd7fbec8	-0.062437803
30	0x3d519b26	0.05117335
31	0xbd07788e	-0.033073954
32	0x3c09c0f8	0.008407824
33	0x3b59f1c0	0.0033255666
34	0xbb4db460	-0.003138803
35	0xbd32e15a	-0.043671943
36	0x3cf4db78	0.029889807
37	0x3c9bf338	0.019036874
38	0xbc915754	-0.017741837
39	0x3d27c18e	0.040956073
40	0x3d51ef68	0.051253706
41	0x3d4571a2	0.04820407
42	0x3d175c8e	0.0369535
43	0x3d1a85fe	0.03772544
44	0xbd3bb2f4	-0.04582496
45	0x3cbda85c	0.023151569
46	0x3d0dd7a0	0.034629464
47	0x3cdd5ab4	0.02702079
48	0x3cd3faec	0.025876485
49	0x3d058f02	0.032607086
50	0xbd303348	-0.043017656
51	0xbc6b9828	-0.014379539
52	0xbd290dde	-0.04127299
53	0xbd09709a	-0.03355465
54	0x3c6442a8	0.013931908
55	0xbc5a6520	-0.013329774
56	0x3c7372d8	0.014858924
57	0xbce8a65c	-0.028399639
58	0xbd5d36a0	-0.054007173
59	0xbd1d963c	-0.038473353
60	0x3cdcd644	0.026957639
61	0x3cd48b58	0.02594535
62	0x3d063d6a	0.032773413
63	0xbd1498dc	-0.03627859
64	0xbd7044ae	-0.058659248
65	0x3c1a4870	0.0094166845
66	0xbcb802b0	-0.022462219
67	0x3d26f81a	0.04076395
68	0x3ca820a4	0.020523377
69	0x3b4c6c00	0.0031192303
70	0x3d7e69f2	0.062112756
71	0xbd4bf962	-0.049798377
72	0x3ab132c0	0.0013519153
73	0xbc5aa970	-0.013346061
74	0x3bdc2470	0.006718211
75	0x3d4f9660	0.05068052
76	0xbd57dbfa	-0.05270002
77	0x3cdadfc8	0.026718035
78	0x3d2fd466	0.04292717
79	0xbd1e3bb0	-0.03863114
80	0xbbdd8fe0	-0.006761536
81	0x3d3e4ac0	0.046458006
82	0xbd6e6d52	-0.058209725
83	0x3bace4e0	0.0052763075
84	0xbcdf8938	-0.02728711
85	0xbd499e6a	-0.04922334
86	0x3c92bc04	0.017911918
87	0xbcd68c0c	-0.026189826
88	0xbcf3d114	-0.029762782
89	0xbd765c1a	-0.06014643
90	0x3d7072f4	0.058703378
91	0x3c4d2558	0.0125211105
92	0xbd0a962c	-0.03383462
93	0xbd0acbfc	-0.03388594
94	0xbcbba990	-0.022908002
95	0xbd21e844	-0.039528146
96	0x3d5008f6	0.050789796
97	0xbcf0a9dc	-0.02937787
98	0xbd0e6a3c	-0.03476928
99	0xbc1ad908	-0.009451158
100	0x3c64fdb0	0.013976499
101	0xbc6777c8	-0.014127679
102	0xbd747c82	-0.059689052
103	0xbd326fb8	-0.043563575
104	0x3c669ee0	0.014075965
105	0xbd65c2f0	-0.05609411
106	0xbcb9963c	-0.022654645
107	0x3cb09f9c	0.021560483
108	0xbcc75a0c	-0.02433493
109	0xbcf1f4e0	-0.02953571
110	0xbcbc9730	-0.02302131
111	0xbd68694c	-0.056741044
112	0xbd058478	-0.032597035
113	0xbd6836e0	-0.056692958
114	0x3d3b205c	0.045685157
115	0xbd1d13f6	-0.038349114
116	0xbc9f46c4	-0.019442923
117	0x3cc9f4ec	0.02465292
118	0xbd537cb0	-0.051632583
119	0x3d341892	0.043968745
120	0x3cc60298	0.024171159
121	0x3d510e36	0.051038943
122	0xbcaa3b40	-0.020780206
123	0x3bdc98a0	0.0067320615
124	0x3d65e3a6	0.056125306
125	0xbcea80f0	-0.028625935
126	0xbd251a18	-0.040308088
127	0x3d38eb54	0.0451463
128	0x3c9b18b0	0.01893267
129	0x3d0ec116	0.03485211
130	0x3d0c07dc	0.034187183
131	0x3c0d5638	0.008626513
132	0x3c994f04	0.018714435
133	0xbd37e872	-0.04489941
134	0xbcd19f44	-0.02558864
135	0xbbe184d0	-0.0068822876
136	0xbd3df84e	-0.04637938
137	0xbabd71c0	-0.0014453456
138	0xbd606c52	-0.054790802
139	0x3c707240	0.014675677
140	0x3bd208e0	0.0064097494
141	0x3cb3b118	0.02193503
142	0x3cdc4900	0.026890278
143	0xbcd43af0	-0.02590701
144	0x3d3a3a26	0.04546561
145	0xbd39901c	-0.04530345
146	0x3d0fe614	0.03513153
147	0x3d371c16	0.04470452
148	0xbc8e2b80	-0.017354727
149	0x3c582450	0.013192251
150	0x3c76cd68	0.015063621
151	0xbd5ac636	-0.053411685
152	0xbd3901e2	-0.04516781
153	0xbd443846	-0.04790523
154	0xbd529f1e	-0.051421277
155	0x3b508020	0.003181465
156	0x3cd300e8	0.025757268
157	0x3d5d70bc	0.05406259
158	0xbc619a08	-0.013769634
159	0xbc32da20	-0.010916263
160	0x3d603bb4	0.054744437
161	0xbd57de40	-0.05270219
162	0x3c09d4e0	0.00841257
163	0x3d3b2f1a	0.045699216
164	0x3d4b3fb6	0.049621306
165	0xbd17bc1e	-0.037044637
166	0xbcc9b874	-0.024624087
167	0xbc80da40	-0.01572907
168	0x3d336a4e	0.043802552
169	0x3d154eec	0.03645222
170	0x3d32694c	0.04355745
171	0xbc8b75b4	-0.017023899
172	0xbc67dad8	-0.0141512975
173	0xbd5bb87c	-0.053642735
174	0xbc961504	-0.018320568
175	0xbceb39b4	-0.028714038
176	0xbcb4d4e0	-0.022074163
177	0xbd10a796	-0.035316072
178	0xbd4024e2	-0.046910174
179	0xbd13a92e	-0.036050014
180	0xbd4f9fc0	-0.05068946
181	0x3b6dc8e0	0.003628306
182	0xbd279652	-0.04091484
183	0xbd427408	-0.047473937
184	0xbcdcfff8	-0.026977524
185	0xbd0f278a	-0.034949817
186	0xbbdcb1e0	-0.0067350715
187	0xbc9ed0b4	-0.019386627
188	0xbd5e7fc2	-0.054321058
189	0x3d76974e	0.06020289
190	0xbd2183f6	-0.03943249
191	0x3cc7efa8	0.02440627
192	0xbc2687e8	-0.0101642385
193	0xbc87cfcc	-0.016578577
194	0x39be9400	0.00036349893
195	0x3cff0de0	0.031134546
196	0x3d065732	0.032798
197	0x3d39577c	0.045249447
198	0x3d4ecf5c	0.050490722
199	0xbb999e30	-0.004688047
200	0xbbb72130	-0.005588673
201	0x3d6a44f4	0.057194665
202	0x3c04ba78	0.008101098
203	0x3b590ac0	0.003311798
204	0x3d5356c4	0.051596418
205	0x3cc517a8	0.024059132
206	0x3bac8d70	0.005265884
207	0x3d6a19f4	0.057153657
208	0xbd658f06	-0.0560446
209	0xbcd527dc	-0.026019983
210	0x3d30face	0.043207936
211	0xbd2bd2ba	-0.04194901
212	0xbc8c6554	-0.01713816
213	0x3d66790a	0.056267776
214	0x3c6bcdf0	0.014392361
215	0xbd6f436e	-0.058413915
216	0x3ca23644	0.019801266
217	0x3d431860	0.047630668
218	0xbd08cf54	-0.03340085
219	0x3c90fc74	0.017698504
220	0x3d5df450	0.054188073
221	0xbd7014b2	-0.058613487
222	0x3d425c7e	0.04745149
223	0x3c115610	0.008870617
224	0xbcd3da54	-0.025860943
225	0x3d08635c	0.03329788
226	0xbd2c7f5c	-0.042113647
227	0xbd186e78	-0.037214726
228	0xbd24ab8c	-0.040202662
229	0x3d526ab0	0.051371276
230	0xbd27ed4a	-0.04099778
231	0x3d0d131a	0.034442045
232	0x3cf061b0	0.029343456
233	0xbd3f7ebe	-0.04675173
234	0xbc8afa64	-0.016965099
235	0x3d0a7cba	0.033810355
236	0xbc08c020	-0.008346587
237	0x3d622d1c	0.0552188
238	0xbd69efbc	-0.057113394
239	0x3d409288	0.047014743
240	0xbbd07a30	-0.006362222
241	0x3d0fe2ac	0.03512828
242	0x3cd67dbc	0.026183002
243	0x3d35c290	0.044375002
244	0x3b86b0b0	0.0041104183
245	0x3d38df08	0.045134574
246	0xbc7b95f8	-0.01535558
247	0xbcafd234	-0.021462537
248	0x3d70fb1e	0.058833234
249	0xbd28fcfe	-0.041256897
250	0x3ae87c40	0.0017737225
251	0x3cdda2a4	0.027055092
252	0x3d72f45c	0.05931507
253	0x3d18f0ee	0.037339143
254	0xbd43b538	-0.047780246
255	0xbd730b0a	-0.0593367

output_linear.weight f4 [3, 256]
0	0x3acd2144	0.0015650173
1	0x39b79438	0.00035014912
2	0x3ae80358	0.0017701192
3	0xbb023ed6	-0.001987388
4	0xbb220707	-0.0024723427
5	0x3b3f3c84	0.0029180357
6	0x3b0a536e	0.0021106857
7	0xbb0e7666	-0.0021738051
8	0xbaf9c2f1	-0.001905529
9	0x3a41de64	0.00073955045
10	0xba42bcc8	-0.00074286433
11	0xbafab944	-0.00191287
12	0xb9c3c5e8	-0.0003734075
13	0xbb1345f4	-0.0022472115
14	0x3b3f7738	0.0029215347
15	0xbac9f3e0	-0.0015407763
16	0x39ebc3b0	0.0004496849
17	0x3ad5b8f8	0.0016305735
18	0xba7179bc	-0.000921156
19	0x3abdbb24	0.0014475328
20	0x3b2e1356	0.0026561818
21	0x3b40ced4	0.0029420154
22	0xb9e8c3d0	-0.0004439638
23	0x3ac152a4	0.001474936
24	0x3a87b4f0	0.0010353606
25	0xbad54a88	-0.0016272822
26	0xbaf535d9	-0.0018708064
27	0xba743b88	-0.0009316732
28	0xba9a80bb	-0.0011787632
29	0xba972dca	-0.0011534032
30	0x3aeaec08	0.0017923126
31	0xbaa63d20	-0.0012683012
32	0xba0d2da4	-0.0005385524
33	0x3aa74fac	0.0012764833
34	0xbb1bd268	-0.0023776535
35	0xbab7fc34	-0.0014036954
36	0x3952f8d0	0.0002011985
37	0xbb0cf3da	-0.0021507652
38	0x3a300264	0.00067142234
39	0xba6851ec	-0.0008862305
40	0xba93cdbe	-0.0011276526
41	0xba87b716	-0.0010354246
42	0xb96489e0	-0.00021795137
43	0x3b2cb732	0.002635431
44	0xb7dc6b80	-2.6276102e-05
45	0xba9514d3	-0.0011374004
46	0xbb2ef602	-0.0026696925
47	0xbad6e8d8	-0.0016396297
48	0x393025e0	0.00016798778
49	0x3a8e5070	0.0010857712
50	0xbb054001	-0.0020332339
51	0xba3ad960	-0.00071277283
52	0x3a007e98	0.00049016764
53	0x39d34668	0.00040297513
54	0x3ac05fa4	0.0014676941
55	0x3afd7020	0.0019335784
56	0x35612000	8.38656e-07
57	0x3ad8a004	0.001652718
58	0xbb1d0b08	-0.0023962874
59	0x3b09851a	0.0020983876
60	0xba493bb0	-0.00076764356
61	0x3b13fa8a	0.0022579753
62	0x3ab887f0	0.0014078598
63	0xb90a92d0	-0.00013215397
64	0x39e19f80	0.0004303418
65	0x3b0f4952	0.002186377
66	0x3b070ad2	0.0020605815
67	0xba844540	-0.0010091439
68	0xbb0b51a8	-0.0021258388
69	0x3b116772	0.0022186902
70	0xba9cfd2d	-0.0011977308
71	0xbaedb676	-0.0018136043
72	0x3a93abd8	0.0011266423
73	0xbb2ccc75	-0.0026366983
74	0x39d9bc00	0.00041529536
75	0x3b139f36	0.0022525317
76	0xbb32fc36	-0.0027310974
77	0x3af24d58	0.0018486185
78	0xb9a1dc78	-0.00030872575
79	0x3b40e316	0.0029432229
80	0x3b025c72	0.0019891527
81	0xba1a034c	-0.0005875125
82	0x3ae93d24	0.0017794711
83	0xbb429aba	-0.0029694275
84	0xbb281784	-0.0025648782
85	0x3a861b20	0.0010231473
86	0x3b17608a	0.0023098313
87	0x3b0b93c4	0.0021297792
88	0x3ae90688	0.0017778436
89	0xbb39c11d	-0.0028343864
90	0xb98ce470	-0.0002687308
91	0x3b02a394	0.0019933926
92	0xbb3fe7a1	-0.0029282349
93	0x3b06bffe	0.0020561214
94	0x3a6bdb2c	0.0008997198
95	0xbaccf53f	-0.0015637054
96	0x3aac7470	0.001315726
97	0xb97920c0	-0.00023758691
98	0xbb228bbc	-0.0024802526
99	0xb9520680	-0.00020029582
100	0xbaa833ed	-0.0012832858
101	0x3a8dc608	0.0010816464
102	0xb82009c0	-3.8156053e-05
103	0x3aeb7370	0.001796348
104	0x3af00c8c	0.0018314286
105	0x3b2c47ec	0.0026287986
106	0xba6761b4	-0.00088265096
107	0x3b40d75e	0.0029425244
108	0x3b0098a4	0.001962223
109	0x3af8cd90	0.0018982161
110	0x3addb998	0.0016916273
111	0xbae94362	-0.0017796571
112	0xbb157ae8	-0.0022808854
113	0xbaf832b7	-0.0018936013
114	0xbb13984c	-0.0022521196
115	0xbaa35140	-0.0012460127
116	0x3a1d0404	0.0005989673
117	0x3ac71904	0.001518995
118	0x3b32aad8	0.0027262475
119	0x3b1f8390	0.0024339892
120	0x3aa89ce4	0.001286414
121	0xbae76e1d	-0.0017656718
122	0xba99aae1	-0.00117239
123	0xbb09478e	-0.002094719
124	0x3a0c7d14	0.0005359214
125	0xb70e3300	-8.475734e-06
126	0x3ae96b5c	0.0017808485
127	0x3b413f98	0.0029487368
128	0xba1fbfec	-0.0006093967
129	0xbadd23f2	-0.0016871674
130	0xbb41f1cc	-0.0029593585
131	0x3a570424	0.0008202216
132	0xba4af484	-0.0007742124
133	0x3a9b1bd4	0.0011833855
134	0x3ab5ef98	0.0013880609
135	0x3abc84f8	0.001438289
136	0xba501f78	-0.00079392595
137	0xbb2104d4	-0.0024569528
138	0xbb03fe18	-0.0020140465
139	0xbb0b8d6e	-0.0021294015
140	0x39f06130	0.00045848778
141	0xbb1eea37	-0.002424849
142	0x3aa0fa34	0.0012281598
143	0x380b3640	3.3190707e-05
144	0xb9f61ac8	-0.0004694073
145	0x3ac0aad0	0.0014699344
146	0x3abfed5c	0.0014642882
147	0xbb377382	-0.0027992432
148	0xbae27227	-0.0017276452
149	0xbb13c268	-0.0022546295
150	0xbb09e24b	-0.0021039422
151	0x3a43c1a0	0.0007467512
152	0x3acfc81c	0.0015852484
153	0x3b0aae34	0.0021160962
154	0xbadbe079	-0.0016775272
155	0x3a15fa0c	0.0005721159
156	0x3913a460	0.00014080247
157	0x3abe4edc	0.0014519352
158	0xbaf3e02c	-0.0018606237
159	0x39ac69c8	0.0003288521
160	0xba22e264	-0.00062135444
161	0xbaa2e2cd	-0.0012427211
162	0xb98fa028	-0.0002739441
163	0xb997f718	-0.00028985064
164	0xb9319f60	-0.00016939407
165	0x3a8d0c58	0.0010761125
166	0x3b33fdbc	0.002746447
167	0x3a4eb418	0.00078851124
168	0x39e52628	0.00043706712
169	0x3b3320a4	0.0027332688
170	0xbb37f379	-0.0028068705
171	0xba96621d	-0.0011473332
172	0x38a59fe0	7.897592e-05
173	0x3b3157f4	0.002706048
174	0xb9f29698	-0.00046270038
175	0x3b06c0c2	0.002056167
176	0x3a6aa730	0.00089513045
177	0xba19e318	-0.00058703264
178	0xbaf2db1d	-0.0018528436
179	0x3a288494	0.0006428447
180	0x3b213fac	0.0024604602
181	0xba440664	-0.0007477759
182	0xbad5e26b	-0.0016318088
183	0x39b88688	0.00035195448
184	0xba8309f0	-0.0009997468
185	0x3abac2ac	0.001424869
186	0xba689644	-0.0008872489
187	0xba6f1bc8	-0.0009121266
188	0x3a6b1c9c	0.00089688017
189	0xba293460	-0.0006454643
190	0x3a52783c	0.00080287806
191	0xba7937a8	-0.00095068896
192	0x3b3d3b38	0.0028874408
193	0x3a843584	0.001008675
194	0x392c5560	0.00016435003
195	0xb909a500	-0.00013126805
196	0x3b26dc04	0.002546073
197	0xb9c6bf08	-0.00037907832
198	0x398436c8	0.00025217817
199	0xbb0ddbe2	-0.0021645953
200	0xbb3bf508	-0.0028679986
201	0xbb23444e	-0.002491254
202	0x3accef98	0.0015635369
203	0xbb38aa3a	-0.0028177635
204	0xb9c7ed28	-0.00038132933
205	0xba8e7376	-0.001086815
206	0xbb2d2f08	-0.0026425738
207	0xbb1f62f1	-0.0024320448
208	0xbb0e3e3e	-0.002170458
209	0x3a4b3124	0.0007751158
210	0x3b195994	0.002339934
211	0x3aad8b04	0.0013240282
212	0x3b0dc8a0	0.0021634474
213	0xbb0af2d8	-0.0021201875
214	0xbaaf2b4e	-0.0013364346
215	0xb9cbc428	-0.00038865325
216	0x39c0a520	0.00036744121
217	0x3b2cabe0	0.0026347563
218	0x3b30a194	0.0026951777
219	0x39433060	0.0001861467
220	0xb9eb0ba8	-0.00044831377
221	0xb8430b80	-4.6502333e-05
222	0x3ac72b24	0.0015195352
223	0x3a28a800	0.00064337254
224	0x3a5a510c	0.0008328117
225	0xbade45a9	-0.0016958016
226	0x398d11b8	0.00026906817
227	0x3aa6fb04	0.0012739603
228	0x3a9d2118	0.0011988012
229	0x3b357fae	0.0027694511
230	0xbb162f85	-0.0022916507
231	0xbb2b6e6d	-0.0026158348
232	0xbab39f6a	-0.0013704125
233	0x3add223c	0.0016871165
234	0x37af6780	2.0909822e-05
235	0xbad371c5	-0.0016131928
236	0xba5f5d58	-0.0008520684
237	0xbb12159b	-0.002229071
238	0x38159a40	3.5668025e-05
239	0xba128a40	-0.0005590059
240	0x3b433360	0.002978526
241	0xbabf2420	-0.001458291
242	0x3b435b1a	0.002980894
243	0x3b2d7218	0.002646571
244	0x3b3cec8a	0.0028827512
245	0xbaf8c4bf	-0.0018979533
246	0xb8d8de20	-0.000103410566
247	0x3ab7dca0	0.0014027543
248	0xbb2626e8	-0.002535278
249	0xbab5aaff	-0.0013860165
250	0xbab05f39	-0.0013456113
251	0x3b1dd60e	0.0024083885
252	0x3a14b204	0.00056722783
253	0x3a9e07ec	0.0012056804
254	0x3b27de94	0.0025614845
255	0x3884eaa0	6.337953e-05

output_linear.bias f4 [3]
0	0x3c6d2ad0	0.014475539
1	0x3d29c97a	0.04145191
2	0x3cbe8c2c	0.023260199
