examples/player_template_py/models/critic_header1.pkl (torch, 277919 bytes, 5 tensors)

input_linear.weight f4 [256, 7]
00000000: 746c 0e3d d281 3abd c4a3 fe3c 2060 c6bb
00000010: ce18 78bd 1495 76bd 1061 ac3b 390d 75bd
00000020: 100d 6abd 9090 97be 77b4 dcbd 3752 f6bb
00000030: 3f90 9c3c b8be 003d a4f6 e43c 298e 25bc
00000040: b46e 243d bc02 64bc 5d3d 3abc 03ad 6f3c
00000050: 32f7 6ebd 5028 5b3c c472 e7bc a2bd 623d
00000060: 3e90 383d 0080 6736 9859 353d 60ba 5f3c
00000070: 895d 44bd d079 03be d4a4 a5be 2cbd afbd
00000080: 9e7d cf3d 1064 4e3d a648 8e3c 3016 7fbd
00000090: 8873 0c3d 64f6 adbc a0e1 07bd 6842 903c
000000a0: c002 293b d82d cbbc 1ea5 15be 2e35 9b3b
000000b0: 06a7 1f3f b9b2 e73e eb09 ca3c 0bb6 bebd
000000c0: 14b7 a33d 5c50 92bd 466c 563d 50df 3f3e
000000d0: 8ef1 febe 5936 66bd 4a97 17be 1d75 9dbd
000000e0: fca9 e5bc 808e 9dbb 10d6 323c a25d 26bd
000000f0: 14f9 163d 00de c43b d42f a3bc 1146 55bd
00000100: 6433 a53e c791 a03e c6e8 563f 1cc7 a2be
00000110: 1c4d 00bd 3cd6 5dbd bef0 dabd b9fe adbe
00000120: bc96 90bf 5aa2 5abf 034f b63e 3001 49be
00000130: f3c8 6a3d 3462 66be ed28 0abe bea5 7c3f
00000140: 6adb ce3f eb5b 203e 618d f4bd fa86 7e3c
00000150: 0af5 5dbd 8045 253c e010 7d3b 9c02 043d
00000160: 3c85 ffbc dcfd 773d a4bc 4abd 4c00 28ba
00000170: 8564 48bc fee9 3ebe 80e9 fa3d dff7 b73d
00000180: 90b9 13bc 947e e93b b5e7 2b3d 491b 9bbd
00000190: b5fc 89bd 49d2 3c3e 9450 80bc d37a 953d
000001a0: bf15 0a3e 6cfb b43c 0022 0fb9 98c4 063c
000001b0: 80bf f8bb 8ca3 f8bc 00ee 7fbc 4e71 2c3d
000001c0: 9844 cebc 4c46 a43c 907f 733c e8f5 25bd
000001d0: 00dd 8839 50bd 45bd 1208 54bd ce0f 373d
000001e0: 2ea5 1c3d 5875 17bd b2d1 d33c 35e8 273d
000001f0: b0d6 58bd c943 ed3c df42 7b3d 0717 ac3e
00000200: 21bb 303f 59a7 f2bd 95ce c0be 882f 813d
00000210: a58b ae3d 98f2 d7bc d456 90bc 9ec0 473d
00000220: 40e3 9fbb 361d 263d 480b 213c 28c2 0fbd
00000230: a660 2d3d 0210 06bd c843 5ebd a01e 72bc
00000240: 0807 c2bc 38f4 27bd f8e0 5b3d 0a4b 3e3d
00000250: 2000 cc3b e480 b53c aebe 25bd 70e1 8dbc
00000260: 32e0 523d 4cdd 53bd dd79 c93d 6435 f2bd
00000270: 47bc b3bf 9709 dcbf 44dc 733e 34ee 6abd
00000280: 5c7d 0a3e c465 3dbd 6f6e 9fbe 151d f7be
00000290: cd36 4cbf c3a4 743e c753 13be fecc 023e
000002a0: 562e d83d e6b2 743e b9a2 243f cf5f b9bf
000002b0: 5409 8ebe d741 5c3d b48a 5ebe d491 d7bc
000002c0: cc3b 6c3d 5a02 34bd 5aac 77bd b07b a73c
000002d0: f47e 7cbd 7c16 e43c af80 1a3d 2f42 3a3d
000002e0: 533f 08bd fce8 74bd d9be 2e3d 09ce f83a
000002f0: 0c5c 39bd 561a ac3c 2fe6 12bd f062 6bbe
00000300: 741a fc3d 1c51 973c 11b4 533d 67e5 9fba
00000310: 01fe 60bd f09e 1d3d f724 12be 25f0 cd3d
00000320: 8779 853c fe5f 4f3d 754e 053e 500d da3c
00000330: ac66 01bd f074 34bc cc44 f2bc 84db 213d
00000340: f433 48bd a866 05bc 10c2 47bc c0ed 2a3d
00000350: ec03 c1bc e840 e73c 4087 d2bc 008e bbb9
00000360: c074 a43c 3d87 0fbe 9a22 033c 76c5 113f
00000370: 5368 e93d a48e 793c d273 8bbd 685f 653c
00000380: 9cbb e23c 56a1 4a3d 7085 ca3c 1004 9dbc
00000390: 5470 17bd 68a1 04bc d876 26bc 77d2 193d
000003a0: de66 a0bd 46c6 f8bd a754 313e b014 493d
000003b0: 9673 643d afa2 6f3c 3e3e 353d 4a0b 54bd
000003c0: fa83 44bd c08a 6abb 766d 3ebd f295 3e3d
000003d0: 9266 743d 704c b43c 7cb4 2a3d 14ed 67bd
000003e0: ae5f 163d 4057 703b 1244 573d a2ef 5bbd
000003f0: 5a48 223d 2e51 6a3d d0b3 c2bb 88c9 143c
0.034771398 -0.045533963 0.031083949 -0.0060539395 -0.06057053 -0.060200766 0.005260594 -0.059827063
-0.057141364 -0.2960248 -0.107766084 -0.007517125 0.01911175 0.031431884 0.027949639 -0.010104694
0.040144637 -0.013916668 -0.011367169 0.014628652 -0.058341213 0.0133763105 -0.028252967 0.05535663
0.045059435 3.4496188e-06 0.044274896 0.013655275 -0.047940765 -0.12839437 -0.32352316 -0.085810035
0.101313815 0.050388396 0.017368626 -0.06227702 0.034289867 -0.021235652 -0.033174157 0.01760979
0.0025788993 -0.024802133 -0.14613768 0.004736564 0.6236423 0.45253542 0.024662932 -0.09312066
0.07993904 -0.071442336 0.05234935 0.1873753 -0.49793667 -0.056204174 -0.14803806 -0.07688353
-0.028035156 -0.004808247 0.010915294 -0.04061664 0.036858633 0.00600791 -0.019920267 -0.052068774
0.3226577 0.3136122 0.83948934 -0.31792533 -0.031323537 -0.054159388 -0.10690449 -0.339834
-1.1296 -0.8540398 0.35607156 -0.19629359 0.057320546 -0.22498399 -0.13492174 0.986904
1.616071 0.15660064 -0.119410284 0.015535111 -0.054188766 0.010087371 0.0038614795 0.03222905
-0.03119146 0.060544834 -0.049496308 -0.00064087356 -0.012230997 -0.18643948 0.12251568 0.089828245
-0.0090164095 0.007125685 0.04196902 -0.075735636 -0.06737653 0.18439592 -0.015663423 0.072988175
0.13484858 0.022092544 -0.00013650209 0.008225583 -0.007591188 -0.030351423 -0.015620708 0.042100243
-0.025179192 0.020053051 0.014861956 -0.040517718 0.000261046 -0.048276246 -0.05176551 0.044692807
0.038243465 -0.036977142 0.025856826 0.040992934 -0.052939117 0.028962987 0.06134307 0.33611318
0.69035536 -0.11848325 -0.3765761 0.06307894 0.08522729 -0.026360795 -0.017619528 0.04876768
-0.0048793852 0.0405552 0.00982935 -0.03509727 0.0423285 -0.03273011 -0.05426386 -0.014777809
-0.023684993 -0.04100439 0.053681344 0.04645828 0.006225601 0.022156186 -0.04046505 -0.017319411
0.05148334 -0.051724717 0.09837697 -0.1182659 -1.4041833 -1.7190427 0.23814493 -0.057356074
0.13524383 -0.04623963 -0.31138942 -0.48264375 -0.7977112 0.23890977 -0.14387427 0.12773511
0.10555713 0.2389637 0.64310795 -1.4482363 -0.27741492 0.053773727 -0.21732599 -0.026314653
0.057674214 -0.043947555 -0.0604671 0.020444721 -0.06164451 0.027842753 0.03772038 0.045473274
-0.033263516 -0.059792504 0.042662475 0.0018982302 -0.0452538 0.021008652 -0.03586405 -0.2298696
0.12309733 0.018471293 0.051685397 -0.0012199105 -0.054929737 0.038481653 -0.14271913 0.100555696
0.0162933 0.050628655 0.1301821 0.026617676 -0.031592056 -0.011014208 -0.02957382 0.039515987
-0.04887767 -0.008142151 -0.012192264 0.041730642 -0.02356144 0.028229192 -0.025699258 -0.00035773218
0.020075202 -0.14016433 0.008003855 0.56941926 0.113968514 0.015231762 -0.068092 0.013999797
0.02767735 0.04947027 0.024721831 -0.019166976 -0.03697236 -0.008095123 -0.0101601705 0.03755423
-0.0783212 -0.12147193 0.17317449 0.049091995 0.055774294 0.014626189 0.044248812 -0.05176858
-0.047977425 -0.0035788268 -0.04649111 0.046529718 0.05966813 0.022009104 0.04167603 -0.05662258
0.03671234 0.0036673099 0.05255515 -0.05369533 0.03961978 0.057206325 -0.0059418455 0.009081252

input_linear.bias f4 [256]
00000000: 7dd7 67be d3aa 393d 5142 6dbd 80e5 b4be
00000010: 22e6 4c3e df2b b7be a98e 483e b3b8 693d
00000020: fcfd 91be d7ff 9b3d c209 a7bd 51a7 013e
00000030: d81c 4bbd eb42 c13e bebb d33e 5c3e 00be
00000040: fc2e 39be 7291 a5bd ca86 593e 84d4 bcbd
00000050: 5ed1 01be db54 8bbe aaf3 843d 9ace 9abd
00000060: 224f 463e d5f6 14be 9197 50bd 02d0 7f3e
00000070: 08f0 d43e 39ad 25be 30c4 bcbe 9097 913d
00000080: 747a b7bd 9263 aa3e 3e28 4abe e49f a3bd
00000090: 03e9 25be 32a1 01be bbf5 c13d 8943 fe3d
000000a0: 8403 06be 38c1 28be 40a2 1f3e 1993 a13d
000000b0: 357c 6c3e b265 d63c 03b3 cd3e d118 bc3c
000000c0: ef49 3b3e 512b bf3d 729c 8fbe e0de 12bd
000000d0: 676e a3bd 572e 523e baec 0a3e 5a52 83be
000000e0: e6dc d13e 8367 a3be 2021 b1bd 1574 b5be
000000f0: 74eb a93e c88a 673e 6133 60be 4dd0 32be
00000100: d94f b8bd f71c 5b3e ed22 a23e 1907 4ebe
00000110: faeb 763e e2e5 913e ddd3 66be 8f49 9c3e
00000120: 7253 423e 368d 85be f7a4 833e ce78 1abe
00000130: 7f3c 97be ca97 9abe 4f0c babd ca5a 1e3c
00000140: 1b4a 333e 4eea 9c3d 95ad f63c 0318 23be
00000150: da62 69be 30c7 adbe dba6 133e 9c29 85bd
00000160: dc25 893e 132b 8e3e 6e07 56be 2abf 1f3e
00000170: 8db7 4fbe 1486 09be 7cd3 183e 08bd 63bd
00000180: 1d4d 2bbe 6d0f 243e 8ae3 bbbe e5ba 483d
00000190: cdcf 97be 5459 edbd fe35 a63d 5f51 c73e
000001a0: 4e7b e2bc 1966 b8be 339f bf3e 3d66 a63e
000001b0: 4794 1fbe 30ef b5bd 9ce8 2d3e 8c0e f2bd
000001c0: 209d e83c 14e4 6cbe 649a a0bd 40ad 02bd
000001d0: 5de4 513d 5b73 f53d d97d 3fbe fc26 4e3e
000001e0: 9dfb 133d a096 703e bb10 8f3e 6d19 92be
000001f0: 8eac eb3d e29b 0e3e 8d7b f53d e9af 9e3b
00000200: 77ea c23e 9dbb 803d a523 a6be 78b8 0b3e
00000210: 1faa 83be 99b7 91be 3ca7 1ebe b8a6 d03e
00000220: e96c 7f3e cce1 ffbd bde9 cd3e 9fe5 8dbd
00000230: cb2a f8bc 83da 64be aa70 dd3d 7637 24bc
00000240: c4b5 1e3e e70c 383e 6952 783e 045b ea3c
00000250: 04ba 8a3e 3c05 bd3e db7d a2be d34e 83bd
00000260: 38e6 183e 9982 aebe d8f6 b2bd 426b a8be
00000270: bd13 9d3e 9a7d 3e3d 01f5 b6be 45b9 86bc
00000280: 6a02 2f3e 1357 753e 6167 a53c 0ea6 d03d
00000290: b90f 54be 9807 3a3e 66a7 173d e8e5 2dbe
000002a0: c2ca 91be ccfa babe 3a29 793e d85c 113e
000002b0: f889 4dbe 9043 81bd 85d9 c73e 0873 82be
000002c0: 5fd0 f43d 8a44 ae3d 7486 97bc 0ed4 9ebe
000002d0: 4a33 ad3e f262 8abe 3b1e 403e 818f 683e
000002e0: 0671 59be 1d78 b13e 68fe eabd 7804 a63e
000002f0: 5231 83be 599e 5f3e 1d29 a63e ee09 08be
00000300: f43b 34be 8254 283e f67a 843e 408c 5ebe
00000310: cb5e 4d3e 126d c83d d036 d9bc 67a6 17bd
00000320: 727c 383e 842a c1bd af2b 743e 6599 5cbe
00000330: 2c70 2e3e 5f88 a5be e1a8 713d 49fa 59be
00000340: e91e b63d c3e5 073e bd86 aabd 2e8f df3d
00000350: 1677 a0be 4b77 7a3e fc7a 7dbe 2812 ecbd
00000360: e1f2 8ebe 2070 373d 62fb bc3e 6c38 debd
00000370: 1c5f bbbd 6e1e 9cbe 906d b1be 5142 c0bb
00000380: f018 cfbc 31a9 223d 4630 69be d444 a53e
00000390: 0a63 36be 2ced a43d 2011 00be 8095 a4be
000003a0: 74ba c0be 57da 663b f0e0 b83e 769c 0ebe
000003b0: dcb4 90be 06ce 193d 3edb 903e cd06 31be
000003c0: 5943 323c 10fb 2c3d 7ace 743e 9c70 c53d
000003d0: 274b 853e 5c22 c4bd c2bb ee3c 60b9 8f3e
000003e0: ef3b 683e dcd8 0b3d 042a 93be fd22 9f3d
000003f0: 0d74 2b3d a5c7 23be f856 8fbd 7d71 a5be
-0.22640796 0.045328926 -0.057924572 -0.35331345 0.20009664 -0.35775658 0.1958567 0.05706091
-0.28514087 0.07617157 -0.08156158 0.12661482 -0.049588054 0.37746367 0.41354173 -0.12523788
-0.1808433 -0.08084382 0.21242824 -0.09220222 -0.12677523 -0.27213177 0.06491788 -0.07558937
0.19366124 -0.14547284 -0.050925795 0.24981692 0.4158938 -0.1617936 -0.3686843 0.071089864
-0.08958903 0.3327909 -0.19741914 -0.07989481 -0.16202168 -0.12659147 0.094706975 0.12415225
-0.13087279 -0.16479957 0.15589237 0.07889385 0.23094256 0.026171539 0.40175638 0.022961052
0.18289922 0.09334434 -0.28049046 -0.03585708 -0.07980042 0.2052549 0.13566867 -0.25648767
0.40988845 -0.3191491 -0.08648896 -0.35440126 0.3318745 0.22611535 -0.218946 -0.17462273
-0.08999605 0.21397768 0.3166727 -0.20119895 0.24113455 0.284957 -0.22541757 0.3052487
0.18977144 -0.26084298 0.25711796 -0.15085146 -0.29538342 -0.3019393 -0.09084379 0.0096652005
0.17508738 0.076618776 0.030112067 -0.15927128 -0.22791615 -0.3394103 0.14419119 -0.06502077
0.26786697 0.27767238 -0.20901272 0.15600267 -0.20284863 -0.13430053 0.14924425 -0.055600196
-0.16728635 0.1602151 -0.36697036 0.04900636 -0.29650727 -0.115893036 0.08115767 0.3892927
-0.027646687 -0.36015394 0.37426147 0.32499877 -0.15583907 -0.08883512 0.16983265 -0.11819181
0.028395236 -0.2313388 -0.07841948 -0.031903505 0.051243175 0.11984893 -0.18700351 0.20132059
0.03612863 0.23494959 0.27942452 -0.28535023 0.115075216 0.13926652 0.11986456 0.0048427475
0.38069507 0.062857844 -0.3244907 0.13644588 -0.2571573 -0.28460386 -0.15493482 0.40752196
0.2494389 -0.12494239 0.4021739 -0.069285624 -0.030293843 -0.2234898 0.108125046 -0.010022989
0.15499026 0.17973672 0.24250187 0.028607853 0.27095044 0.36918056 -0.31736645 -0.06411519
0.14931571 -0.34084013 -0.08738488 -0.3289433 0.30679122 0.0465065 -0.35733798 -0.016445765
0.17090765 0.23958997 0.020190896 0.101879224 -0.20709123 0.1816696 0.037024878 -0.16982234
-0.28475004 -0.36519468 0.24332133 0.14195573 -0.20072162 -0.06311715 0.39033142 -0.25478387
0.11953806 0.085091665 -0.01849673 -0.3102116 0.33828193 -0.27028614 0.18761532 0.22710992
-0.21234521 0.34661952 -0.114743054 0.32425284 -0.25623566 0.21837749 0.32453242 -0.13285038
-0.17600995 0.16438487 0.25875062 -0.21733189 0.20055692 0.097864285 -0.026515394 -0.037023928
0.18016222 -0.09431937 0.23844789 -0.2154289 0.17034978 -0.32330605 0.058998946 -0.21286882
0.088926144 0.13271241 -0.083264805 0.10915981 -0.31340855 0.24459569 -0.24753946 -0.115269005
-0.27919677 0.044784665 0.3691054 -0.10850605 -0.09149 -0.30491966 -0.34653902 -0.0058672805
-0.025280446 0.039712135 -0.22772321 0.32279074 -0.17811218 0.080530494 -0.12506533 -0.3214531
-0.37642252 0.0035225356 0.36109114 -0.13926873 -0.28262985 0.037549995 0.2829227 -0.1728775
0.010880315 0.04223162 0.2390689 0.09640619 0.260339 -0.09576866 0.029142264 0.28071117
0.22679113 0.03414236 -0.28742993 0.07770345 0.04185872 -0.15994127 -0.0699901 -0.32313147

action_linear.weight f4 [256, 259]
00000000: 9e51 54bd 62b2 02bd 1452 a53b f855 293d
00000010: 6e2e 6a3d d0a1 f5bc e01b 583d 6413 18bd
00000020: 908e f33c 51c7 47bc e996 febd 7a98 75be
00000030: 80d2 533b b46e 4d3d 52c0 d83d 9c91 b53c
00000040: 04e8 b33c fcd1 183c f236 143e 46e4 6d3d
00000050: 8063 b03b 40fd 94bb 4408 383d 15aa 7e3d
00000060: e678 053f 0044 d639 e694 2a3d 2f79 b23d
00000070: eab7 153e 9c5c 813c 60a6 573c 3aa5 5e3d
00000080: 1ced 323d b77d 1b3e d081 98bb ac4b 31bd
00000090: 5086 f83b d003 78bc 6f77 3c3e d76f 0f3d
000000a0: 0f22 303d 228d 203d d2fb 1e3b 2947 8e3e
000000b0: e1e8 b23d 1223 8bbc 1d9f 503d ca66 6f3d
000000c0: 698f 493d e6e3 433d 0082 b9bc c846 2b3d
000000d0: 70ef febc 933a 853d 878f 023f d63b 39bd
000000e0: ec07 093e f0fa 2e3c 10bb 55bd 4036 b13b
000000f0: bbd7 cc3d c0ab d43d b023 b5bc 8d51 91be
00000100: c610 c739 465c 023e dd26 0e3d 6068 c83c
00000110: c048 d43d 52ea 803d 0646 31bd bb72 443e
00000120: 1eeb 153d e488 a6bc 82ee e73d d06b 61bd
00000130: 9438 063d 2804 e33c a20a eb3c e2da f43d
00000140: a3a6 f63d cb48 1abf 434b 813d 1053 bd3b
00000150: c82d f3bc b457 a5bc cbb5 8d3d 4347 653e
00000160: 8b10 d13d be45 febb 68a5 07bc b501 cb3e
00000170: c85f 583c 42a9 0fbd ae15 b03d caec 33bd
00000180: 40fc c6bc df35 d23d e86b 173d 640d a53d
00000190: 1a56 0e3d 6010 4f3b 34b8 ac3d 8223 dc3d
000001a0: 60d5 b0bc 6e02 663d 27df 0f3e 40a0 fd3d
000001b0: e477 d1bc bca7 083d 16eb bb3c 32bc 403d
000001c0: 64ac 10be f8fd 4a3c 78d5 78bc 68db ae3c
000001d0: 892c e33e 1c55 8c3d a802 1ebd 56b5 023e
000001e0: ead2 913d 8781 863d 3499 b93d cc06 75bd
000001f0: 97b3 ff3d 7ecc 8d3c 82f4 843d 0e80 e7bb
00000200: 06c6 a03d 9691 fc3c e069 15bb 9805 173d
00000210: 4075 cbba 204c 9b3c 406f 0bbd 3889 c03d
00000220: a0c7 e83d e8bf 293c 1442 023e aac6 0abf
00000230: 8cf5 8b3d 5692 43bd cf23 4a3c ac04 7e3d
00000240: b708 3b3e 635d c03d 989b d93d cab7 5abd
00000250: b521 cf3d 6c75 183e ec14 81bc 3c5c 293d
00000260: 6fa0 0e3d 50c1 0fbc 802c 00bb c463 983c
00000270: ee9b ed3d 0763 213c 00fe 62bd 61b1 093e
00000280: 13df a73c 089a e23d 1484 253e ca82 e43b
00000290: 58fb 233c 96b2 4a3e 7f8c 1c3d 1255 78bd
000002a0: 12d2 48bd 8c8d 2cbd 2a11 623c 76e6 d63d
000002b0: ec01 d4bc b44a 5b3d 236b de3d ccb9 99bc
000002c0: 4c88 5c3d 0ef9 773b 29fe 333e 88de 623d
000002d0: 4a10 f93d c2af 573d 6c48 3cbf 6539 1a3d
000002e0: 04a1 46bd f822 f23d acf5 c9bc dd86 c33d
000002f0: b22f 6a3d 0118 f33d 4f09 ef3d f494 cd3c
00000300: 009a 10b9 19be e03e 5a6b fd3d 3cc1 fb3c
00000310: 6b4d 363c 24b6 523d c079 e3bb a012 ab3d
00000320: 8907 823d c422 be3c f757 303d 34bd 4c3d
00000330: e59d 293e 08d4 88bc da4a 903d 7440 3ebd
00000340: 9be7 403d 8947 31bc 068a 493d abef 5b3e
00000350: 8290 24bd 855c df3d dc80 cfbc 98a8 21bc
00000360: 6ced 0e3d 1bd7 103e 93ed b93d 98ba 14bc
00000370: b850 8b3c 4426 9a3c 66e1 40bd b8de 313d
00000380: 2753 2dbd 017b 303f d6ba 45bd 3e81 6b3d
00000390: b616 11bd 3c42 27bd 3003 1abd 68c0 0f3c
000003a0: 160f 1ebd 17ce a5bc f990 813d 6049 5c3d
000003b0: 30e4 333d 2e33 18be 8f82 0e3e e0e0 46bb
000003c0: 9ea9 92bd 0667 7ebd 8b3d c13d 1710 e73c
000003d0: b4c2 703d 50bc 8ebc 7040 943d 68d5 963d
000003e0: d977 663e 5c12 773b 42ed 153d 90c2 213d
000003f0: 191a 013e 3257 3bbd 40c1 c83a 44b8 2e3d
-0.05183565 -0.0319084 0.005045185 0.04134175 0.057173185 -0.029984385 0.05276096 -0.037127867
0.029731065 -0.012193517 -0.124311276 -0.23983946 0.0032321513 0.050154403 0.10583557 0.022164159
0.02196122 0.009327408 0.14474085 0.058079027 0.005382955 -0.0045467913 0.044929758 0.06217392
0.521376 0.00040867925 0.041645907 0.0871452 0.14620939 0.01579123 0.0131622255 0.05435679
0.043683156 0.15184675 -0.0046541467 -0.043285057 0.0075843707 -0.015137628 0.18404935 0.03501877
0.04300123 0.039197095 0.0024258983 0.27788666 0.087358244 -0.016984496 0.050932992 0.058447637
0.049209032 0.047824763 -0.022644997 0.04181555 -0.031120032 0.06505313 0.51000255 -0.04522308
0.13381928 0.010679945 -0.05218035 0.0054080784 0.10002085 0.10384321 -0.022111744 -0.2838253
0.00037968735 0.12730512 0.03470503 0.024463832 0.103654385 0.06294693 -0.04327967 0.19184391
0.03660118 -0.020328946 0.11324789 -0.05503446 0.0327688 0.027711943 0.028691594 0.11955811
0.12043502 -0.60267323 0.06313183 0.005777724 -0.029684916 -0.020183422 0.0691944 0.22390465
0.102082334 -0.0077597788 -0.008279182 0.3964974 0.01320643 -0.035073526 0.08597885 -0.04392699
-0.024290204 0.10264181 0.03696814 0.08059195 0.03475008 0.0031595454 0.084335715 0.1074896
-0.02158612 0.05615466 0.1404997 0.12384081 -0.025569864 0.03336309 0.022939246 0.047054477
-0.14128262 0.012389652 -0.015187614 0.021344855 0.44369915 0.06852171 -0.038576752 0.12764487
0.07120307 0.06567674 0.09062424 -0.059820935 0.12485426 0.017309424 0.06491949 -0.007064826
0.0785027 0.03083114 -0.0022798702 0.03687057 -0.0015522614 0.018957198 -0.034041643 0.094011724
0.113662004 0.010360695 0.1272052 -0.5420939 0.06833944 -0.04774698 0.012337639 0.062016174
0.18265043 0.09392812 0.1062538 -0.05339793 0.10113851 0.14888543 -0.015757047 0.041347727
0.03482097 -0.008774117 -0.0019557774 0.01860226 0.11602007 0.00985027 -0.055418015 0.13446571
0.020492112 0.110645354 0.16163665 0.006973599 0.0100086555 0.19794688 0.038219925 -0.060628004
-0.049028464 -0.042127177 0.013798038 0.10493176 -0.025879823 0.05353804 0.108602785 -0.018765353
0.05384092 0.0037837657 0.17577423 0.055388004 0.1216131 0.05265785 -0.73548007 0.037652392
-0.0484934 0.11823076 -0.024653278 0.095472075 0.057174392 0.11869813 0.11671697 0.02509544
-0.0001379028 0.43895033 0.12373991 0.03073179 0.011126856 0.051443234 -0.006942004 0.08353162
0.063490935 0.023209937 0.04305264 0.049985126 0.16564138 -0.016702667 0.07045527 -0.046448186
0.047095876 -0.010820278 0.049203895 0.21478145 -0.040176876 0.109063186 -0.02533 -0.009866856
0.034894392 0.14144556 0.09078517 -0.009077691 0.017006263 0.018817075 -0.047089957 0.04342529
-0.04231563 0.6893769 -0.048273884 0.0574963 -0.03542205 -0.04083465 -0.037600696 0.008773901
-0.038588606 -0.020239873 0.063264795 0.053780913 0.04391879 -0.14863274 0.13916992 -0.0030346438
-0.07161258 -0.06210997 0.094355665 0.028205914 0.058779433 -0.017423779 0.07238853 0.07364923
0.22506656 0.0037700152 0.03660322 0.03949219 0.12607612 -0.045737453 0.0015316382 0.0426562

action_linear.bias f4 [256]
00000000: 504b bb3d 74b7 4e3e 449b 5fbd 4e62 34bd
00000010: a1bd e13a 382a 5abd 00f8 503e 83af 0f3e
00000020: 7106 513e 68ae 993c f5e1 2b3e c398 caba
00000030: 3c88 f03d 4015 1cbd 3d52 70bc eeda b0bc
00000040: 6953 2f3e ddba df3d 9bc9 0b3d 1cd9 503e
00000050: 1800 8cbd 0a19 1b3e f338 24be 97e4 463e
00000060: c543 abbc c077 a93d c29c 3a3e df4d c6bc
00000070: 3ae0 a43c 3750 1a3e be70 7ebd f773 ff3d
00000080: df85 54bc 441a ab3d d685 8ebd 72ae 443e
00000090: adde 3e3e c1c7 0c3e f27e 4f3e 47e8 243e
000000a0: 8b79 d53c 15b0 4c3e 9eab 133e d953 b4bd
000000b0: d2f2 e83d 93f8 55bd 0614 e5bc 5834 3b3e
000000c0: 2ee8 e1bb 393a 343e 9517 1339 3d92 8abd
000000d0: b2ed 373e cfb2 6dbd 85f1 d93d 1847 ee3d
000000e0: 76b2 ac3c 7632 0d3e 75d5 f33b 40e6 2f3e
000000f0: e53b b13c 7ee4 03bd e5ad 073e 803f a4bd
00000100: de87 91bc f24d 823d c5d9 963c ca83 c83d
00000110: 3af7 ae3d eb31 af3d 4696 85bd 1002 8cbd
00000120: 8370 8e3b 870b 9d3c f8e7 463e 4ea1 353e
00000130: 3521 123c e8f4 15bc 28d8 943d 8a59 4d3e
00000140: dbcc 4abd b07d c63d b801 083e 1650 423e
00000150: 1e32 133d cccd 223e 5d7e e03d 31a6 343e
00000160: 455e 28bd 19a0 283e a2b4 d83d 1f21 323e
00000170: 8ad0 ed3d 8aae fd3d e60a 15bd d265 8fbd
00000180: 4097 a83d e86d 013d a7c4 283e ea65 173e
00000190: 85a4 483e c334 0a3e d039 eb3d 3667 a93d
000001a0: 0cfe 053e 163f 523e 1dcc 0c3e ec69 e4ba
000001b0: d319 07bd 6818 f33d 53b9 ef3d 71d0 183e
000001c0: c58c 063e 13de 403e 8a10 493e 2060 6cbd
000001d0: 3b2b 4ebd 5a45 543e 2757 95bd d84e 093e
000001e0: 3488 423e 0439 233e ff4f 173e 75e0 a5bc
000001f0: 6bff bd3b 2d97 dd3d eb4b 893c 0506 1c3e
00000200: 7b5f c43d 4e40 283e 4b74 473e cd5c 3fba
00000210: a5cf 29bd 50d8 293e 89df 153d fce0 f4ba
00000220: 2b42 e33c aa45 06bd 189e 443e 5797 b73d
00000230: 3c03 193e 2451 1c3e 49cf 263e f243 2e3e
00000240: d6a7 9dbd eea7 94bd b521 8cbd 45f8 f3bd
00000250: 1b0a 403e 9f40 e23c 4ee2 c03d bdf3 9d3c
00000260: 1539 1f3e 9843 2b3e 23b1 1a3e adaa dcbc
00000270: eae0 563e 4a2f 463d 6459 9e3d 8633 12bd
00000280: 8f48 003e 8eff 8cbd 0991 563e 6c4a 093e
00000290: 9a26 b03d 4a9c 453b 205a 353e 18df a4bd
000002a0: 9335 38bd d455 443e a876 373e 357f 6cbc
000002b0: 2ce7 d33d f733 bcbb 97c6 193e 5322 113e
000002c0: 84a7 d03d b4c0 213e 9818 19bd f37e 3f3e
000002d0: f86f 89bd 055e 883c 19e7 d43d 1cf9 133e
000002e0: 9d57 2c3e 62a5 ee3d 7b70 89bd c8d2 8b3c
000002f0: 7a8e bc3c c1dc 103e 4ad3 a5bc 1993 a33d
00000300: 94e2 2a3b 5f57 413e b570 f93d e7ea 1f3e
00000310: dde5 3b3e 9cbe ff3d 265d 6d3d 2e8d debc
00000320: 2a1b 3bbd 0163 abbc a577 3d3e 02a7 fd39
00000330: b1d3 36bd d96f d73c 202c 413e 553f 86bd
00000340: 206d 88bc 0ca9 59bd 22dd f43d 86c7 473e
00000350: 1893 b63d 5e57 4e3e bbdd aabd bafd 1d3e
00000360: bb62 ab3d e5cf 14bd 91ca 063e 4459 173d
00000370: f8e7 e3bc 6150 313e 5b21 193d 9606 023d
00000380: 9bcc 5fbc 0995 d83d 188b fd3c 87be 543e
00000390: e207 543e c2e9 54bd d6d4 0e3e 259e 8ebd
000003a0: ec79 183e 1930 473e b092 df3d 9979 033e
000003b0: 7b51 3d3e 8036 103e e991 40bd 8b33 89bd
000003c0: 3300 e13c fcfc 2f3e 9506 0d3e 8c77 5dbc
000003d0: 54c0 433e 5010 f0bb e679 273e 43af 243e
000003e0: 0571 c03d e184 093c 5254 0d3d 04fa aa3d
000003f0: 7725 a1bd 49a9 61bd 12f2 21bd be50 a83c
0.09145224 0.2018717 -0.054591432 -0.044039063 0.0017222652 -0.05326292 0.20407104 0.14031796
0.20412613 0.018759921 0.16785415 -0.0015456903 0.11744735 -0.038106203 -0.014668045 -0.021588769
0.17121662 0.10924313 0.034127813 0.2039532 -0.068359554 0.1514627 -0.1603735 0.19423138
-0.020906338 0.082747936 0.18223861 -0.024207054 0.02012645 0.15069662 -0.062119238 0.124732904
-0.0129713705 0.08354619 -0.06959121 0.1920717 0.18639632 0.13748075 0.2026327 0.16104232
0.026058933 0.19989045 0.14420936 -0.08805055 0.11374439 -0.052239012 -0.02796365 0.18281686
-0.006894133 0.17600335 0.00014027797 -0.06766174 0.17961767 -0.058031853 0.10641769 0.11634654
0.02108119 0.1378878 0.0074412175 0.17177677 0.021635005 -0.03220033 0.13249929 -0.08019924
-0.017764982 0.06362523 0.018414387 0.09790762 0.085432485 0.08554443 -0.06522803 -0.06836331
0.0043469085 0.019170536 0.19424427 0.17737314 0.00891905 -0.0091526285 0.07267791 0.20053688
-0.04951177 0.09691942 0.13281906 0.18975863 0.035936467 0.15898818 0.10961602 0.17641522
-0.041105527 0.16467322 0.10581328 0.17395447 0.11612041 0.12386806 -0.036387347 -0.070018426
0.08231974 0.031598955 0.16481267 0.14784971 0.19594009 0.1349669 0.11485636 0.08271639
0.13085192 0.20531878 0.13749738 -0.0017426587 -0.032983612 0.118698895 0.1170527 0.14923264
0.13139637 0.18834715 0.19635215 -0.05770886 -0.050334197 0.2072958 -0.072920136 0.13408983
0.1899727 0.15939718 0.1477661 -0.020248631 0.0057982705 0.1081985 0.016759833 0.15236671
0.09588524 0.1643078 0.19477956 -0.00072999 -0.04145779 0.16586423 0.036590133 -0.0018682773
0.027741512 -0.03278128 0.19200933 0.08964413 0.1494264 0.15265328 0.1629001 0.17018107
-0.07698028 -0.072585925 -0.068423666 -0.11912588 0.18753855 0.027618704 0.09418164 0.019281263
0.15549119 0.16725004 0.15106635 -0.026936853 0.20984235 0.048384942 0.07731894 -0.035693668
0.12527679 -0.06884681 0.20953764 0.13407296 0.08601113 0.003015297 0.17710161 -0.08050364
-0.044972967 0.19173366 0.17916358 -0.014434625 0.10346827 -0.0057434994 0.15017162 0.1417325
0.10188201 0.15796167 -0.03737697 0.18700771 -0.067108095 0.016646395 0.10395641 0.14450496
0.16830297 0.11652638 -0.06710907 0.017068282 0.023017157 0.14146711 -0.020242352 0.07987041
0.0026074992 0.18880986 0.121797 0.15616952 0.18349405 0.12487528 0.05795016 -0.02716693
-0.045680203 -0.020921232 0.18502672 0.0004838035 -0.04463548 0.02629845 0.18864489 -0.065550484
-0.016653597 -0.05313973 0.1195624 0.19509706 0.08914775 0.20150515 -0.08343073 0.1542882
0.08368441 -0.036331076 0.1316321 0.036950365 -0.027820572 0.17315818 0.037385326 0.031744562
-0.013659622 0.10575301 0.030950114 0.20775805 0.20706132 -0.05198074 0.13948378 -0.069637574
0.1489026 0.19451942 0.1091665 0.12839355 0.18488114 0.1408329 -0.04701415 -0.06699284
0.027465915 0.1718635 0.13772042 -0.013517272 0.19116336 -0.0073261634 0.16355094 0.16082482
0.09396557 0.008393497 0.034504242 0.08348468 -0.07868474 -0.055093084 -0.039537497 0.020546313

output_linear.weight f4 [1, 256]
00000000: 9f10 d6bd 48dd ddbd 70ea ec3c b064 a73c
00000010: c747 83bb 7cbc adbb 75f5 e1bd c4a2 e3bd
00000020: 9817 debd fa9b cfbb 67c9 d5bd d3d9 743c
00000030: 9117 d6bd 9cde b9bb d936 02bd 9f69 8d3c
00000040: 012a e9bd ae8b cebd b7c9 cb3e c723 e7bd
00000050: 4f4a cabb 034b d5bd c6d8 083f c6eb fbbd
00000060: 9ae5 8bbb 30fe c5bd dff1 f3bd f428 6b3b
00000070: 8f85 33bb 2b00 d6bd 9f58 353c 060d 8fbd
00000080: 418a 25bc d03a d0bd c856 bebb 3ccd f8bd
00000090: b2b1 e9bd d93d d1bd e144 e8bd 5391 ccbd
000000a0: 0da4 c8bb 6b51 e8bd 7644 fabd 0ea9 e63c
000000b0: ed5b cebd 7799 943c 5179 c63c fd64 cebd
000000c0: d559 f1bc 4f34 cbbd a5f5 35bc 2015 f83c
000000d0: 309e d3bd 8fd2 273c 3761 c6bd db84 d2bd
000000e0: 23b9 a7bb 3a7e ddbd 59b6 733b 9288 b3bd
000000f0: 5f28 4d3c 257c 1a3b 8f38 ddbd 0285 53bb
00000100: c5e4 b6bf 068e 93bd da3e 08bc d4a7 e2bd
00000110: 18f1 28be 0fa7 d8bd 6a57 7fbb c609 d0bc
00000120: 5e0e fb3b 799c b13c dad9 d1bd ad82 e6bd
00000130: 539e 773b 445f cebb 52ff b7bd 9435 e4bd
00000140: fca5 bd3c 3a7b 91bd afa9 bebd b02d f1bd
00000150: b574 cebb fc26 debd e458 d1bd 2135 cdbd
00000160: 5a47 a03c bc7a c4bd 139c b7bd d185 32be
00000170: 0cb8 d5bd f2c0 bcbd 9cfc d73c e2cc 063d
00000180: 9c13 cbbd 14ef 69bd ad6f d7bd 5a0b e1bd
00000190: c009 d5bd 6967 b2bd d680 c1be 312c 26be
000001a0: aa46 cfbd f7a3 dabd ddea e2bd cda2 82bb
000001b0: 86ee b0bb ee50 d6bd c6a4 d5bd 4a02 bdbd
000001c0: ebde 9ebd c07b ddbd 10b7 e4bd 25ea 4ebb
000001d0: 2f56 3d3c 7c3e dcbd f276 833c 923e d3bd
000001e0: 9b6a 25be bb3c b0bd d823 c9bd 3059 cb3e
000001f0: cdaa 3fbc cafd d6bd 24bc 5f3f 2c67 d8bd
00000200: 0a95 e5bd a905 dbbd 0651 e5bd 0ccb d1ba
00000210: 3308 8bbc a70a d5bd f22f 2c3a 4313 0d3c
00000220: eaf4 933c aebe 9bbb 7cff d8bd d1f0 e1bd
00000230: 0014 eabd beeb dbbd f8ce e3bd 3b95 eabd
00000240: cf4c 433c 95df fb3c 7a42 5e3b f7b6 773c
00000250: 576f d9bd 16c1 363f c7a8 92bd 4050 e7bb
00000260: e399 e5bd 04d7 ddbd 3fca d8bd 88f8 85bb
00000270: a696 edbd 76e7 64bb 0d87 c5bd f880 d7b9
00000280: b4e0 e5bd 069d b53a 6509 f2bd a916 c0bd
00000290: 14a9 cfbd ca7d 1abc 2da2 d2bd 36f0 e9bc
000002a0: a256 26bd 5ac9 eabd 546a e9bd a38f 2e3b
000002b0: 81d9 ccbd bc8e abbb 1c33 dcbd f046 b9bd
000002c0: 39a1 d3bd 1266 cdbd ca01 10bb 7130 d8bd
000002d0: 0a60 bc3c 194c d7bb fa4a b4bd 65c7 e2bd
000002e0: 40df dbbd 4980 d5bd 12fa bc3c 07a4 eebb
000002f0: 4d3d 02bc 41aa b9bd 175a f3bc b23f bdbd
00000300: a947 e0bb e372 e2bd 2110 cfbd 71f1 91bd
00000310: d047 d1bd 9a67 c6bd 3a01 09be f41a fa3a
00000320: 7de0 d2be b644 aabb dfee d8bd 5184 eebb
00000330: 1b62 25b9 ec7b 6b3b ca8e c7bd c920 fbbc
00000340: 0d26 333a ab00 e03c 83e3 84bd 33d8 efbd
00000350: 3e50 aebd 9220 e8bd adc6 cf3c 8961 2cbe
00000360: 8ca1 cebd 6021 813c 2ae7 eabd 4a0e 4dbf
00000370: 9228 cabb 046f d4bd 07d8 aebf 6d3d e6b9
00000380: dd25 35bc f825 cfbd daba 31bf 90a5 b2be
00000390: 3659 e2bd 6c33 1d3c 01a8 c8bd 7d08 e03c
000003a0: 43e5 e0bd df0a c9bd d7dd bfbd 3bfe e4bd
000003b0: 12a3 c8be d915 e1bd be53 2f3b 03ca ec3c
000003c0: 4dc5 aabc 0ca0 b3bd 475d afbd 18db 6bbb
000003d0: 736c e2bd 12ac b63c 3054 f0bd 5b2e d1bd
000003e0: 98d9 d2bd 71ff 36bb a018 b4bb ee0e c3bd
000003f0: 04b2 83bc e8b6 01bd 01d0 63ba 7f34 bdbb
-0.10452389 -0.10833222 0.028920382 0.020433754 -0.0040063593 -0.00530201 -0.11033145 -0.111150295
-0.10844344 -0.0063357325 -0.10438805 0.0149445115 -0.10453714 -0.005672289 -0.031790588 0.017262278
-0.11384965 -0.100852355 0.39802334 -0.11286121 -0.006173409 -0.10414698 0.5345577 -0.123008296
-0.004269314 -0.09667623 -0.119113676 0.0035882564 -0.002739284 -0.10449251 0.011068492 -0.06984906
-0.010103763 -0.101674676 -0.005808685 -0.1214852 -0.11410846 -0.10216875 -0.113412626 -0.09988656
-0.006123072 -0.11343654 -0.12220089 0.028156783 -0.10076127 0.018139584 0.02422777 -0.10077856
-0.02946178 -0.099220864 -0.0111059295 0.03028351 -0.10332906 0.010243072 -0.09686511 -0.102792464
-0.0051185056 -0.108150914 0.0037187545 -0.08766283 0.012521832 0.002357253 -0.10801803 -0.0032275324
-1.4288565 -0.07204823 -0.008315766 -0.11067167 -0.1649822 -0.10578739 -0.0038962015 -0.025395285
0.007661625 0.021681057 -0.1024663 -0.11255393 0.0037783578 -0.0062979776 -0.08984245 -0.11143032
0.023150437 -0.07103582 -0.09309708 -0.11776292 -0.0063005337 -0.108472794 -0.10222033 -0.10019899
0.019565273 -0.09593722 -0.08965316 -0.1743386 -0.10435495 -0.09216489 0.02636557 0.032910235
-0.099158496 -0.05711277 -0.10519347 -0.10988493 -0.1040225 -0.0871113 -0.37793607 -0.16227795
-0.101209 -0.10675805 -0.11079953 -0.0039866925 -0.005399528 -0.10464655 -0.10431819 -0.09228952
-0.07757362 -0.10814619 -0.11167729 -0.0031572666 0.011556192 -0.107541054 0.016047928 -0.10314669
-0.16153948 -0.086053334 -0.0982129 0.39716482 -0.011698437 -0.10497625 0.87396455 -0.105665535
-0.112100676 -0.10694439 -0.111970946 -0.0016005947 -0.016971683 -0.104024224 0.00065684237 0.008610549
0.01806112 -0.0047529554 -0.10595605 -0.1103226 -0.11429596 -0.10738324 -0.111234605 -0.11454245
0.011920168 0.03074626 0.0033914135 0.015119306 -0.106169395 0.71388376 -0.07161098 -0.007059127
-0.11210992 -0.108320266 -0.105854504 -0.004088465 -0.116009995 -0.0034928 -0.096448995 -0.00041104085
-0.11224499 0.0013856001 -0.11818198 -0.09379322 -0.10139671 -0.0094294045 -0.10284839 -0.028556924
-0.040609963 -0.11464186 -0.113972336 0.0026635907 -0.10002423 -0.005235521 -0.10751936 -0.090467334
-0.10333485 -0.10029234 -0.0021973723 -0.105561145 0.022995014 -0.006570351 -0.08803363 -0.11073188
-0.10735941 -0.10424859 0.023068462 -0.007282737 -0.007949186 -0.090656765 -0.029706044 -0.092406645
-0.00684448 -0.11057069 -0.10110498 -0.071261294 -0.10218775 -0.09687729 -0.13379374 0.0019081519
-0.41186896 -0.0051961793 -0.10592436 -0.007278957 -0.00015772173 0.0035932017 -0.09744032 -0.030655282
0.0006833978 0.027344069 -0.06488707 -0.117111586 -0.08511399 -0.11334337 0.02536329 -0.16834082
-0.10089406 0.015762985 -0.11469872 -0.8009993 -0.006169387 -0.10372737 -1.3659676 -0.00043914784
-0.011056391 -0.10114664 -0.6942574 -0.3489194 -0.11052172 0.009594779 -0.09797669 0.027347798
-0.10981228 -0.098165266 -0.093684845 -0.11181303 -0.39186913 -0.10990495 0.0026752795 0.02890492
-0.020846033 -0.08770761 -0.08562713 -0.0035988744 -0.11055841 0.022298846 -0.117348075 -0.1021392
-0.10295409 -0.002792325 -0.0054960996 -0.09524332 -0.016076095 -0.031668574 -0.0008690358 -0.0057740803
