examples/player_template_py/models/critic_332k.pkl (torch, 277919 bytes, 5 tensors)

input_linear.weight f4 [256, 7]
0	0xbcdb6fe4	-0.026786752
1	0xbcefebd4	-0.029287256
2	0x3b923d10	0.0044628456
3	0xbb871520	-0.0041223913
4	0x3c031820	0.008001357
5	0x3d2df978	0.04247424
6	0x3a773800	0.0009430647
7	0x3deb80aa	0.1149915
8	0xbdbc9690	-0.09208405
9	0xbdb4e251	-0.08832229
10	0xbec442cd	-0.38332215
11	0x3dcc3a0e	0.099720106
12	0x3ddf6f89	0.109099455
13	0x3d80aeb8	0.06283325
14	0x3e0a12aa	0.13483682
15	0xbdfda0d4	-0.12384191
16	0xbd5c10e7	-0.053727057
17	0xbeec4e2b	-0.46153387
18	0x3e26b360	0.16279364
19	0x3e0be181	0.13660242
20	0x3d82b2be	0.063817486
21	0x3c2c21f3	0.010506141
22	0x40014d62	2.020348
23	0x3fc05b01	1.5027772
24	0x3d9038b7	0.070420675
25	0xbff696cd	-1.9264771
26	0x3daee96a	0.08540614
27	0xbee0bc70	-0.43893766
28	0x3dc900f0	0.09814632
29	0xbddddbe6	-0.10832958
30	0x3c3f41fb	0.011673446
31	0xbe8ca0d2	-0.27466446
32	0x3db96d94	0.090541035
33	0x3dbb285d	0.09138558
34	0xbdb30c61	-0.087425955
35	0xbd7b045e	-0.06128346
36	0xbf315f84	-0.6928637
37	0xbe7f9b1f	-0.24961518
38	0x40016912	2.022038
39	0x3f28ea96	0.6598295
40	0x3e00ae62	0.12566522
41	0xbf1453be	-0.5794028
42	0x3d618cf4	0.055066064
43	0xbde61b29	-0.11235649
44	0x3cd3cd9c	0.025854878
45	0xbe9666f4	-0.29375422
46	0x3dfaeb12	0.12251867
47	0x3d97a9d7	0.07405441
48	0x3d6b13ee	0.057392053
49	0xbe4a51f7	-0.1975783
50	0x3eb6d734	0.35711062
51	0x3f5a2643	0.8521463
52	0x3ecabd3b	0.39597496
53	0xbedeebf4	-0.43539393
54	0xbe122ce0	-0.14274931
55	0xbe99fd1e	-0.30075926
56	0x3d4f7010	0.05064398
57	0xbd795852	-0.060875244
58	0x3d5befee	0.05369561
59	0xbd06c7c6	-0.032905363
60	0xbd564b4a	-0.052317895
61	0xbd1edf0e	-0.03878694
62	0xbc9d1950	-0.019177109
63	0xbd793218	-0.06083879
64	0xbbeca190	-0.007221408
65	0xbc661298	-0.014042519
66	0xbc42dcd8	-0.011893474
67	0x3d4d0eee	0.050063066
68	0xbc8994a8	-0.016794518
69	0xbd524a04	-0.051340118
70	0x3cfd9d68	0.030958846
71	0x3d4994b2	0.049214073
72	0x3d2281f4	0.039674714
73	0x3d0d5226	0.03450217
74	0x3d3c8a86	0.046030544
75	0xbd66608e	-0.056244425
76	0xbc2c9ac8	-0.01053495
77	0xbe3e6e12	-0.18596676
78	0xbd8e6d83	-0.069544815
79	0x3e5394df	0.20662259
80	0x3c8098cf	0.015697865
81	0x3d169ed2	0.036772557
82	0x3d36ff9c	0.04467736
83	0xbdf389c1	-0.11891509
84	0x3bb78cb3	0.0056014895
85	0xbe3da3e4	-0.1851955
86	0x3d2865e5	0.0411128
87	0xbe6fc2dc	-0.23414177
88	0x3e5a90a6	0.21344241
89	0x3d9545b8	0.072886884
90	0x3d1d492a	0.038399853
91	0xbc3f6b10	-0.0116832405
92	0x3d73ffde	0.059570186
93	0x3d4e1fbe	0.05032324
94	0x3d6623cc	0.056186482
95	0x3cec3e30	0.028838247
96	0xbcd307dc	-0.025760584
97	0xbbd8e500	-0.006619096
98	0x3d44341e	0.047901265
99	0xbe1299ea	-0.14316526
100	0x3d84ca2b	0.06483873
101	0xbe23de21	-0.16002704
102	0x3e54cc1c	0.20780987
103	0x3c7dfe32	0.015502499
104	0xbc5b7ed3	-0.0133969365
105	0xbcf8a4bc	-0.030351989
106	0x3cfeed30	0.03111896
107	0x3c4fc8b8	0.012682132
108	0xbd2d33c4	-0.042285696
109	0x3d09a6e8	0.03360644
110	0xbcafff28	-0.021483973
111	0xbd6c5666	-0.057699583
112	0xbc02d600	-0.007985592
113	0xbd181f10	-0.037139
114	0xbd7a126c	-0.061052725
115	0x3c4fa2c0	0.01267308
116	0xbbfb88f0	-0.0076762363
117	0xbd550436	-0.05200597
118	0x3cedf350	0.029046685
119	0x3e2263a5	0.15858324
120	0xbe2b4cc5	-0.16728504
121	0xbcc45c10	-0.02396968
122	0xbec0a3a4	-0.37624848
123	0x3e34cd83	0.17656521
124	0x3d80664a	0.0626951
125	0x3dca02df	0.09863829
126	0x3c2ca500	0.010537386
127	0x3d2168ee	0.03940671
128	0xbcb7a948	-0.022419587
129	0x3d2de0bc	0.04245065
130	0xbbe876c0	-0.007094234
131	0x3987da00	0.0002591163
132	0xbd406ef6	-0.04698082
133	0x3c3f78e9	0.011686542
134	0xbc994d2f	-0.018713562
135	0x3d53c162	0.051698096
136	0xbebf2908	-0.37335992
137	0x3c51847f	0.012787937
138	0x3db20aeb	0.08693489
139	0xbdac5356	-0.084143326
140	0x3d8074c4	0.06272271
141	0xbe59706f	-0.21234296
142	0xbd210816	-0.039314352
143	0xbeb41e85	-0.35179535
144	0x3e54ef06	0.20794305
145	0x3d7100ac	0.05883853
146	0xbcc21fee	-0.023696866
147	0xbe53840f	-0.20655845
148	0xbe9cac36	-0.30600137
149	0x3d906467	0.070504
150	0x4043a7c8	3.0571156
151	0x3eb474df	0.35245416
152	0x3c4e0346	0.012574023
153	0xbe4dad40	-0.20085621
154	0x3d5eafae	0.05436676
155	0xbd513ad0	-0.05108148
156	0xbd2c34d4	-0.04204257
157	0x3b041ec0	0.002015993
158	0xbc80db1c	-0.01572948
159	0x3b2d69e0	0.0026460811
160	0x3d050200	0.03247261
161	0x3d03261a	0.03201876
162	0x3cb77420	0.02239424
163	0xbca7d408	-0.020486847
164	0x3d26b126	0.040696286
165	0xbd1c3254	-0.038133934
166	0x3c4cfca8	0.01251141
167	0x3d22caca	0.039744176
168	0xbe26e30c	-0.16297549
169	0x3e698cb5	0.22807582
170	0x3eacd55c	0.3375653
171	0x40490285	3.1407788
172	0xbe1ed6b6	-0.15511593
173	0xba2038c4	-0.00061119744
174	0xbf588c9b	-0.84589547
175	0xbdb75905	-0.08952526
176	0xbf47267f	-0.77793115
177	0xbf19ddab	-0.60103863
178	0x3fc8ca4c	1.5686736
179	0x3f4b4a42	0.79410183
180	0x3dd683f1	0.104743846
181	0x3d1f23d1	0.038852517
182	0xbe3318b4	-0.17489892
183	0xbca4ffdb	-0.020141533
184	0x3e1fc9f2	0.1560438
185	0xbe956cdf	-0.29184625
186	0x3dccb7c8	0.09995991
187	0xbd29e4f8	-0.041478127
188	0xbd4ea9b0	-0.050454795
189	0xbd41dc32	-0.047329135
190	0xbced69d8	-0.028981134
191	0x3c7934a0	0.015210301
192	0xbd09b304	-0.03361799
193	0x3cff051c	0.031130366
194	0xbd7b2f8e	-0.06132465
195	0x3d55150c	0.052022025
196	0xbd49eb10	-0.04929644
197	0xbd1734e2	-0.036915667
198	0x3d3dd9c6	0.046350263
199	0x3d622ac4	0.055216566
200	0xbd1b5490	-0.037922442
201	0x3c162260	0.009163469
202	0x3c16f6c0	0.009214103
203	0x3ce92889	0.028461711
204	0xbdb24a97	-0.08705633
205	0x3d420011	0.047363345
206	0xbeaa1a7a	-0.33223325
207	0x3dab4989	0.08363635
208	0x3c95265c	0.018206768
209	0xbe0d2f7d	-0.13787647
210	0x3d7c2908	0.061562568
211	0x3d272d9a	0.040814973
212	0x3c0caab8	0.008585624
213	0x3d5c46b8	0.05377838
214	0x3c4efae0	0.012633055
215	0xbd6531e8	-0.055955797
216	0xbca7b9b0	-0.020474285
217	0xbd77d8f3	-0.060509633
218	0xbd89cad0	-0.067281365
219	0x3cb955c8	0.022623911
220	0xbe8ba49d	-0.27274027
221	0x3dc2e27b	0.09515854
222	0x3d4190e9	0.047257338
223	0xbd988cc9	-0.07448728
224	0x3bef7640	0.0073077977
225	0xbd43cdb4	-0.047803596
226	0x3c2d7208	0.010586269
227	0x3cb74528	0.022371843
228	0xbcf41e8c	-0.029799722
229	0x3c851170	0.016243666
230	0x3d5882ae	0.052859
231	0x3d06f842	0.0329516
232	0xbc5170d0	-0.012783244
233	0x3d7d63c4	0.061862722
234	0xbd10648c	-0.03525214
235	0xbd33f6da	-0.043936588
236	0x3d423054	0.04740937
237	0x3d3f1ec8	0.046660215
238	0xbe28157f	-0.1641445
239	0x3f24727f	0.6423721
240	0x3f6bc217	0.9209303
241	0x3ff770be	1.9331281
242	0xbf2e7cf5	-0.6815942
243	0x3d0eac75	0.034832437
244	0x3ed2c524	0.4116603
245	0xbea38d30	-0.31943655
246	0x3cf366cc	0.029712103
247	0x3cdb2883	0.026752716
248	0x3fd28fc3	1.6450123
249	0xbc9d8214	-0.019227065
250	0x3cdb6b71	0.02678463
251	0x3c8fbdb0	0.017546505
252	0xbc3fe860	-0.011713117
253	0x3c7b6740	0.015344441
254	0x3cc7e1ec	0.02439972
255	0xbd0fdf44	-0.035125032

input_linear.bias f4 [256]
0	0xbe87fe3e	-0.2656116
1	0x3ed0b6a7	0.40764353
2	0x3e84ecb5	0.25961843
3	0x38b09742	8.420508e-05
4	0x3e2f3029	0.17108215
5	0x3d4ca1b7	0.04995891
6	0x3ecf556f	0.40494868
7	0x3d9eaffd	0.07748411
8	0xbe4608c4	-0.19339281
9	0xbdcec63c	-0.10096404
10	0xbe813252	-0.25233704
11	0x3eaf639b	0.3425568
12	0x3ed50e3f	0.4161243
13	0xbda42e00	-0.08016586
14	0x3e2c52a7	0.16828404
15	0xbe5c6414	-0.21522552
16	0xbda63460	-0.081154585
17	0x3ec4635a	0.3835705
18	0xbea23816	-0.31683415
19	0x3e17de37	0.14830862
20	0x3e4b02c3	0.19825272
21	0x3e2a1fd2	0.16613701
22	0xbeb19455	-0.3468348
23	0xbe12bdc8	-0.14330208
24	0x3e597058	0.21234262
25	0x3d445c54	0.047939613
26	0x3e835e7e	0.2565803
27	0xbac2e800	-0.0014870167
28	0xbd121c08	-0.035671264
29	0x3e9c61f5	0.30543485
30	0xbe7ad692	-0.24495915
31	0x3ea68e1e	0.32530302
32	0xbe63e4f4	-0.22255307
33	0xbeae5071	-0.34045747
34	0x3e8d4a38	0.27595687
35	0x3e85365f	0.26018044
36	0xbe4e3ec1	-0.20141126
37	0x3ed14672	0.40874058
38	0x3e96e4a6	0.2947132
39	0xbd78ccf8	-0.06074235
40	0xbe94d219	-0.29066542
41	0xbe224337	-0.15845953
42	0x3e9330e5	0.2874824
43	0x3e3553b1	0.17707707
44	0xbdcdc7b8	-0.10047859
45	0xbeb890af	-0.36047885
46	0x3eb644a5	0.35599247
47	0x3e19de30	0.15026164
48	0xbea01360	-0.31264782
49	0xbdf64310	-0.1202451
50	0xbe8d014f	-0.2754006
51	0x3ecd92fa	0.40151197
52	0xbded12cc	-0.11575851
53	0xbe182873	-0.1485918
54	0x3e1fe659	0.15615214
55	0xbe813cfe	-0.25241846
56	0xbdd1ea48	-0.10249764
57	0x3dd6f81d	0.104965426
58	0x3d19a27f	0.037508484
59	0x3d88aeff	0.06674003
60	0x3e88a9c7	0.2669203
61	0x3eb93f5d	0.36181155
62	0xbeabe78e	-0.335751
63	0xbd8b1db4	-0.06792775
64	0xbe4be095	-0.1990989
65	0x3e0bba9a	0.13645402
66	0x3e287475	0.16450675
67	0xbe26ac96	-0.16276774
68	0x3dfa27ef	0.12214648
69	0x3ea776b7	0.3270776
70	0x3e6dedaf	0.232352
71	0xbeb05ca4	-0.3444568
72	0xbe6728b4	-0.22574121
73	0x3d7e0f06	0.062026046
74	0xbebd595c	-0.36982238
75	0x3d9a212d	0.07525859
76	0xbe80087d	-0.25006476
77	0x3eb74673	0.35795936
78	0xbe5d7507	-0.21626674
79	0xbc36a3fc	-0.011147495
80	0x3df49e92	0.119443074
81	0xbe72cb62	-0.23710397
82	0xbe76cd64	-0.24101788
83	0x3ee5c7c9	0.44878986
84	0x3e8fc49f	0.28079697
85	0x3d8d6651	0.06904281
86	0xbe1ff18a	-0.15619484
87	0x3dda460b	0.10657891
88	0xbe8cba72	-0.27485996
89	0x3e893535	0.26798406
90	0x3edb35c9	0.42814472
91	0xbeaa1332	-0.3321777
92	0x3e46b1fd	0.19403835
93	0xbe8d4845	-0.275942
94	0x3e46aa55	0.19400914
95	0x3ec87244	0.39149678
96	0x3df882a3	0.12134292
97	0x3e664842	0.22488502
98	0xbe8ddece	-0.2770905
99	0x3d2f3b00	0.042780876
100	0x3e3fa678	0.18715847
101	0xbd792ba8	-0.06083265
102	0x3d7383a5	0.059451718
103	0x3ea24568	0.31693578
104	0xbe9920d7	-0.29907867
105	0x3eb3c50f	0.3511128
106	0xbebfdcc3	-0.37473115
107	0xbeb538b3	-0.3539482
108	0x3e9f60b9	0.3112848
109	0xbebee222	-0.372819
110	0x3e49f567	0.1972252
111	0x3eb8aaa4	0.36067688
112	0xbe900b76	-0.28133744
113	0x3e33f70e	0.17574713
114	0x3e51a2e4	0.20472294
115	0x3e72eb94	0.23722678
116	0x3ed23c37	0.41061565
117	0x3eeac8a3	0.458562
118	0x3e71196d	0.23544855
119	0xbe3cff87	-0.18456851
120	0x3e6c5247	0.23078261
121	0xbdd727c4	-0.105056316
122	0x3ead3861	0.33832076
123	0xbe707ba2	-0.23484662
124	0x3edd7209	0.43251064
125	0x3ed5d892	0.41766793
126	0x3d87acff	0.06624793
127	0xbd958900	-0.07301521
128	0xbe2ae842	-0.16690162
129	0x3e6a6cdb	0.22893088
130	0x3e914913	0.28376064
131	0x3dd043c5	0.10169176
132	0xbe55d6ca	-0.20882717
133	0x3ea24ddc	0.31700027
134	0x3ecad625	0.39616504
135	0xbe396301	-0.18104173
136	0x3ce3bce3	0.02780003
137	0xbdc0dc14	-0.094169766
138	0x3ea6e8b5	0.32599416
139	0x3e5c8d0e	0.21538183
140	0xbdbc454e	-0.09192906
141	0xbe3d0bd6	-0.18461546
142	0xbea82166	-0.3283798
143	0xbe9455ce	-0.28971714
144	0xbe6dbd72	-0.23216799
145	0x3e0a60f3	0.13513546
146	0xbe1c659c	-0.15273136
147	0xbe2480ac	-0.1606471
148	0x3e1a9055	0.15094121
149	0xbe4b75ff	-0.1986923
150	0xbe2cccdb	-0.16875021
151	0xbe9da2c4	-0.30788243
152	0xbcd35194	-0.025795735
153	0x3ecef515	0.40421358
154	0x3e756906	0.23965845
155	0x3e8d6a29	0.27620056
156	0xbe44dcf8	-0.19224918
157	0x3edb2d8f	0.42808196
158	0xbea71b13	-0.32637843
159	0xbcd34910	-0.025791675
160	0x3e8af82c	0.27142465
161	0xbeadfeca	-0.3398345
162	0x3e437c00	0.19090271
163	0xbe9fa2a4	-0.31178772
164	0xbd8a1d58	-0.06743878
165	0x3d7d20a6	0.061798714
166	0x3e21644b	0.15760915
167	0xbe3d457c	-0.18483537
168	0x3db3220b	0.087467276
169	0xbe03d418	-0.12873876
170	0x3e701379	0.23444928
171	0x3e35db51	0.17759444
172	0x3e53cb57	0.20683037
173	0x3db10582	0.08643629
174	0x3e90ba11	0.28266957
175	0xbdd6459c	-0.10462496
176	0x3dc346cf	0.0953499
177	0x3d98c3b0	0.074591994
178	0x3d96267f	0.07331561
179	0x3ea0f25e	0.3143491
180	0xbdd3a5ac	-0.10334334
181	0x3dd397af	0.10331666
182	0x3e754ba1	0.23954631
183	0x3ec93b8a	0.39303237
184	0x3ece9ce1	0.40354064
185	0xbe7df2ed	-0.247997
186	0x3d6af4ea	0.057362475
187	0xbe3dc17e	-0.18530843
188	0x3e9d3006	0.307007
189	0x3e0bf51b	0.13667719
190	0x3e202f40	0.15643024
191	0x3e8b81e8	0.27247548
192	0x3e04f8f7	0.12985598
193	0xbd17c470	-0.03705257
194	0x3ec41bcd	0.3830246
195	0x3da6d624	0.08146313
196	0xbdfa2ca4	-0.12215546
197	0xbddb58b8	-0.10710281
198	0x3e331ec8	0.17492211
199	0xbe7ea388	-0.2486707
200	0x3ed4977e	0.4152183
201	0x3e5f0916	0.2178081
202	0xbd92a30d	-0.07160006
203	0x3df229eb	0.118244015
204	0x3db98f8d	0.09060583
205	0xbd5f3d3e	-0.054501764
206	0x3dd4971e	0.10380386
207	0x3e82cd43	0.25547227
208	0xbe958776	-0.2920491
209	0xbe0b1ce0	-0.13585234
210	0x3ee9a5a4	0.45634186
211	0x3bbf4d9c	0.005838109
212	0x3edcfa19	0.4315956
213	0xbe26eaf9	-0.16300572
214	0x3e999127	0.29993555
215	0xbeb6368a	-0.35588485
216	0x3e76bc72	0.24095324
217	0xbd913f14	-0.07092109
218	0xbeb2457c	-0.34818637
219	0x3e965628	0.29362607
220	0xbe2b64cf	-0.16737674
221	0xbe5d98da	-0.2164034
222	0xbe82a21d	-0.25514308
223	0xbeb1a37b	-0.34695038
224	0x3ed0b4f5	0.4076306
225	0x3e28f36f	0.16499113
226	0xbe8935a3	-0.26798734
227	0x3eaaea51	0.33381894
228	0xbe84f73e	-0.2596988
229	0xbe68fe3b	-0.22753231
230	0xbe6e7abf	-0.23289011
231	0xbea130f9	-0.31482676
232	0xbe628499	-0.22120894
233	0x3e91a630	0.28447104
234	0xbe5235a6	-0.20528278
235	0xbe1adf1d	-0.15124173
236	0xbe69afa3	-0.22820906
237	0x3eb4dc14	0.35324156
238	0x3ec06aef	0.37581584
239	0x3ebc2208	0.36744714
240	0x3ea82bc0	0.3284588
241	0xbeb327cc	-0.349913
242	0xbebb37e2	-0.36566073
243	0x3e9496de	0.29021353
244	0xbe822898	-0.25421596
245	0x3e2936a5	0.16524751
246	0x3eed0526	0.4629299
247	0xbe13170d	-0.14364262
248	0xbd527c48	-0.051388055
249	0x3e25c18f	0.16187118
250	0x3e946786	0.28985232
251	0xbe083143	-0.13300042
252	0x3e3f04b5	0.1865414
253	0x3e488d96	0.19585261
254	0xbeae7bc8	-0.34078813
255	0x3dbe7377	0.09299367

action_linear.weight f4 [256, 259]
0	0x3b686d20	0.0035465434
1	0x3e15ffdc	0.14648384
2	0x3d1a8461	0.037723903
3	0x3e0802a2	0.13282254
4	0x3dd98435	0.106209196
5	0x3c4e2b8e	0.012583626
6	0x3d6267fa	0.05527494
7	0xbf20b3e2	-0.6277448
8	0xbd691698	-0.056906313
9	0xbb8404e0	-0.0040289015
10	0x3c5309c8	0.01288075
11	0x3d24a0d0	0.040192425
12	0x3dcaec85	0.09908394
13	0xbd584436	-0.052799426
14	0x3d62795d	0.055291522
15	0xbce85458	-0.02836053
16	0x3d7c1a32	0.06154842
17	0x3d3be9fe	0.04587745
18	0x3d59261c	0.05301486
19	0x3db5896e	0.08864103
20	0x3d3da8c5	0.04630353
21	0xbe4dc98f	-0.2009642
22	0xbd343e56	-0.04400476
23	0x3d3e2fd0	0.046432316
24	0x3e5c954e	0.2154133
25	0x3e6a0d62	0.22856668
26	0x3df9af11	0.121915944
27	0xbd2964ee	-0.04135602
28	0xbd12e074	-0.035858586
29	0x3d8d5193	0.06900325
30	0xbcd2da10	-0.025738746
31	0x3e1e7a6e	0.1547639
32	0xbd5e3104	-0.054245964
33	0x3d75a748	0.059973985
34	0x3d34b545	0.044118185
35	0x3e8c9e79	0.27464655
36	0xbbd1c570	-0.00640171
37	0x3e03fdb4	0.12889749
38	0x3dd8b1e0	0.10580802
39	0x3ad75440	0.0016428307
40	0xbb8196e0	-0.0039547533
41	0xbcd777fc	-0.02630233
42	0x3dc35248	0.09537178
43	0x3c2d7e60	0.010589212
44	0x3d3a2b3e	0.045451395
45	0x3cc59924	0.024120875
46	0x3d14b81b	0.03630839
47	0x3e558e0b	0.20854966
48	0xbbb7e640	-0.0056121647
49	0xbd46bc08	-0.048519164
50	0x3c8055cc	0.015665911
51	0x3e0a1d6f	0.1348779
52	0x3c94f428	0.018182829
53	0x3c7bf7b0	0.0153788775
54	0xbe713363	-0.23554759
55	0xbc4d9b90	-0.012549296
56	0xbc6ab3a0	-0.0143250525
57	0x3d740347	0.059573438
58	0x3e745d57	0.23863731
59	0x3dfd48de	0.12367414
60	0x3e03f2b0	0.12885547
61	0x3d480be8	0.04883948
62	0xbc8d3230	-0.017235845
63	0x3d22de2c	0.03976266
64	0xbbe25900	-0.0069075823
65	0x3dcf5feb	0.10125717
66	0x3d8378ff	0.064195625
67	0x3cb2f2ec	0.02184435
68	0x3de2c951	0.11073554
69	0x3deeba69	0.11656649
70	0x3cdb245b	0.026750734
71	0xbcc24e70	-0.023719043
72	0x3d14aed8	0.036299556
73	0x3dc1a065	0.09454421
74	0xbd3cd3ce	-0.04610043
75	0x3c0091c6	0.007847255
76	0x3d35a9be	0.044351332
77	0x3d8ede32	0.06975974
78	0x3c47e648	0.012200899
79	0x3e4d240c	0.20033282
80	0xbc9108aa	-0.017704327
81	0xbc9cc448	-0.019136563
82	0x3d58a560	0.05289209
83	0x3d55f3e8	0.05223456
84	0x3df246d1	0.118299134
85	0x3e5135a4	0.20430619
86	0xbcc7dca8	-0.02439721
87	0x3df59e43	0.11993077
88	0x3d3c3a64	0.045954123
89	0x3e0e12f5	0.13874419
90	0x3daa5036	0.0831608
91	0x3d1a0f28	0.03761211
92	0xbb2a9b11	-0.0026032368
93	0xbca90e9c	-0.02063685
94	0x3e49ca1e	0.19706008
95	0x3cdacf0b	0.026710054
96	0x3be73416	0.0070557697
97	0x3da352bf	0.07974767
98	0xbd1653e8	-0.036701113
99	0x3d4484aa	0.04797808
100	0x3cf56d9c	0.029959492
101	0x3e752bf5	0.2394255
102	0x3e0f46c5	0.1399184
103	0x3d02f59e	0.03197252
104	0x3d6078fa	0.054802872
105	0x3d23f788	0.040030986
106	0x3c971078	0.01844047
107	0x3d655994	0.05599363
108	0x3d8aa979	0.067706056
109	0xbc532918	-0.0128882155
110	0xbcbabf0c	-0.022796176
111	0x3c0496b1	0.008092568
112	0xbcdeb9f4	-0.027188279
113	0xbe031d87	-0.12804233
114	0x3e5b4a9c	0.2141518
115	0x3d09e83a	0.033668734
116	0x3e138a4e	0.14408228
117	0x3df88092	0.12133898
118	0x3daf09f6	0.08546822
119	0x3d3dfadc	0.046381816
120	0x3cc00bb9	0.02344309
121	0xbc90bb08	-0.017667308
122	0x3e175485	0.14778335
123	0x3d1d4b9c	0.038402185
124	0x3dea9303	0.114538215
125	0x3e10577b	0.14095871
126	0xbdf894d8	-0.12137765
127	0x3d4116e8	0.047140986
128	0xbcf349ac	-0.029698215
129	0x3e067a88	0.1313268
130	0x3d843884	0.06456092
131	0x3d5ac382	0.053409107
132	0x3cb0250c	0.02150204
133	0x3daf1164	0.08548239
134	0x3e02b7c5	0.12765415
135	0xbd30a896	-0.043129526
136	0x3e2ece61	0.17070915
137	0xbd4e59b7	-0.050378527
138	0x3dd47a21	0.10374857
139	0x3c8216d3	0.015880024
140	0xbe680279	-0.22657193
141	0x3d1c5a50	0.038172066
142	0xbacd4880	-0.0015661865
143	0xbd0dc3e4	-0.034610644
144	0xbd16ba5c	-0.03679882
145	0x3d49018d	0.049073745
146	0xbd41550c	-0.047200248
147	0x3d6f2e44	0.05839373
148	0x3e0d7e88	0.13817799
149	0xbc203030	-0.009777114
150	0x3cf1751c	0.029474787
151	0x3d4c9514	0.04994686
152	0xbd2e443b	-0.04254554
153	0x3d358e6f	0.04432529
154	0xbc6675a1	-0.014066131
155	0x3def53c3	0.11685898
156	0x3c563100	0.013073206
157	0x3d4aaf35	0.049483497
158	0xbd13d6d0	-0.036093533
159	0xbd164cba	-0.036694266
160	0x3e7c1ea6	0.24621066
161	0x3d380316	0.044924818
162	0x3e315a2e	0.17319557
163	0xbd2c15ac	-0.042012855
164	0x3b5d1a40	0.003373757
165	0x3deeeecc	0.11666641
166	0x3e50ab41	0.20377828
167	0xbc6444e0	-0.013932437
168	0x3cbee25a	0.023301292
169	0x3c757440	0.014981329
170	0x3d3d47b7	0.04621097
171	0xbd0f167a	-0.034933545
172	0x3e084022	0.13305715
173	0xbe26eaff	-0.16300581
174	0x3d6bd56f	0.057576593
175	0x3c705048	0.014667578
176	0x3e420573	0.18947391
177	0x3d8de250	0.06927931
178	0x3e21abab	0.15788142
179	0x3e01f695	0.1269172
180	0x3d3c000e	0.04589849
181	0x3e07be89	0.13256277
182	0x3d92c50c	0.0716649
183	0x3d200d49	0.03907517
184	0x3d2403f0	0.040042818
185	0x3d110fd2	0.035415478
186	0x3e9ff150	0.31238794
187	0xbd1ff9ca	-0.039056577
188	0x3e1a71a7	0.15082417
189	0x3dcefb22	0.101064935
190	0x3d461b96	0.04836615
191	0x3e24f4bd	0.16108985
192	0x3dfd233f	0.12360238
193	0xb9b1b200	-0.0003389269
194	0x3e09744b	0.13423268
195	0xbcfa642d	-0.030565346
196	0xbc37b2c0	-0.011212051
197	0x3d1a5e8e	0.03768783
198	0xbd866da0	-0.06563878
199	0x3d562a9a	0.05228672
200	0x3dc56db8	0.09640068
201	0x3da07849	0.078354426
202	0x3e98ecba	0.29868108
203	0xbe506169	-0.20349659
204	0x3e768e2c	0.24077672
205	0xbd68d81f	-0.056846734
206	0x3cac3d6e	0.021025386
207	0x3e0835ce	0.13301775
208	0xbd63ce64	-0.05561675
209	0x3ca420dc	0.0200352
210	0x3dc52305	0.0962582
211	0xbf0939bf	-0.5360374
212	0x3dc55b25	0.09636525
213	0x3d383a38	0.044977397
214	0x3e033769	0.12814106
215	0x3d199aba	0.037501074
216	0x3ca75c0e	0.020429637
217	0x3d35f16a	0.044419684
218	0xbbb7e9a0	-0.005612567
219	0x3da21653	0.07914414
220	0x3cf0b2e4	0.029382177
221	0x3cad9984	0.021191366
222	0xbd788dce	-0.06068211
223	0x3d48e144	0.049042955
224	0x3d6b253e	0.057408564
225	0x3cebe4ec	0.028795682
226	0xbc8b5c80	-0.01701188
227	0x3cf8d988	0.030377164
228	0x3ce97e54	0.02850262
229	0xbc89623c	-0.016770475
230	0x3c012530	0.007882401
231	0xbcee2584	-0.029070623
232	0xbd1f6390	-0.03891331
233	0x3dca97f4	0.09892264
234	0x3b4a39e0	0.003085725
235	0x3d1ac4fa	0.037785508
236	0xbc84e6c0	-0.016223311
237	0x3db5d828	0.08879119
238	0x3df6b421	0.120460756
239	0x3d987fa5	0.07446221
240	0x3d3c92d9	0.046038482
241	0x3d56199e	0.052270524
242	0x3cb73de0	0.022368371
243	0x3dbe6bc9	0.09297902
244	0x3ce7a5dc	0.02827733
245	0x3e2f0013	0.17089872
246	0x3db64a51	0.089008935
247	0xbb8d7a40	-0.004317552
248	0xbd4c5432	-0.049884982
249	0x3e34b9ee	0.17649052
250	0xbd16f60b	-0.03685574
251	0x3cf6a240	0.030106664
252	0x3d38f125	0.04515185
253	0xbe0c26f6	-0.13686737
254	0x3cdcd644	0.026957639
255	0xbe0821ec	-0.1329419

action_linear.bias f4 [256]
0	0x3e2006aa	0.15627542
1	0x3dbde6ae	0.09272514
2	0x3c075739	0.008260542
3	0x3da61f5e	0.081114516
4	0xbdb1dc2a	-0.08684571
5	0x3e10cfce	0.14141771
6	0xbd6b9392	-0.05751378
7	0xbb53e103	-0.0032330162
8	0x3d2301c6	0.039796613
9	0xbd19f388	-0.037585765
10	0x3dece73d	0.11567543
11	0x3d7c6b1e	0.061625592
12	0x3d75f7c2	0.060050733
13	0x3dd8f158	0.10592908
14	0x3d979c47	0.074028544
15	0xb9c5571a	-0.00037639664
16	0x3e060c93	0.13090734
17	0x3dfee3d9	0.12445802
18	0xbd67e85b	-0.056618076
19	0x3e386af9	0.18009557
20	0x3e06177b	0.13094895
21	0xbd5bd59d	-0.053670514
22	0x3e2e91b0	0.17047763
23	0x3e15cba8	0.1462847
24	0xbd67094f	-0.05640536
25	0x3e271219	0.16315497
26	0x3e2c1cd9	0.1680788
27	0x3e0ac237	0.1355065
28	0x3e1ff15e	0.15619418
29	0x3e0eced1	0.13946082
30	0x3deb55c9	0.114909716
31	0x3de891cb	0.11355933
32	0x3d4220d9	0.047394607
33	0xbd1a3840	-0.0376513
34	0x3e29287e	0.16519353
35	0x3e1771f4	0.14789563
36	0x3e1bf934	0.15231782
37	0xbd7db6ad	-0.06194179
38	0x3e00a63e	0.12563416
39	0xbd167c56	-0.03673967
40	0xbd845075	-0.064606585
41	0xbe0acf8c	-0.13555735
42	0x3c395f92	0.01131429
43	0x3dc984d4	0.09839788
44	0x3e2979de	0.16550395
45	0xbe40f5ec	-0.18843812
46	0x3e181f5b	0.14855711
47	0xbdc02108	-0.093813
48	0x3dc7de4b	0.09759196
49	0x3e38f8d6	0.18063673
50	0x3e1472d8	0.14496934
51	0x3ca0e722	0.019641463
52	0x3e214b17	0.15751301
53	0xbcabc16e	-0.020966258
54	0xbce736db	-0.0282244
55	0x3dcfbdb9	0.101436086
56	0x3befb7f0	0.007315628
57	0x3e15a58d	0.14613934
58	0x3d9c837f	0.076422684
59	0x3cd144ad	0.025545442
60	0xbd40ca8a	-0.047068156
61	0xbd2644d3	-0.04059298
62	0xbcd92186	-0.026505243
63	0x3d335256	0.043779694
64	0x3ddf73e5	0.10910777
65	0x3db33d31	0.08751906
66	0x3e3b3555	0.18282063
67	0x3e0db4f7	0.13838564
68	0x3dbf4638	0.09339565
69	0x3e399475	0.18123038
70	0x3e0d601a	0.13806191
71	0x3d570cf0	0.052502573
72	0x3d1b0c64	0.037853613
73	0x3da8902b	0.08230623
74	0xbd70932e	-0.05873411
75	0x3d88459b	0.06653901
76	0x3e1f8486	0.15577897
77	0x3e328cb6	0.1743649
78	0x3e3a7729	0.18209518
79	0x3df5a453	0.11994233
80	0x3e353c51	0.1769879
81	0x3e080399	0.13282622
82	0xbd58c84a	-0.052925386
83	0x3e292706	0.16518793
84	0x3e3bc983	0.1833859
85	0x3e27fa66	0.16404113
86	0xbb802212	-0.0039103115
87	0x3e1c2a9b	0.15250628
88	0x3e2b36a1	0.16720058
89	0xbd09723e	-0.033556215
90	0x3dd8eaf8	0.10591692
91	0x3e08006a	0.13281408
92	0x3e23a326	0.15980205
93	0x3dcbe8d5	0.099565186
94	0x3e34008b	0.17578332
95	0x3c10df20	0.00884226
96	0x3e1b4f10	0.15166879
97	0x3e0cbf79	0.13744916
98	0x3d683ee6	0.05670061
99	0x3e024b7a	0.12724105
100	0x3e20f13f	0.15717028
101	0x3de5fcef	0.11229884
102	0x3de89b17	0.11357706
103	0x3e1abbc1	0.15110685
104	0x3e0f8406	0.14015207
105	0x3db0c00a	0.086303785
106	0x3cceef08	0.025260463
107	0x3e2366f3	0.15957241
108	0x3da757d0	0.08171046
109	0x3e2b7e6a	0.16747442
110	0x3ca6e3c6	0.020372283
111	0x3da20e4b	0.079128824
112	0x3dceee3e	0.10104035
113	0x3d15160e	0.036397986
114	0x3e042ad3	0.12906961
115	0xbc720f55	-0.014774163
116	0x3e226e16	0.15862307
117	0xba1a5a51	-0.0005888092
118	0x3e0052e4	0.1253162
119	0x3e1e7a4b	0.15476339
120	0x3dbf011f	0.09326386
121	0xbd645a53	-0.055750202
122	0x3e256f12	0.16155651
123	0x3b76e766	0.0037674545
124	0x3e13212a	0.1436812
125	0x3cdeba2a	0.02718838
126	0xbd2f3c5f	-0.042782184
127	0x3e1905d4	0.1494363
128	0x3dee7015	0.11642472
129	0x3c743173	0.014904368
130	0x3e0a2154	0.13489276
131	0x3dadccb9	0.084863134
132	0x3e1ad689	0.15120901
133	0x3c3b6a44	0.01143891
134	0x3d8ab6ea	0.06773169
135	0x3e29757f	0.16548727
136	0x3e3e1cff	0.18565749
137	0x3d502255	0.05081399
138	0xbdbbc673	-0.091687106
139	0x3e00a7aa	0.12563959
140	0xbc4abfe8	-0.012374856
141	0xbd202b5d	-0.039103854
142	0x3c12d068	0.008960821
143	0x3e1fac58	0.15593088
144	0x3e0406ae	0.12893173
145	0x3e20b299	0.1569313
146	0x3df0d168	0.11758691
147	0x3d553038	0.052047938
148	0x3e2bef43	0.1679049
149	0x3d62ce6a	0.055372633
150	0x3caefe23	0.021361416
151	0xbc8957c5	-0.016765485
152	0x3e2a56e5	0.1663471
153	0xbd597fe1	-0.05310047
154	0xbd23d6ba	-0.0399997
155	0x3e2ff5ca	0.17183605
156	0x3dcb5307	0.099279456
157	0x3df17bc8	0.117911875
158	0x3df21704	0.11820796
159	0xbd800d5f	-0.0625255
160	0x3e0d0429	0.13771118
161	0x3e1ebfce	0.15502855
162	0xbca0a41e	-0.019609507
163	0xbd4433d9	-0.04790101
164	0x3e22d2ad	0.15900679
165	0x3da7894d	0.08180485
166	0x3dd7107f	0.10501193
167	0x3dcac9eb	0.09901794
168	0xbd0ab794	-0.03386648
169	0x3dca265a	0.09870596
170	0x3e1c7734	0.15279847
171	0x3db654fb	0.089029275
172	0xbd89bef6	-0.06725876
173	0x3de647dd	0.112441756
174	0xbd43513d	-0.047684897
175	0x3d0328fc	0.032021508
176	0x3bd97496	0.0066362126
177	0x3e3d421f	0.18482254
178	0xbd809d49	-0.0628
179	0x3d8f5d36	0.070002005
180	0x3dbdc573	0.09266176
181	0x3e2a987c	0.1665973
182	0xbd6751e9	-0.0564746
183	0xbd988f82	-0.07449247
184	0x3e34567e	0.17611119
185	0x3dc34043	0.09533741
186	0x3e0f0c45	0.13969524
187	0x3c904ad3	0.017613804
188	0x3df80b63	0.12111547
189	0x3e10c187	0.14136325
190	0xbc2d8279	-0.010590189
191	0x3dba925a	0.091099456
192	0xbd87011a	-0.06592007
193	0x3db31666	0.087445065
194	0x3df133c0	0.11777449
195	0x3e36de0c	0.17858142
196	0x3e0d286b	0.1378495
197	0x3e311a6a	0.17295232
198	0x3e05497f	0.13016318
199	0x3d8563f9	0.06513209
200	0xbd61510b	-0.05500893
201	0x3e280512	0.16408184
202	0xbca5f2c5	-0.020257363
203	0x3e127526	0.14302501
204	0x3c019507	0.007909066
205	0x3d25838b	0.040408652
206	0x3dbce1fe	0.09222792
207	0x3de2f27a	0.11081405
208	0x3cbeef2c	0.023307405
209	0x3d81c65f	0.063366644
210	0xbd8efd16	-0.06981866
211	0x3ea6227d	0.32448187
212	0xbd769302	-0.06019879
213	0x3e2d21c2	0.16907409
214	0x3c9c0d94	0.019049443
215	0x3e2e1247	0.1699916
216	0x3e0d1aad	0.13779707
217	0x3ddaad85	0.106776275
218	0xbd57aa96	-0.052652918
219	0x3dcc4287	0.099736266
220	0x3dcc26e4	0.09968355
221	0x3e14ee6b	0.14544074
222	0x3e046d81	0.12932397
223	0x3e0e06f1	0.13869835
224	0xbc9eca8e	-0.019383695
225	0xbd3a9e64	-0.04556121
226	0x3c83e413	0.016099965
227	0x3df67a82	0.12035085
228	0x3dab3e10	0.08361447
229	0x3d98b25b	0.074558936
230	0x3dd1b8a8	0.102402985
231	0x3e38eb71	0.18058564
232	0x3e0c7f91	0.13720538
233	0x3ddd71aa	0.10812695
234	0x3aa3eece	0.0012507082
235	0x3e2b9551	0.16756178
236	0x3d4af498	0.04954967
237	0x3df4c4c4	0.119515926
238	0xbd06acc8	-0.03287962
239	0xbca1aba1	-0.01973516
240	0x3e069c59	0.1314558
241	0x3d9abd76	0.07555668
242	0xbcc48b20	-0.023992121
243	0x3dd154aa	0.102212265
244	0xbb2b67be	-0.0026154364
245	0xbd9e6b69	-0.077353306
246	0xbd8615a5	-0.06547097
247	0x3e2e34b6	0.17012295
248	0x3df2e2fa	0.118596986
249	0xbbdc6243	-0.006725581
250	0xbd156c63	-0.03648032
251	0x3e342133	0.1759079
252	0x3e204591	0.15651537
253	0x3dab1146	0.08352904
254	0x3dfdbfc0	0.12390089
255	0x3de1c6fc	0.110242814

output_linear.weight f4 [1, 256]
0	0xbdd0dc71	-0.10198296
1	0xbdd7c07b	-0.105347596
2	0xbcd61b0b	-0.026135942
3	0xbdb45db8	-0.08806938
4	0x3c4c7827	0.012479818
5	0xbdb5defa	-0.0888042
6	0x3a8ec350	0.0010891948
7	0xbb57a71d	-0.0032906004
8	0xbfc30528	-1.5235949
9	0x3c77d80f	0.015127196
10	0xbdcb6dfe	-0.09933089
11	0xbdaef2f2	-0.08542432
12	0xbd82c1d6	-0.063846275
13	0xbdb51127	-0.08841162
14	0xbdb33535	-0.08750383
15	0xbbc766cf	-0.006085254
16	0xbdba8e90	-0.09109223
17	0xbdbbf0b7	-0.09176772
18	0x3c5513d2	0.013005214
19	0xbdc02db3	-0.093837164
20	0xbdbe1935	-0.092821516
21	0xbb7ca9b1	-0.0038553292
22	0xbefbaf18	-0.49157023
23	0xbdaaa759	-0.083327
24	0xbaaaa050	-0.0013017748
25	0xbdb38ba6	-0.0876687
26	0xbdc7d9d0	-0.09758341
27	0xbdc2a818	-0.095047176
28	0xbdc9cd4c	-0.098536104
29	0xbdbfc0df	-0.09362959
30	0xbdd18f75	-0.102324404
31	0xbde5fb52	-0.11229576
32	0xbe8834d4	-0.26602805
33	0xbcec3f3c	-0.028838746
34	0xbdbdd93f	-0.09269952
35	0xbd99e579	-0.075144716
36	0xbdc1ca6f	-0.09462439
37	0xbbbbf398	-0.0057358257
38	0xbdd7acc0	-0.10530996
39	0xbfe134c0	-1.7594223
40	0x3cea6f07	0.028617395
41	0x3f4546a0	0.7706089
42	0xbbb2c94a	-0.0054561244
43	0xbdcb8baf	-0.09938752
44	0xbdaeb541	-0.08530665
45	0x3f93a1d9	1.1533767
46	0xbdc8dd04	-0.098077804
47	0x3cddb557	0.027064009
48	0xbdca6758	-0.098829925
49	0xbdb992e7	-0.090612225
50	0xbdbcf59d	-0.092265345
51	0x3c79dbca	0.015250156
52	0xbdca600f	-0.09881603
53	0x3aeade78	0.0017919084
54	0xbb993e52	-0.0046766186
55	0xbdc27cd7	-0.094964676
56	0xbaef6367	-0.0018263877
57	0xbf69af95	-0.9128354
58	0xbfbc7056	-1.4721782
59	0x3c956a3b	0.018239131
60	0x3c936ad2	0.017995272
61	0x3cdf9231	0.02729139
62	0xbbea3fde	-0.007148727
63	0x3bd292a2	0.0064261714
64	0xbd94b050	-0.072601914
65	0xbdbef39f	-0.09323811
66	0xbdc65220	-0.09683633
67	0xbdb82b7d	-0.0899267
68	0xbe1b576a	-0.15170065
69	0xbdbefb8f	-0.09325325
70	0xbdbbfd3e	-0.091791615
71	0xbb08216c	-0.0020771874
72	0xbba21813	-0.0049467175
73	0xbd861914	-0.06547752
74	0xbc4f3814	-0.012647647
75	0xbda95ad0	-0.08269274
76	0xbd859010	-0.06521618
77	0xbdbd9354	-0.09256616
78	0xbdc6ae7b	-0.09701248
79	0xbdd453f6	-0.10367577
80	0xbdac42ad	-0.08411155
81	0xbdd86629	-0.105663605
82	0x3ca9f58b	0.020746967
83	0xbdb44537	-0.08802264
84	0xbdcbdaa0	-0.09953809
85	0xbdb80570	-0.08985412
86	0x3be7c346	0.007072839
87	0xbdc39666	-0.095501706
88	0xbdc76afa	-0.09737201
89	0xbc6908eb	-0.014223318
90	0xbdc2480d	-0.09486399
91	0xbdb7912c	-0.08963236
92	0xbdc44367	-0.095831685
93	0xbdceffb2	-0.10107364
94	0xbdc68e11	-0.09695066
95	0x3c696c63	0.014247033
96	0xbdbf37bd	-0.09336803
97	0xbdb245de	-0.08704732
98	0xbe4dd86d	-0.20102091
99	0xbda6beb8	-0.081418455
100	0xbdbecfc3	-0.09316971
101	0xbdc3bc70	-0.09557426
102	0xbdc8c815	-0.098037876
103	0xbdcb11a3	-0.09915473
104	0xbdb2d030	-0.08731115
105	0xbd890516	-0.06690423
106	0xbbe4e2c8	-0.0069850422
107	0xbdb90653	-0.090344094
108	0xbdabe867	-0.083939366
109	0xbdbb6368	-0.091498196
110	0x3b9cdcab	0.004787048
111	0xbdbc8c7c	-0.09206483
112	0xbdc9a721	-0.098463304
113	0xbbc3b9a8	-0.0059730597
114	0xbd7f0e00	-0.06226921
115	0xbcb5e06b	-0.022201737
116	0xbdc52d64	-0.09627798
117	0x3cc073a2	0.023492638
118	0xbdc527ba	-0.09626718
119	0xbdccf953	-0.10008492
120	0xbeceaaa1	-0.40364555
121	0xbca04999	-0.019566344
122	0xbda34111	-0.07971395
123	0x3c32e684	0.010919217
124	0xbdb06d84	-0.086146384
125	0xbbced4a7	-0.006311971
126	0xc0204014	-2.503911
127	0xbdb16267	-0.08661347
128	0xbdbc8c9a	-0.09206505
129	0xbc000afa	-0.007815117
130	0x40480233	3.1251342
131	0xbd707197	-0.058702078
132	0xbda0923c	-0.07840392
133	0xbb90759b	-0.004408551
134	0xbd057169	-0.03257886
135	0xbdca599b	-0.09880372
136	0xbdcf44b0	-0.10120523
137	0xbdb3db77	-0.08782094
138	0xbc81c4f5	-0.015840987
139	0xbedcfe2d	-0.4316267
140	0xbbcbdd18	-0.006221425
141	0xbbcb070b	-0.006195908
142	0xbbbd776c	-0.0057820585
143	0xbdd7e382	-0.105414405
144	0xbdb6e69f	-0.08930706
145	0xbdb5d817	-0.088791065
146	0xbdcd44e3	-0.10022905
147	0xbb211305	-0.0024577987
148	0xbdbfc099	-0.09362907
149	0xbd976933	-0.07393112
150	0xbbc9217e	-0.006138026
151	0xbf0c3598	-0.5476928
152	0xbdb01207	-0.085971884
153	0xbc4abfa9	-0.012374797
154	0xbc22ecf0	-0.009944186
155	0xbdc9e29b	-0.09857675
156	0x3fe18c7d	1.7620999
157	0xbdbdbde8	-0.09264737
158	0xbdcf1683	-0.10111716
159	0xbbc15239	-0.0058996943
160	0xbdcd4e3c	-0.10024688
161	0xbdbf3b66	-0.09337501
162	0xba034b0c	-0.0005008436
163	0xbbe91d12	-0.007114061
164	0xbdbb87ab	-0.09156736
165	0xbdc34251	-0.09534133
166	0xbdd7c76e	-0.10536085
167	0xbda0aef2	-0.07845868
168	0x3a738ae8	0.0009290413
169	0xbdb644a2	-0.088998094
170	0xbdd4af89	-0.10385043
171	0xbda6be1e	-0.08141731
172	0x3ba0cf6a	0.004907538
173	0xbd518164	-0.051148787
174	0xbb6fade4	-0.0036572153
175	0xbb65dd6f	-0.0035074612
176	0x3b6c3fdd	0.0036048808
177	0xbdd44564	-0.10364798
178	0xbaee7701	-0.0018193425
179	0xbdc8df73	-0.098082446
180	0xbdc20abc	-0.09474704
181	0xbdac6dee	-0.08419405
182	0xbba957d8	-0.0051679425
183	0xbc24d5a9	-0.010060706
184	0xbdaf5016	-0.08560197
185	0xbda1a3b4	-0.07892552
186	0xbdcf3a18	-0.101185024
187	0xbba65829	-0.0050764275
188	0xbebcf34c	-0.3690437
189	0xbda2fe4e	-0.07958661
190	0xbb6ca7fe	-0.0036110873
191	0xbdc68728	-0.09693748
192	0x3cfc2194	0.03077773
193	0xbdc77480	-0.097390175
194	0xbdbad3bb	-0.09122416
195	0xbdccd550	-0.10001624
196	0xbdb37cd9	-0.08764047
197	0xbdbbe136	-0.09173815
198	0xbdcc2593	-0.09968104
199	0xbdb058a2	-0.08610655
200	0xbb993894	-0.004675934
201	0xbdc0b810	-0.09410107
202	0xbccea34e	-0.025224354
203	0xbdc96571	-0.098338015
204	0xbb5e3a8a	-0.0033909404
205	0xbb8451f9	-0.004038092
206	0xbdd11ebb	-0.102109395
207	0xbdb7907d	-0.08963106
208	0xbca54499	-0.020174311
209	0xbdbc341b	-0.09189626
210	0xbcd66105	-0.02616931
211	0x400b5963	2.1773307
212	0xbbf3441f	-0.007423892
213	0xbdbcad18	-0.092127025
214	0xbad5a291	-0.0016299059
215	0xbdbf0180	-0.09326458
216	0xbdd35765	-0.103194036
217	0xbdcfc9aa	-0.10145886
218	0xbcd119ab	-0.025524935
219	0xbdc50f52	-0.09622063
220	0xbdc94dcd	-0.098292924
221	0xbd82d0a7	-0.063874535
222	0x3fe0a629	1.7550708
223	0xbdd1fcf3	-0.10253324
224	0xbc5984ed	-0.013276321
225	0xbb42f19b	-0.002974606
226	0xbbb06e00	-0.005384207
227	0xbdbacaed	-0.09120736
228	0xbdcb6b73	-0.09932604
229	0xbd9614ae	-0.07328163
230	0xbda66701	-0.08125115
231	0xbdc23cfa	-0.094842866
232	0xbdab73b2	-0.083716765
233	0xbdbfe41e	-0.09369682
234	0xbbc2dd4b	-0.0059467903
235	0xbdc448ed	-0.09584222
236	0xbd850699	-0.06495399
237	0xbdbf4db3	-0.09340992
238	0xbbf0055a	-0.0073248567
239	0x3c1a2e86	0.009410506
240	0xbdd08f02	-0.101835266
241	0xbdc6150d	-0.09671984
242	0xbba38999	-0.004990768
243	0xbda87bf1	-0.08226765
244	0xbba70dca	-0.0050980793
245	0xbcae3c96	-0.021269124
246	0xbbac1104	-0.005251052
247	0xbdb52281	-0.08844472
248	0xbd934303	-0.07190516
249	0x3d52d095	0.05146845
250	0xbbb5444d	-0.0055318237
251	0xbdd29868	-0.102829754
252	0xbdb6faf3	-0.089345835
253	0xbdcf1318	-0.10111064
254	0xbde184da	-0.110116675
255	0xbd8d224d	-0.06891308
