examples/player_template_py/models/critic.pkl (torch, 276895 bytes, 5 tensors)

input_linear.weight f4 [256, 6]
0.07036931 0.0667472 0.07596419 0.14062591 -0.0039478038 0.0912509 0.07147375 0.03324054
-0.011366665 0.10576101 0.033491045 0.09342695 0.094161354 0.030345287 0.06325705 0.07565548
-0.024886187 0.05210318 0.051600665 -0.052984357 0.023136973 -0.04934267 -0.055842705 0.023987286
-0.037453525 0.014547087 -0.01650443 0.0100251585 0.049985282 0.0054180697 -0.04414527 -0.012467913
-0.020037964 0.0124837905 0.042882547 -0.008041583 -0.027970336 0.015597537 0.054113932 -0.033999674
-0.03763067 -0.053852335 0.032827336 -0.030695336 -0.03515777 0.07344155 -0.044522244 0.025946017
0.0011414111 -0.01560643 0.06496589 0.06216435 -0.034641817 0.009235191 -0.047587104 -0.037667714
0.040939055 -0.0032658577 0.060082227 -0.019792587 0.030602563 0.0033047406 0.05441859 0.09304914
-0.014552189 0.06055109 0.022446353 -0.015352875 0.057870656 0.1298642 0.030780833 0.09521461
0.013397172 0.007059261 -0.007122174 -0.016289048 0.01513499 -0.020893931 -0.03488206 0.02372004
0.0286441 -0.037719667 0.0106719285 0.029433914 -0.046342313 0.012556836 -0.013592407 0.04239367
0.04488814 0.0015224293 0.022124805 0.042694673 -0.013178907 0.021667436 -0.009559073 0.014831156
-0.060125567 0.05363311 0.05698508 -0.00051410496 -0.01876048 -0.05430554 -0.042462677 -0.029750697
0.03300879 0.05815596 -0.005403213 -0.04774543 0.0771912 -0.02511541 0.057734292 0.07972902
-0.030566609 0.011888435 -0.012836389 0.020431172 -0.0037861718 0.10228002 0.048250176 0.00080916664
-0.043790556 0.03125965 0.04387439 -0.059593715 0.050446503 -0.025099315 0.030403063 -0.0442473
0.056522146 0.025620334 -0.048377395 0.031298615 0.060664456 0.03682511 0.050719425 0.09397548
-0.07011245 -0.03902873 0.013651915 -0.00215815 0.032124385 0.013600685 -0.042771243 -0.049352266
-0.02269388 0.041986227 0.0023448095 -0.011098973 0.033587888 0.020888895 -0.027679719 -0.03576485
0.04581727 -0.035915203 0.016901292 0.028685212 0.0504603 -0.052444592 -0.027972892 -0.052824356
-0.052491404 -0.041907974 0.06827719 0.07813431 0.0024234971 0.15005155 0.031796012 -0.015293494
0.05929938 0.0431072 0.0009585916 0.15348251 0.053230878 0.029227544 0.06276634 0.0240165
-0.0017586793 0.14957121 -0.06664882 -0.019184334 0.041098513 0.010331817 0.025864432 0.045651037
0.020627012 0.0056326594 -0.030761741 0.042357914 0.04826667 -0.0370683 0.055666342 0.05998204
-0.051228546 -0.0330728 0.04319504 -0.029700056 -0.011364885 0.03738372 0.0093948245 -0.057038225
-0.045692727 -0.042787984 0.03476449 0.025536552 0.05524799 -0.0519821 -0.023532972 0.12744913
-0.05269222 0.057695445 -0.027226284 0.0073108897 -0.029230043 0.010677993 0.01093363 0.0221598
0.04566721 0.04680293 0.0005862713 -0.029749617 -0.0035773218 0.034137286 0.095440276 0.06689353
0.050943382 0.11564337 -0.008538137 -0.011428704 0.08696364 0.012958597 0.064756736 0.049796563
-0.01790592 -0.006638419 -0.0020174459 0.0068312585 -0.033841155 -0.047182225 -0.008421838 0.01602929
-0.05311159 0.015814438 0.04750227 0.038982317 -0.019653484 0.05522874 -0.0035526385 0.032115255
-0.009787759 0.124028124 -0.035070788 0.008018069 0.023323111 0.03529734 0.03505238 -0.039817423
00000000: c91d 903d c2b2 883d 1d93 9b3d 3d00 103e
00000010: 945c 81bb c0e1 ba3d d460 923d 3c27 083d
00000020: 403b 3abc 3a99 d83d e82d 093d a156 bf3d
00000030: abd7 c03d ae96 f83c ea8c 813d 43f1 9a3d
00000040: 1ede cbbc 256a 553d 385b 533d 2006 59bd
00000050: c089 bd3c 8a1b 4abd 52bb 64bd fc80 c43c
00000060: de68 19bd e856 6e3c 4c34 87bc 9040 243c
00000070: 5ebd 4c3d 108a b13b acd1 34bd 3846 4cbc
00000080: a826 a4bc d088 4c3c 9ca5 2f3d d8c0 03bc
00000090: 0c22 e5bc d08c 7f3c 92a6 5d3d 3e43 0bbd
000000a0: 9e22 1abd 4494 5cbd f575 063d c974 fbbc
000000b0: 9801 10bd 8668 963d f55c 36bd be8c d43c
000000c0: 679b 953a 1db2 7fbc d60c 853d 0ca0 7e3d
000000d0: 94e4 0dbd 334f 173c b2ea 42bd 7649 1abd
000000e0: b6af 273d 0008 56bb c818 763d 1024 a2bc
000000f0: 3ab2 fa3c 5994 583b 07e6 5e3d 8c90 be3d
00000100: 4e6c 6ebc 6b04 783d 6ae1 b73c a08a 7bbc
00000110: c809 6d3d 1ffb 043e 1628 fc3c e1ff c23d
00000120: d07f 5b3c 6051 e73b 2061 e9bb 9c70 85bc
00000130: c0f8 773c c029 abbc 7ee0 0ebd 8850 c23c
00000140: 08a7 ea3c f07f 1abd 50d9 2e3c 641f f13c
00000150: 70d1 3dbd 30bb 4d3c b0b2 5ebc fca4 2d3d
00000160: a0dc 373d 408c c73a 143f b53c 9ce0 2e3d
00000170: 58ec 57bc e87f b13c a89d 1cbc 60fe 723c
00000180: 3a46 76bd 64ae 5b3d 3069 693d 00c5 06ba
00000190: 94af 99bc 7c6f 5ebd 58ed 2dbd bcb7 f3bc
000001a0: 3a34 073d f234 6e3d 700d b1bb b690 43bd
000001b0: 6b16 9e3d d5be cdbc cb7a 6c3d f848 a33d
000001c0: d366 fabc b6c7 423c b84f 52bc 465f a73c
000001d0: 6c21 78bb 3078 d13d faa1 453d 411e 543a
000001e0: ba5d 33bd 1e0a 003d a2b5 333d 8a18 74bd
000001f0: fea0 4e3d 149d cdbc d80f f93c a83c 35bd
00000200: c483 673d bce1 d13c 6027 46bd fa32 003d
00000210: 4b7b 783d edd5 163d 2cbf 4f3d 3776 c03d
00000220: 1e97 8fbd 97dc 1fbd 48ac 5f3c c06f 0dbb
00000230: dc94 033d 68d5 5e3c e630 2fbd 9a25 4abd
00000240: 84e8 b9bc c0f9 2b3d 60ab 193b 78d8 35bc
00000250: 7493 093d 301f ab3c 94c0 e2bc 2a7e 12bd
00000260: e4aa 3b3d d21b 13bd 9474 8a3c 40fd ea3c
00000270: 76af 4e3d 24d0 56bd 6827 e5bc 5a5e 58bd
00000280: 3a01 57bd b2a7 2bbd e9d4 8b3d e204 a03d
00000290: 89d3 1e3b 1da7 193e 893c 023d 9091 7abc
000002a0: e8e3 723d 2d91 303d fe49 7b3a 852a 1d3e
000002b0: 9f08 5a3d 9a6e ef3c a48b 803d 40be c43c
000002c0: 7c83 e6ba 3229 193e 2d7f 88bd 7728 9dbc
000002d0: ea56 283d c846 293c a5e1 d33c 95fc 3a3d
000002e0: fbf9 a83c 2c92 b83b 0c00 fcbc 7e7f 2d3d
000002f0: 46b3 453d eed4 17bd 6402 643d baaf 753d
00000300: 06d5 51bd 5877 07bd 48ed 303d 884d f3bc
00000310: c833 3abc ac1f 193d c0ec 193c eaa0 69bd
00000320: 4c28 3bbd 7442 2fbd 3665 0e3d 0832 d13c
00000330: b74b 623d 2feb 54bd 38c8 c0bc 0682 023e
00000340: ccd3 57bd 0f52 6c3d a809 dfbc 3090 ef3b
00000350: d873 efbc c0f2 2e3c f822 333c 7888 b53c
00000360: 8a0d 3b3d 6eb4 3f3d 00b0 193a 78b5 f3bc
00000370: 8071 6abb 8ad3 0b3d 3176 c33d 7aff 883d
00000380: 02aa 503d 6ed6 ec3d 8be3 0bbc 753f 3bbc
00000390: fe19 b23d 4c50 543c 2e9f 843d 7bf7 4b3d
000003a0: 70af 92bc 1887 d9bb 2037 04bb c0d8 df3b
000003b0: 069d 0abd 2642 41bd c0fb 09bc dc4f 833c
000003c0: 8a8b 59bd 488d 813c be91 423d ecab 1f3d
000003d0: 5800 a1bc 8837 623d 62d3 68bb 498b 033d
000003e0: d65c 20bc 7502 fe3d 63a6 0fbd 385e 033c
000003f0: 1c10 bf3c f293 103d 1693 0f3d 9817 23bd

input_linear.bias f4 [256]
0.17358449 0.31851465 0.118373096 -0.36823106 -0.09307659 -0.17904377 0.00048288703 0.26428708
0.20107098 -0.2599498 0.2650911 0.41434175 -0.07250139 -0.23981181 -0.114195645 -0.1837014
-0.22466956 -0.3661902 0.22981077 0.101744294 -0.29773057 -0.26340854 0.09006188 -0.20862336
-0.21345381 -0.17388068 -0.09656578 0.101574905 0.11580576 0.42986795 0.28316694 -0.12853852
-0.23298265 -0.09444663 0.36670265 -0.12221795 -0.07031396 0.39751568 0.36924037 -0.26319826
0.018176138 0.4260428 -0.21719752 0.3318131 -0.15732685 0.3638811 0.005350262 -0.3995735
-0.25619507 -0.039917737 -0.052529752 0.20350827 -0.2931029 -0.04799487 0.38130152 0.35518736
-0.16806552 -0.22975244 0.22725461 -0.2554946 -0.27485305 0.004494846 -0.23416089 0.027467955
0.32024354 -0.30426443 -0.2595833 0.25363973 0.23388125 0.046702944 -0.111090004 -0.03559339
-0.15692142 -0.1702401 0.38656628 0.20638682 0.26240766 -0.0846591 -0.28631955 -0.034342945
-0.0037271082 0.004073292 -0.24603768 -0.10519764 0.34272665 -0.20641053 -0.28342614 -0.15482011
0.08426398 0.20669349 0.37728655 0.14489596 -0.05417016 0.2337021 0.3364069 0.0809302
0.07516853 0.35104543 -0.14355472 -0.3584444 0.20496556 -0.32175466 0.15483303 0.35246956
0.023312569 -0.16243294 -0.06200704 0.20538932 0.1335861 -0.39333123 -0.055488408 0.06085536
-0.34803438 -0.35572168 -0.06335616 0.07850626 -0.27990308 -0.1502665 -0.34115815 -0.3637003
0.16759203 -0.23111682 0.1048214 -0.03908503 0.3428848 0.11091321 -0.33535215 -0.28509983
0.21784092 0.08727654 0.19578578 0.37584513 0.23318307 0.40668505 0.04302132 0.42584527
-0.1633798 -0.3667502 0.28571042 0.39050844 0.17175624 -0.27183247 -0.27568147 0.40644684
-0.113563746 0.08573281 -0.123191535 0.31017366 0.28308606 -0.22534515 0.15244956 -0.049966007
-0.33176565 0.042245694 -0.28569767 -0.13238683 -0.40203702 -0.3901792 -0.29993472 -0.27642
-0.014028528 -0.36056104 0.3644144 0.016380876 0.15502538 -0.11448589 0.064926565 0.03992371
0.069073044 -0.17428014 -0.06196612 0.21765536 -0.083536506 0.23283665 -0.057302177 -0.3224548
-0.04092437 0.13631347 -0.19015653 0.14013629 0.059705317 0.03127493 -0.12761053 -0.10786551
0.017974721 0.36003572 -0.3861209 0.23354843 0.087677464 -0.18251002 0.26710728 0.19432017
-0.32136244 -0.15449715 -0.1119864 -0.37207142 -0.060649395 -0.24143714 0.10615281 -0.38893738
-0.17999403 -0.34134203 0.06527746 -0.27035713 -0.316008 0.112133004 -0.10826668 0.08942984
-0.01970458 0.296124 0.17494269 -0.38589346 0.2411538 -0.3461392 -0.25627166 0.12071824
-0.3872906 0.25511724 0.11749582 -0.099132866 0.34226462 -0.1767643 -0.26293495 -0.21956706
0.27589157 -0.28133792 0.007066809 -0.19598918 -0.25766626 0.39784893 0.23708786 0.14780213
0.43038073 0.28141415 0.17560115 0.24792144 0.29471576 -0.14697552 0.32919064 0.1617624
-0.04794532 0.14929904 -0.3990074 0.2187098 0.38520882 0.1713703 -0.263811 0.26425627
-0.40624747 0.21615915 0.43920636 -0.34921944 -0.10006511 0.20062684 0.25649837 -0.3800914
00000000: 22c0 313e 5a14 a33e 986d f23d c888 bcbe
00000010: f09e bebd 4057 37be 002c fd39 a350 873e
00000020: 8de5 4d3e 2418 85be 05ba 873e 9a24 d43e
00000030: 9c7b 94bd 3a91 75be 68df e9bd 381c 3cbe
00000040: c70f 66be 487d bbbe 8453 6b3e 505f d03d
00000050: 2470 98be 7cdd 86be 5d72 b83d 5da1 55be
00000060: a393 5abe c70d 32be 48c4 c5bd 8106 d03d
00000070: 922b ed3d a717 dc3e 42fb 903e 9a9f 03be
00000080: 0193 6ebe 3c6d c1bd 73c0 bb3e 684d fabd
00000090: c400 90bd 2d87 cb3e 130d bd3e ecc1 86be
000000a0: 20e6 943c 4822 da3e 0769 5ebe 68e3 a93e
000000b0: 4a1a 21be a04e ba3e 4051 af3b e694 ccbe
000000c0: 002c 83be c880 23bd 7029 57bd 7964 503e
000000d0: 9511 96be 4596 44bd f439 c33e 1edb b53e
000000e0: 5e19 2cbe 3944 6bbe 6fb5 683e 30d0 82be
000000f0: 8ab9 8cbe 8049 933b dfc7 6fbe 7a04 e13c
00000100: f6f6 a33e 8cc8 9bbe 1ae8 84be 11dd 813e
00000110: 917e 6f3e 964b 3f3d 2883 e3bd 60ca 11bd
00000120: 02b0 20be 6c53 2ebe 04ec c53e 1157 533e
00000130: 4c5a 863e c061 adbd 7a98 92be 30ab 0cbd
00000140: 8042 74bb 4079 853b 4df1 7bbe dc71 d7bd
00000150: de79 af3e 485d 53be 3b1d 91be 2a89 1ebe
00000160: 9892 ac3d 75a7 533e b42b c13e 9b5f 143e
00000170: 88e1 5dbd 9a4f 6f3e 863d ac3e bcbe a53d
00000180: f5f1 993d 3abc b33e 0200 13be 0686 b7be
00000190: 7ee2 513e 07bd a4be 8d8c 1e3e e476 b43e
000001a0: 00fa be3c d254 26be 18fb 7dbd 9451 523e
000001b0: cbca 083e b662 c9be d047 63bd 7843 793d
000001c0: 9031 b2be 2721 b6be e0c0 81bd e4c7 a03d
000001d0: 754f 8fbe 76df 19be 48ac aebe ed36 babe
000001e0: 3f9d 2b3e e3a9 6cbe 9aac d63d a017 20bd
000001f0: 998e af3e 7726 e33d 47b3 abbe 9bf8 91be
00000200: b111 5f3e 0bbe b23d 117c 483e c66e c03e
00000210: 8bc7 6e3e 0639 d03e 2037 303d 6408 da3e
00000220: 094d 27be afc6 bbbe a348 923e b9f0 c73e
00000230: dee0 2f3e a02d 8bbe 1f26 8dbe cd19 d03e
00000240: 1c94 e8bd af94 af3d d84b fcbd 15cf 9e3e
00000250: a8f0 903e e1c0 66be bd1b 1c3e 28a9 4cbd
00000260: 30dd a9be d209 2d3d f746 92be 6a90 07be
00000270: ccd7 cdbe 91c5 c7be 0b91 99be ec86 8dbe
00000280: e9d7 65bc 759b b8be 8694 ba3e 3031 863c
00000290: f9be 1e3e 9477 eabd 38f8 843d 0b87 233d
000002a0: 2b76 8d3d 7e76 32be 30d0 7dbd 0ce1 5e3e
000002b0: 3015 abbd bb6c 6e3e b0b5 6abd cc18 a5be
000002c0: 50a0 27bd c295 0b3e 65b8 42be e37f 0f3e
000002d0: 908d 743d 241a 003d 56ac 02be 98e8 dcbd
000002e0: b93f 933c 9a56 b83e a3b1 c5be 5227 6f3e
000002f0: 3e90 b33d e8e3 3abe 49c2 883e defb 463e
00000300: 9e89 a4be 8034 1ebe 2059 e5bd 2580 bebe
00000310: 806b 78bd 4c3b 77be a566 d93d cd22 c7be
00000320: 5b50 38be 62c4 aebe 30b0 853d 406c 8abe
00000330: cdcb a1be fda5 e53d ecba ddbd fe26 b73d
00000340: 806b a1bc 919d 973e 2d24 333e d493 c5be
00000350: 06f1 763e 2839 b1be 0a36 83be 203b f73d
00000360: f44a c6be ba9e 823e a6a1 f03d 2c06 cbbd
00000370: 4f3d af3e b301 35be 699f 86be 30d6 60be
00000380: a941 8d3e 860b 90be b190 e73b 63b1 48be
00000390: d5ec 83be dbb2 cb3e 29c7 723e 7159 173e
000003a0: dd5a dc3e 8415 903e cad0 333e 1edf 7d3e
000003b0: fce4 963e c080 16be ad8b a83e 0ba5 253e
000003c0: 5062 44bd d9e1 183e b34a ccbe 76f5 5f3e
000003d0: 173a c53e b27b 2f3e 3c12 87be 994c 873e
000003e0: abff cfbe d358 5d3e a8df e03e e4cc b2be
000003f0: f0ee ccbd 1f71 4d3e c153 833e 579b c2be

action_linear.weight f4 [256, 259]
-0.037607163 -0.032103516 -0.012508713 0.03851133 -0.037282586 -0.044239864 -0.061531343 0.008330554
-0.008887082 0.051688872 -0.017726876 0.023871608 0.029933952 0.05544649 0.03338261 0.043851316
-0.028354995 -0.0007555336 0.033100918 0.0044180453 0.04438158 0.035968862 0.0044180006 0.062000886
-0.030945785 -0.012045227 -0.04907687 0.03747891 -0.025323547 -0.059622258 0.04040385 -0.044959344
-0.016903304 -0.042392634 -0.06106147 -0.00053831935 -0.028473891 -0.04773903 -0.012509353 0.0028687567
-0.03758169 0.0059397295 -0.0010987222 0.050131343 -0.029596716 -0.015631802 -0.029936843 -0.0011349395
0.052622207 -0.044046342 0.052104734 -0.029629238 -0.0012050122 0.04841628 0.017195545 -0.021621145
0.05023756 -0.02230312 0.011361629 -0.03516426 -0.025157124 -0.004823096 -0.030712068 0.022550106
0.037821233 0.048690043 0.037041128 -0.024057388 -0.013243258 0.01620756 0.030955411 0.0034187809
-0.04298552 0.004608333 -0.0001463294 -0.042593457 0.055842437 0.054347716 0.0232407 -0.03131844
0.0066117495 -0.03278725 -0.0606751 -0.054836914 -0.045649856 -0.037345923 -0.05811999 -0.03095568
0.043819644 -0.0071222186 -0.012481295 0.00258369 0.016943187 0.008806318 0.014371879 0.019180402
-0.033160813 -0.007861108 -0.024589166 -0.00991226 0.012102343 -0.035261072 0.0034953505 0.015675835
0.060383327 -0.06211488 -0.0039730594 0.019891478 0.052350946 0.04688909 0.028462194 0.017020032
-0.0563666 -0.058425568 0.041256614 -0.026042856 -0.03260056 0.0021906048 0.05507671 0.051140748
-0.045649298 -0.0034207702 -0.035262242 0.00810539 0.014526606 0.0010999143 -0.06166859 0.03989914
0.044740915 0.03193426 -0.015443385 -0.0155922845 -0.03325291 -0.020112403 -0.023962662 0.032241546
0.0078689605 -0.012631945 0.0424418 0.00010059029 -0.060132198 -0.06036926 -0.0073444024 -0.051384524
-0.034599498 -0.05546634 0.022365667 0.04400661 -0.06069544 0.013199799 0.059298947 -0.056782395
0.04859273 0.043093644 -0.005013682 0.040171303 -0.026357815 0.032124415 0.037685648 -0.05865059
-0.04973696 -0.02545017 0.00077513605 0.019736163 -0.0031983033 0.019734435 0.0535981 -0.023912884
-0.043688886 -0.054230727 0.058104567 -0.06211491 0.062190548 -0.025223881 0.0019528195 0.044018783
-0.04687918 0.058419548 0.041738927 -0.052513525 0.0612444 0.009675503 0.017403983 0.03593655
0.01860264 -0.025475822 0.043553106 0.006857544 -0.044319876 -0.027861752 -0.05544333 0.005627528
-0.0603725 0.016753934 0.003361635 0.0061754137 -0.019021504 0.020914346 -0.024897851 -0.054683767
0.039743416 -0.04229676 -0.03370352 -0.0043071657 0.034075625 -0.026765421 0.02880285 -0.029677816
-0.0033005476 -0.010142356 -0.051525973 0.021338955 -0.015893318 -0.0064727813 0.030496985 0.048136495
0.053376988 0.005361289 -0.04177256 -0.021466829 -0.030990534 -0.013941079 0.019537523 -0.03801924
0.051259518 -0.047987282 0.055551454 0.020385116 0.016473345 -0.031218529 0.026539586 0.058437444
-0.032757625 0.0009600669 -0.040859476 -0.031461827 -0.034305617 -0.040550202 0.0031866506 -0.06076044
0.052341454 0.023754843 0.02464141 -0.04096614 -0.027777582 0.03576012 0.03216587 0.045890607
-0.015967391 -0.0006732419 -0.016687237 0.025804192 -0.020215861 0.034223378 0.015425108 0.04472577
00000000: f809 1abd fa7e 03bd 58f1 4cbc 0ebe 1d3d
00000010: a0b5 18bd dc34 35bd 4a08 7cbd e07c 083c
00000020: 209b 11bc b6b7 533d f437 91bc 648e c33c
00000030: 0c38 f53c dc1b 633d 34bc 083d 709d 333d
00000040: bc48 e8bc 000f 46ba d494 073d 40c5 903b
00000050: 76c9 353d 1654 133d e0c4 903b a4f4 7d3d
00000060: 0482 fdbc 5859 45bc d404 49bd 7c83 193d
00000070: 5473 cfbc 7836 74bd 827e 253d 4a27 38bd
00000080: cc78 8abc e6a3 2dbd 981b 7abd 001e 0dba
00000090: 1442 e9bc 008a 43bd 08f4 4cbc c001 3c3b
000000a0: 42ef 19bd 10a2 c23b 0003 90ba 8656 4d3d
000000b0: d074 f2bc 440e 80bc 1c3e f5bc 40c2 94ba
000000c0: 628a 573d f069 34bd c66b 553d 04b9 f2bc
000000d0: 80f1 9dba 2650 463d acdd 8c3c d41e b1bc
000000e0: e6c5 4d3d 08b5 b6bc 2026 3a3c 6608 10bd
000000f0: 5016 cebc 100b 9ebb e097 fbbc 00bb b83c
00000100: 70ea 1a3d 366f 473d 70b8 173d 0014 c5bc
00000110: 40fa 58bc b8c5 843c 3496 fd3c a00d 603b
00000120: 9611 30bd 8001 973b 0070 19b9 7a76 2ebd
00000130: 0abb 643d b69b 5e3d 4863 be3c c447 00bd
00000140: 60a7 d83b ec4b 06bd 7486 78bd ac9c 60bd
00000150: 58fb 3abd 0af8 18bd 3a0f 6ebd c496 fdbc
00000160: 3a7c 333d 8061 e9bb 587e 4cbc 2053 293b
00000170: 70cc 8a3c 6048 103c 0878 6b3c 3820 9d3c
00000180: a2d3 07bd e0cb 00bc 386f c9bc 0867 22bc
00000190: e848 463c ea6d 10bd 4012 653b 9c6a 803c
000001a0: 8254 773d 2c6c 7ebd 7030 82bb 74f3 a23c
000001b0: f26d 563d c60e 403d 8c29 e93c 986d 8b3c
000001c0: aae0 66bd a64f 6fbd b2fc 283d d457 d5bc
000001d0: 2a88 05bd 4090 0f3b 1e98 613d f678 513d
000001e0: c2fa 3abd 002f 60bb 246f 10bd 78cc 043c
000001f0: 0001 6e3c 002b 903a 3498 7cbd 486d 233d
00000200: 4042 373d 80cd 023d 4006 7dbc c876 7fbc
00000210: 3434 08bd c4c2 a4bc 584d c4bc b60f 043d
00000220: d0ec 003c 38f6 4ebc 74d7 2d3d 00f4 d238
00000230: 2e4d 76bd c245 77bd 50a9 f0bb 9478 52bd
00000240: 34b8 0dbd ac30 63bd 3438 b73c 4640 343d
00000250: c89b 78bd f843 583c 74e3 723d a894 68bd
00000260: 2c09 473d f682 303d d049 a4bb aa8a 243d
00000270: 58ec d7bc e494 033d 445c 1a3d 9a3b 70bd
00000280: fcb8 4bbd e07c d0bc 8032 4b3a bcad a13c
00000290: a09a 51bb 1caa a13c ae89 5b3d f4e4 c3bc
000002a0: 1ef3 32bd 0a21 5ebd 0eff 6d3d 346c 7ebd
000002b0: 84bb 7e3d 50a2 cebc c0f5 ff3a 0a4d 343d
000002c0: 6204 40bd 5649 6f3d 70f6 2a3d 6c18 57bd
000002d0: 68db 7a3d 0086 1e3c cc92 8e3c 3432 133d
000002e0: 9064 983c acb2 d0bc be64 323d 40b5 e03b
000002f0: c288 35bd 543e e4bc 8c18 63bd 2067 b83b
00000300: 2849 77bd 8c3f 893c e04e 5c3b 205b ca3b
00000310: fcd2 9bbc 9054 ab3c 94f6 cbbc 16fc 5fbd
00000320: fec9 223d 5e3f 2dbd b40c 0abd 2023 8dbb
00000330: e292 0b3d 2843 dbbc f4f3 eb3c e41e f3bc
00000340: 004e 58bb 202c 26bc e60c 53bd 08cf ae3c
00000350: b432 82bc a019 d4bb d0d4 f93c c62a 453d
00000360: d4a1 5a3d c0ad af3b b419 2bbd 34db afbc
00000370: dcdf fdbc 2069 64bc 280d a03c 10ba 1bbd
00000380: 80f5 513d 508e 44bd ec89 633d b0fe a63c
00000390: 1cf3 863c 00be ffbc 8c69 d93c 1a5c 6f3d
000003a0: dc2c 06bd 00ad 7b3a 445c 27bd 1ede 00bd
000003b0: 0c84 0cbd f817 26bd 20d7 503b f0df 78bd
000003c0: fe63 563d 8499 c23c c8dc c93c 1ccc 27bd
000003d0: d08d e3bc 3479 123d 5cc0 033d caf7 3b3d
000003e0: 0cce 82bc 807c 30ba acb3 88bc 5063 d33c
000003f0: bc9b a5bc d02d 0c3d 98b9 7c3c 5e32 373d

action_linear.bias f4 [256]
0.014075778 0.02583237 0.09973116 -0.04674623 0.059253026 0.031866573 0.017084435 0.047525167
-0.018803295 0.04806763 -0.009046282 0.031307533 -0.026811007 0.038132638 0.013576654 0.09105455
-0.02288058 0.0048634904 0.02569835 -0.069289766 0.016241768 -0.009600882 -0.002329628 0.028283825
0.016985623 -0.016174637 -0.012382279 -0.048981182 -0.0053164884 0.019929394 0.084007345 0.03285816
-0.015300744 -0.04094072 -0.0003884224 0.018559763 0.044034485 -0.011876521 -0.025003571 0.09359192
-0.01911399 -0.03586594 0.07592316 -0.017469 -0.0250712 -0.020651605 -0.0123442 0.015314938
0.072942115 0.031235155 -0.022481252 0.074785724 0.0030953959 0.070145346 0.022972643 0.08760576
0.044123437 0.04843214 -0.043364465 0.025342688 0.08735932 0.015827104 0.07645492 -0.058739737
-0.027562605 0.09555345 -0.04413244 0.075076334 -0.022062045 0.060022905 0.06767494 -0.025262035
0.096164495 -0.04314995 -0.02016316 0.009421602 0.07312418 0.02285087 0.053226378 0.056328326
0.095355675 0.040630616 0.011480291 0.07757422 0.04719972 -0.020490007 0.009911016 -0.04887209
0.06979949 -0.016117882 -0.0277659 0.051859494 -0.021793598 -0.034128036 -0.05038038 -0.067266
-0.022779528 -0.027018415 -0.033344038 0.06708439 -0.029542034 0.07731853 -0.051811278 0.04089172
0.049933903 0.049658272 -0.019437153 -0.040331043 0.09249629 0.05317435 -0.012229101 -0.058296945
0.08131926 -0.03865861 0.06692714 0.08646819 0.05365862 0.06930117 0.09095341 0.05523201
0.011211731 0.014858294 -0.016569586 0.079303086 -0.02844074 -0.047263872 -0.0539147 -0.011473462
0.025085483 -0.026162859 0.08364785 0.06904585 0.041091993 -0.010466849 -0.05940052 0.023230894
-0.010559609 0.09629886 0.023673426 0.028102834 -0.018165074 -0.015381587 0.09579997 0.023013841
0.023143763 0.05568617 -0.0062947827 -0.064617485 0.10059148 0.024222983 -0.007136156 -0.027392294
0.085302934 0.021981038 0.020712083 0.029162107 0.06315491 0.026240647 0.023000013 0.028754123
0.031962708 0.0743442 0.01417131 -0.003400377 0.06091627 -0.014809922 0.024083152 0.019110024
0.03063983 0.05292558 -0.053744204 0.07244388 -0.041706808 -0.024396472 0.083971016 0.08970819
-0.02087459 -0.024321292 -0.0022167943 0.040689085 0.01092525 0.09592096 7.2363764e-05 0.081051774
0.060000695 0.02072791 0.04450869 0.09446271 0.058063317 0.043638173 -0.051582813 0.004562147
-0.035719305 0.028018631 0.045037255 0.03025226 0.064522855 0.07233695 0.08678178 -0.012687274
0.07245068 -0.054061327 -0.006135998 0.10039165 -0.016321925 -0.017904432 -0.008631775 0.09644002
-0.045396786 0.037306815 0.008476714 -0.0007664636 0.052945253 -0.06201153 0.047098577 0.08795864
0.027844489 0.013023546 0.077648684 -0.015472906 0.0057977242 0.07926734 0.006117873 0.028869653
-0.039982863 0.023835033 0.07487349 0.028471516 -0.01504612 -0.01863713 -0.023991164 0.049107905
-0.06116928 0.010663252 0.017547555 -0.024613796 0.06945034 -0.02590637 0.08870032 0.022156574
-0.018738141 0.06650301 0.07049109 -0.01552511 0.005276372 -0.024170525 -0.033301525 0.05359121
-0.059367932 -0.0055671306 -0.043430593 -0.018072795 0.065921046 0.07313194 0.023867734 0.02011032
00000000: 189e 663c 689e d33c da3f cc3d fa78 3fbd
00000010: 4db3 723d 8686 023d a8f4 8b3c c0a9 423d
00000020: 5e09 9abc 90e2 443d db36 14bc 543c 003d
00000030: c2a2 dbbc f830 1c3d 9d70 5e3c cf7a ba3d
00000040: 0e70 bbbc ea5d 9f3b 5985 d23c cbe7 8dbd
00000050: 750d 853c 054d 1dbc acac 18bb 7bb3 e73c
00000060: 6f25 8b3c ac80 84bc 0bdf 4abc 7ea0 48bd
00000070: f035 aebb f842 a33c 0b0c ac3d 4796 063d
00000080: f9af 7abc 75b1 27bd 2ca5 cbb9 a50a 983c
00000090: 815d 343d bd95 42bc 4ad4 ccbc 1fad bf3d
000000a0: f194 9cbc 2ae8 12bd 9a7d 9b3d 261b 8fbc
000000b0: 1e62 cdbc 8e2d a9bc 543f 4abc 81eb 7a3c
000000c0: ad62 953d dee0 ff3c 9a2a b8bc 4229 993d
000000d0: 20dc 4a3b 5da8 8f3d 2031 bc3c a66a b33d
000000e0: c7ba 343d c860 463d f09e 31bd 789b cf3c
000000f0: 71e9 b23d d8a7 813c 6694 9c3d 1499 70bd
00000100: f9ca e1bc 87b1 c33d 38c4 34bd 9fc1 993d
00000110: 76bb b4bc 94da 753d 2999 8a3d 54f2 cebc
00000120: e4f1 c43d 01be 30bd 362d a5bc 105d 1a3c
00000130: 21c2 953d bf31 bb3c e703 5a3d 88b8 663d
00000140: d649 c33d 4a6c 263d d517 3c3c 3cdf 9e3d
00000150: 7e54 413d a9da a7bc d061 223c 1a2e 48bd
00000160: 09f3 8e3d a609 84bc 5075 e3bc 9f6a 543d
00000170: 7d88 b2bc d7c9 0bbd a85b 4ebd c2c2 89bd
00000180: 229c babc b955 ddbc c293 08bd 8a63 893d
00000190: 2302 f2bc 2d59 9e3d 1038 54bd 147e 273d
000001a0: 7e87 4c3d 7966 4b3d aa3a 9fbc 2a32 25bd
000001b0: b26e bd3d 59cd 593d 915c 48bc c7c8 6ebd
000001c0: b68a a63d 7e58 1ebd 1911 893d 3c16 b13d
000001d0: 24c9 5b3d c6ed 8d3d c845 ba3d f63a 623d
000001e0: 68b1 373c 3470 733c f1bc 87bc a869 a23d
000001f0: 8efc e8bc c397 41bd a9d5 5cbd 30fb 3bbc
00000200: 1280 cd3c 7e53 d6bc 904f ab3d e967 8d3d
00000210: 1450 283d 267d 2bbc f64d 73bd b74e be3c
00000220: 3602 2dbc 5638 c53d c6ee c13c ea37 e63c
00000230: ecce 94bc 0d03 7cbc c632 c43d 8687 bc3c
00000240: fd97 bd3c 2e17 643d 7744 cebb 2c56 84bd
00000250: e802 ce3d 476f c63c 6ad6 e9bb ce65 e0bc
00000260: 4eb3 ae3d 9411 b43c 63ac a93c 5fe5 ee3c
00000270: 5d57 813d a0f6 d63c 866a bc3c c48d eb3c
00000280: 54eb 023d c641 983d c82e 683c dcd8 5ebb
00000290: 5783 793d 51a5 72bc 084a c53c a08c 9c3c
000002a0: 6100 fb3c 7ec8 583d e222 5cbd 755d 943d
000002b0: c2d4 2abd 1cdb c7bc fff8 ab3d edb8 b73d
000002c0: 3001 abbc 723d c7bc a347 11bb 99a9 263d
000002d0: d2ff 323c 3572 c43d 00c2 9738 79fe a53d
000002e0: 4ac3 753d 94cd a93c be4e 363d aa75 c13d
000002f0: cdd3 6d3d f1bd 323d 8048 53bd 107e 953b
00000300: 684e 12bd 5487 e53c fc78 383d 96d3 f73c
00000310: 8f24 843d 6525 943d a5ba b13d 49de 4fbc
00000320: 0661 943d 696f 5dbd 7b10 c9bb 239a cd3d
00000330: 8fb5 85bc 51ac 92bc 4a6c 0dbc 5882 c53d
00000340: fbf1 39bd 08cf 183d eae1 0a3c 80ec 48ba
00000350: 1fdd 583d cdff 7dbd 70ea 403d a923 b43d
00000360: 201a e43c b660 553c 4606 9f3d 1282 7dbc
00000370: d6fa bd3b ea56 a23d 7078 c83b 0d80 ec3c
00000380: 12c5 23bd b041 c33c 4657 993d 193d e93c
00000390: 0084 76bc e5ac 98bc 1e89 c4bc 5f25 493d
000003a0: a48c 7abd ecb4 2e3c e4bf 8f3c dfa2 c9bc
000003b0: fb3b 8e3d 9839 d4bc 83a8 b53d b481 b53c
000003c0: bb80 99bc bb32 883d a25d 903d 085d 7ebc
000003d0: 6be5 ac3b 4401 c6bc 2e67 08bd 7582 5b3d
000003e0: ca2b 73bd 7a6c b6bb 47e4 31bd 660d 94bc
000003f0: 9d01 873d 33c6 953d 4486 c33c 66be a43c

output_linear.weight f4 [1, 256]
0.0012862999 -0.005773557 -0.038886715 -0.003054375 -0.038011964 -0.028763732 -0.0386574 -0.00095892977
-0.0028091262 -0.03748504 -0.028453005 -0.007966372 -0.0012948039 -0.035095274 -0.036763504 -0.03398335
0.0019729584 -0.037462763 -0.005262144 -0.012229392 -0.0040716515 -0.036961094 -0.04013414 -0.039684348
-0.031220598 0.0016796999 -0.037703786 0.002174716 0.0015194998 0.0005268117 -0.040192623 -0.040030748
-0.03864962 0.006809838 -0.03990827 -0.037991162 -0.04076642 -0.020860005 0.0021992782 -0.037122905
-0.02076038 0.0019156188 -0.037356485 -0.0055598696 0.002856182 -0.005675548 -0.0016523878 -0.00304168
-0.03938378 -0.038797475 -0.03777736 -0.037310548 0.0016090935 -0.03847164 -0.03758416 -0.037667725
-0.03272542 0.0015131291 -0.0013648514 -0.03907261 -0.036747023 -0.0006471444 -0.03760936 -0.0031117012
-0.037596986 -0.03922764 0.0020561763 -0.036574587 -4.7971494e-05 -0.039119463 -0.03786908 -0.0032183118
-0.038019646 -0.0006468352 0.0004872512 -0.0010813926 -0.039849993 -0.03105919 -0.037957635 -0.036911536
-0.037719313 -0.03520859 -0.038794644 -0.02743121 -0.030698642 -0.005415451 0.0013665291 -0.003478448
-0.039115794 -0.002055033 -0.0143989455 -0.038151905 -0.03455202 -0.010476517 -0.00151767 -0.0047553754
0.001672673 -0.035359014 -0.01198142 -0.03703493 -0.0038485625 -0.030485509 0.0019382783 -0.037305444
-0.039238855 -0.0022352983 -0.00048883865 -0.0043189772 -0.038491152 -0.0401581 0.005382774 -0.0047828197
-0.038082954 -0.008539658 -0.031199215 -0.0390464 -0.006619776 -0.035436492 -0.03492211 -0.036383566
0.00082417997 -0.003921165 -0.005420168 -0.036308542 0.0014688494 0.001333951 -0.0042831493 -0.0023409855
-0.03920087 -0.0003098417 -0.034727983 -0.038044736 -0.038297888 -0.038990505 0.00019642967 -0.00556903
-0.037940115 -0.038999356 -0.0071227113 -0.03922733 -0.005075542 -0.034201108 -0.037771665 -0.0097770775
-0.0048261094 -0.0051547107 -0.039258435 -0.0048337164 -0.038995706 -0.039479308 -0.039330643 0.0016506156
-0.035769764 0.0010169293 -0.0035792787 -0.040498357 -0.038289286 -0.030376406 -0.038971785 0.002061083
-0.0026440588 -0.03606834 -0.0009995273 -0.027974958 -0.040496796 -0.036610488 0.0015885769 -0.0055431486
-0.03610452 -0.039684452 -0.0132817235 -0.03956887 -0.011101598 -0.02150256 -0.028935624 -0.034305483
-0.02386277 0.00032057404 -0.0059771882 0.013672145 -0.0394861 -0.035672557 0.0021407478 -0.037134044
-6.1897095e-05 -0.0021493796 -0.040019065 -0.037795465 -0.037432596 -0.038647808 -0.005441496 0.00076559256
-0.0036523077 -0.00089620496 -0.00694094 -0.038755912 -0.035708506 -0.038266145 -0.040263053 -0.039605863
-0.036347356 -0.00042032823 -0.037982408 -0.036513243 -0.038295723 -0.004856239 -0.040218055 -0.03801695
-0.005142282 -0.04394072 -0.03690082 -0.0017046339 -0.0055356757 0.0006993518 -0.005864814 -0.040150356
-0.0002103392 -0.032111287 -0.038554646 -0.0066485084 -0.03916922 -0.035645448 -0.0025242781 -0.040052768
-0.005136051 0.0020055934 -0.037443712 -0.0065490277 0.0011330759 -0.03596806 -0.002527027 -0.039535612
0.0007894868 -0.03808768 -0.0056808935 -0.024383098 -0.03490013 0.0023642718 -0.03810431 0.018012092
-0.0060479953 -0.037977662 -0.03865687 -0.033576645 -0.03809483 -0.0017982145 -0.0014107651 -0.037003744
0.28913972 -0.03848476 -0.001695115 0.0028904774 -0.03664979 -0.04049117 0.00085953996 -0.005007489
00000000: 1099 a83a 1b30 bdbb ad47 1fbd e92b 48bb
00000010: 6fb2 1bbd eba1 ebbc 3957 1ebd b060 7bba
00000020: 5119 38bb ea89 19bd 4716 e9bc 6385 02bc
00000030: 69b6 a9ba 10c0 0fbd 5495 16bd 2032 0bbd
00000040: c04c 013b 8e72 19bd 106e acbb ca5d 48bc
00000050: 7d6b 85bb 8464 17bd b263 24bd 0e8c 22bd
00000060: 57c2 ffbc 6029 dc3a 496f 1abd ae85 0e3b
00000070: f429 c73a bc19 0a3a 05a1 24bd 48f7 23bd
00000080: 104f 1ebd 1025 df3b db76 23bd 9f9c 1bbd
00000090: b1fa 26bd 9ae2 aabc c421 103b 300e 18bd
000000a0: ac11 aabc 8015 fb3a 1d03 19bd 912f b6bb
000000b0: c82e 3b3b f3f9 b9bb ef94 d8ba ec56 47bb
000000c0: e350 21bd 1aea 1ebd 6fbc 1abd f2d2 18bd
000000d0: 38e8 d23a 7094 1dbd d9f1 19bd 7949 1abd
000000e0: 170b 06bd 3054 c63a d0e4 b2ba 9a0a 20bd
000000f0: 0c84 16bd 20a5 29ba 460c 1abd afed 4bbb
00000100: 4cff 19bd 29ad 20bd eac0 063b 3ccf 15bd
00000110: 0035 49b8 bb3b 20bd 9c1c 1bbd 50ea 52bb
00000120: 7dba 1bbd 6090 29ba c075 ff39 84bd 8dba
00000130: bf39 23bd d86f febc 7779 1bbd 8d30 17bd
00000140: 917f 1abd e236 10bd 22e7 1ebd 6bb7 e0bc
00000150: b87b fbbc 1874 b1bb 1c1d b33a acf6 63bb
00000160: e237 20bd bcad 06bb 8ee9 6bbc 2c45 1cbd
00000170: 6b86 0dbd b2a5 2bbc 8eec c6ba fbd2 9bbb
00000180: 983d db3a 9dd4 10bd b84d 44bc f0b1 17bd
00000190: 2a38 7cbb bfbc f9bc d40d fe3a 98cd 18bd
000001a0: ecb8 20bd 157e 12bb 6825 00ba 3586 8dbb
000001b0: e6a8 1dbd d27c 24bd fb61 b03b 33b9 9cbb
000001c0: dffc 1bbd ece9 0bbc 7f95 ffbc 1eef 1fbd
000001d0: b5ea d8bb db25 11bd 7d0a 0fbd ef06 15bd
000001e0: c80d 583a 1e7d 80bb aa9b b1bb 44b8 14bd
000001f0: 6886 c03a f8d7 ae3a a959 8cbb 386b 19bb
00000200: 1791 20bd 4072 a2b9 ee3e 0ebd ccd4 1bbd
00000210: 3fde 1cbd 82b4 1fbd b0f8 4d39 697c b6bb
00000220: 1867 1bbd cabd 1fbd a265 e9bb d6ac 20bd
00000230: bb50 a6bb 7616 0cbd 76b6 1abd 0930 20bc
00000240: 5724 9ebb d9e8 a8bb 74cd 20bd 2764 9ebb
00000250: f6b9 1fbd 0eb5 21bd 2b19 21bd 7859 d83a
00000260: 5183 12bd 7c4a 853a 5592 6abb 9be1 25bd
00000270: 3ad5 1cbd f1d7 f8bc e1a0 1fbd 3c13 073b
00000280: f247 2dbb 65bc 13bd 9202 83ba bd2b e5bc
00000290: f8df 25bd e1f4 15bd cc37 d03a 4da3 b5bb
000002a0: 55e2 13bd 2a8c 22bd 969b 59bc f812 22bd
000002b0: 7ae3 35bc 2326 b0bc 670a edbc e883 0cbd
000002c0: db7b c3bc b812 a839 4adc c3bb 2201 603c
000002d0: 2dbc 21bd 631d 12bd ca4b 0c3b de19 18bd
000002e0: c0ce 81b8 9bdc 0cbb 08eb 23bd 6bcf 1abd
000002f0: ec52 19bd 2a4d 1ebd 944e b2bb 0cb2 483a
00000300: 8e5b 6fbb 4cef 6aba d370 e3bb 85be 1ebd
00000310: 1543 12bd f6bc 1cbd dfea 24bd c239 22bd
00000320: f7e0 14bd 805f dcb9 7193 1bbd e98e 15bd
00000330: fadb 1cbd 1621 9fbb b0bb 24bd a9b7 1bbd
00000340: 9780 a8bb 2ffb 33bd 5025 17bd 066e dfba
00000350: 9d64 b5bb b454 373a a02d c0bb b374 24bd
00000360: 808e 5cb9 2087 03bd 7aeb 1dbd bbdb d9bb
00000370: e76f 20bd f600 12bd 5c6e 25bb 5f0e 24bd
00000380: 524c a8bb 4670 033b 945e 19bd 3a99 d6bb
00000390: b883 943a 3f53 13bd 7a9c 25bb 18f0 21bd
000003a0: 90f5 4e3a d401 1cbd ca26 babb 10bf c7bc
000003b0: 70f3 0ebd e6f1 1a3b 4413 1cbd 188e 933c
000003c0: 432e c6bb 778e 1bbd ab56 1ebd aa87 09bd
000003d0: 5309 1cbd 11b2 ebba 6ce9 b8ba 3d91 17bd
000003e0: 1f0a 943e 32a2 1dbd 9f2e deba 2a6e 3d3b
000003f0: 171e 16bd 12da 25bd c052 613a dd15 a4bb
