examples/player_template_py/models/critic.pkl (torch, 276895 bytes, 5 tensors)

input_linear.weight f4 [256, 6]
0	0x3cfef188	0.03112103
1	0xbd7602de	-0.060061328
2	0xbd3c19b6	-0.045922957
3	0xbd54154a	-0.051778115
4	0xbd313aa2	-0.043268807
5	0x39934700	0.00028090924
6	0x3d2b6732	0.04184646
7	0xbccceda4	-0.02501566
8	0xbd3dcfda	-0.0463408
9	0xbbe52fa0	-0.0069942027
10	0xbc61f108	-0.0137903765
11	0xbaa6fd80	-0.0012740344
12	0x3ccd9c10	0.02509883
13	0xbae29940	-0.0017288104
14	0xbb264ec0	-0.0025376529
15	0x3d319692	0.043356486
16	0xbd26cf98	-0.04072532
17	0x3d49d886	0.04927876
18	0x3d921214	0.071323544
19	0x3dd54940	0.10414362
20	0xbc4d70c5	-0.012539093
21	0x3d2a7676	0.04161688
22	0xbddecf3a	-0.10879369
23	0x3df16efa	0.11788745
24	0x3d60e76a	0.054908194
25	0xbb5dc960	-0.0033841953
26	0x3c1c7ef8	0.009551756
27	0xbca3445c	-0.019930057
28	0xbd162c4a	-0.03666333
29	0xbcf80db8	-0.03027998
30	0x3d014c02	0.031566627
31	0xbcc3490c	-0.023838542
32	0x3b7dd820	0.0038733557
33	0xbca4f2a8	-0.020135239
34	0x3c663388	0.014050372
35	0x3d4a1e34	0.04934521
36	0x3b847355	0.004042069
37	0x3db9ef14	0.09078804
38	0xb90354e1	-0.00012524753
39	0x3e0492f4	0.12946683
40	0xbdbc8fce	-0.09207116
41	0x3d11a54f	0.03555804
42	0xbbe1dd10	-0.006892808
43	0x3d2e5314	0.0425597
44	0xbca66fc8	-0.020316973
45	0xbccc1d20	-0.024916232
46	0x3b276f20	0.0025548413
47	0xbc85ff2c	-0.016357027
48	0x3cf2fd5c	0.029661827
49	0xbd6ede5c	-0.058317527
50	0x3d2721be	0.040803663
51	0xbcaa27a0	-0.020770848
52	0x3c800c70	0.01563093
53	0x3b6375a0	0.003470756
54	0xbcafa371	-0.02144024
55	0x3e09ccdc	0.13457054
56	0x3d187d36	0.037228785
57	0x3d625048	0.055252343
58	0xbde03eba	-0.10949464
59	0x3c0ab9b9	0.008467131
60	0x3c05c760	0.0081652105
61	0x3d8e3eaa	0.06945546
62	0x3dba4f5c	0.09097168
63	0x3c034b6b	0.0080135865
64	0xbd97bfce	-0.07409631
65	0x3dcd8093	0.10034289
66	0xbdcecc1d	-0.10097525
67	0x3e09bea4	0.1345163
68	0x3e822ad8	0.25423312
69	0x3fc4c03a	1.5371163
70	0xbdd79853	-0.105271004
71	0x3d4ffed8	0.050780147
72	0x3d602fc5	0.054733057
73	0x3d8399f0	0.064258456
74	0x3cbe7890	0.023250848
75	0x3e16f422	0.14741567
76	0xbd2b0b28	-0.041758686
77	0x3d3539e4	0.044244662
78	0xbd4c85a8	-0.049932152
79	0x3d1e3336	0.038623057
80	0xbd28433a	-0.041079737
81	0x3c340a88	0.010988839
82	0xbc4b5a28	-0.012411632
83	0xbccf4e00	-0.025305748
84	0x3db2cfdb	0.087310515
85	0x3d9b399c	0.075793475
86	0x3db347a6	0.087539
87	0xbda9d2c6	-0.08292155
88	0x3bed23c9	0.007236932
89	0x3dada508	0.08478743
90	0x3cf22874	0.029560305
91	0xbc03a6e8	-0.008035399
92	0x3d0f27ea	0.034950174
93	0x3d6397b2	0.05556459
94	0xbd584d98	-0.052808374
95	0x3999f000	0.00029361248
96	0xbd568500	-0.052372932
97	0x3c0e20c0	0.0086748
98	0x3cba59a8	0.02274783
99	0x3d6c1298	0.05763492
100	0x3c6b8740	0.014375508
101	0xbb9780f0	-0.004623525
102	0xbd22e202	-0.03976632
103	0x3cc283ba	0.023744453
104	0x3d1def2b	0.038558166
105	0xbcc2a70f	-0.0237613
106	0xbd97f525	-0.074198045
107	0xbcdebd6b	-0.02718993
108	0x3e74af4f	0.23895
109	0x3d389d3a	0.045071818
110	0xbe8f6a23	-0.28010663
111	0xbfcb2ea4	-1.5873609
112	0xbcf997ae	-0.030467834
113	0x3d5216ad	0.051291157
114	0xbec9f04e	-0.3944115
115	0xbf7d155e	-0.9886073
116	0xbf438a2b	-0.763827
117	0x404c2c39	3.1901991
118	0x3f807a0a	1.0037243
119	0xbdab2100	-0.083559036
120	0x3c9989af	0.01874241
121	0x3d96a54a	0.07355745
122	0x3d9c22b9	0.0762381
123	0x3e901a92	0.28145272
124	0xbd1b979d	-0.037986387
125	0x3d5a72a4	0.053331986
126	0xbd5caf30	-0.05387801
127	0xbc7897b8	-0.015172891
128	0xbd7887b2	-0.060676284
129	0x3cd094d8	0.0254616
130	0xbd449692	-0.047995158
131	0x3cfe125c	0.031014614
132	0x3cc6a704	0.024249561
133	0x3e3be5d1	0.18349387
134	0x3e491202	0.19635776
135	0x3f3a72fe	0.72831714
136	0xbe2a67b7	-0.16641127
137	0x3e255d70	0.16148925
138	0x3d8bb67f	0.06821918
139	0x3db62c18	0.08895129
140	0x3d91e454	0.07123628
141	0xbc80d552	-0.015726719
142	0xbdf95030	-0.12173498
143	0x3c93147b	0.017954102
144	0xbce9b88b	-0.02853038
145	0x3dad02c6	0.084477946
146	0x3d919e55	0.071102776
147	0x3e6f6651	0.23378874
148	0x3b62bf50	0.0034598894
149	0x3d4acb21	0.049510125
150	0x3df5f5da	0.12009783
151	0x3d9ca83d	0.076492764
152	0x3b781ce9	0.0037859029
153	0x3e15ad07	0.14616786
154	0xbdc27a95	-0.09496037
155	0x3d87ec23	0.066368364
156	0x3dbf6ec5	0.093472995
157	0x3d843421	0.06455255
158	0xbd857659	-0.06516714
159	0x3e19433c	0.14967054
160	0x3d304eac	0.043043777
161	0x3dcf4364	0.101202756
162	0x3d68d99c	0.056848153
163	0x3d493532	0.049122997
164	0xbc89add8	-0.016806528
165	0xbd0a4122	-0.03375352
166	0xbacd5680	-0.0015666038
167	0xbd1c0d40	-0.038098574
168	0x3be83d70	0.007087402
169	0xbc0352c0	-0.008015335
170	0x3be349b0	0.0069362745
171	0xbcb01f5c	-0.021499328
172	0x3d4800ba	0.048828818
173	0xbc340730	-0.010988042
174	0x3c8af4ac	0.016962372
175	0x3ad89e80	0.0016526729
176	0x3c0509f8	0.0081200525
177	0x3d5bf9c6	0.053705
178	0xbc17d338	-0.009266667
179	0x3d1ea89c	0.038735017
180	0xbe742f94	-0.23846275
181	0x3e709e02	0.23497775
182	0x3e360270	0.17774367
183	0x3fda130e	1.7037065
184	0xbe630914	-0.22171432
185	0xbdbb78dd	-0.09153912
186	0x3db7fa45	0.08983282
187	0x3dc9d2dd	0.09854672
188	0x3db57a00	0.0886116
189	0x3da333e0	0.07968879
190	0xbd1479b9	-0.036248896
191	0x3d8f31a2	0.069918886
192	0x3d3c1324	0.04591669
193	0x3cd3ea88	0.02586867
194	0xba559f80	-0.00081490725
195	0x3cdea924	0.027180262
196	0xbc6e35d8	-0.014539205
197	0x3c4c21d0	0.012459233
198	0x3d1b08f0	0.03785032
199	0x3ceb94bf	0.028757451
200	0x3d9c19ce	0.07622109
201	0x3e9cfd34	0.3066193
202	0xbda005ef	-0.07813632
203	0x3dd630dd	0.10458539
204	0x3e0e8d02	0.13920978
205	0xbbe4096f	-0.0069591324
206	0xbe6a90df	-0.22906826
207	0xbfc1a8cd	-1.5129639
208	0xbdac9e32	-0.08428611
209	0x3e0fc425	0.14039667
210	0x3d327ba0	0.04357493
211	0x3dbb5233	0.09146538
212	0x3da9a25d	0.082829215
213	0x3e0be40b	0.1366121
214	0xbc07a88f	-0.008279934
215	0x3dc3453b	0.09534689
216	0xbd6b4926	-0.057442807
217	0x3d2f61b8	0.0428178
218	0x3c656c28	0.014002837
219	0x3c6a6600	0.014306545
220	0xbd383b0e	-0.044978194
221	0x3ceba54c	0.028765343
222	0x3d13122c	0.035906002
223	0x3c6c387f	0.014417767
224	0x3d2ef596	0.042714678
225	0x3e3d053c	0.18459028
226	0xbd4de30c	-0.050265357
227	0x3dcbcbca	0.09950979
228	0x3d00496e	0.031320028
229	0x3d14e432	0.036350437
230	0xbd4ce8f4	-0.05002685
231	0x3d5e8ff0	0.05433649
232	0xbc069a70	-0.008215532
233	0x3c7e7b48	0.015532322
234	0x3d8b6525	0.06806401
235	0x3d01b802	0.031669624
236	0xbe5a35be	-0.21309564
237	0xbe8926d9	-0.2678745
238	0x3ac02f30	0.00146625
239	0x3da3781f	0.07981896
240	0xbd6d343e	-0.05791115
241	0xbc86a048	-0.01643385
242	0x3d71b3ec	0.059009477
243	0xbc331680	-0.010930657
244	0xbd7787c2	-0.060432203
245	0xbd36ab0e	-0.044596724
246	0x3dcd7be0	0.10033393
247	0x3d9215b0	0.07133043
248	0xbcf44382	-0.029817346
249	0x3e849756	0.2589671
250	0xbc15930c	-0.009129297
251	0x3de9728c	0.11398801
252	0x3ca3b018	0.019981429
253	0xbd1858e6	-0.037194155
254	0xbc388a80	-0.01126349
255	0xbd14adc0	-0.036298513

input_linear.bias f4 [256]
0	0xbe9891b7	-0.29798672
1	0xbe1120fc	-0.14172739
2	0xbea20f0c	-0.31652105
3	0x3e94f305	0.2909166
4	0xbe7688a6	-0.24075565
5	0xbec9cd26	-0.39414328
6	0x3eb9387f	0.36175916
7	0xbe162bcc	-0.14665145
8	0xbe188be0	-0.14897108
9	0x3eca4233	0.3950363
10	0x3ea3c0ac	0.31982934
11	0x3dd92170	0.10602081
12	0x3ea1cd32	0.31601864
13	0xbeba738d	-0.36416283
14	0x3e19026b	0.14942329
15	0xbe3b69af	-0.18302034
16	0xbe5f6c26	-0.21818599
17	0x3e5dac9d	0.21647878
18	0x3e10ad0f	0.14128517
19	0xbe3d93c8	-0.18513405
20	0x3ecac249	0.39601353
21	0xbe2f3fbf	-0.17114161
22	0x3d81eb3e	0.06343697
23	0x3ed6826f	0.41896388
24	0x3ed3e3d8	0.41384768
25	0x3ec8bbf7	0.39205906
26	0x3ef89342	0.4854985
27	0xbe93ce61	-0.28868392
28	0xbea71c9c	-0.32639015
29	0xbe734852	-0.23758057
30	0x3e1a77a7	0.15084706
31	0x3ebdffc3	0.37109193
32	0xbe7b1329	-0.24519028
33	0x3edb6cb4	0.4285637
34	0x3e1fb079	0.15594663
35	0x3eda71b1	0.42664865
36	0xbdc6219c	-0.09674379
37	0x3ea9c819	0.33160475
38	0xbeb2e204	-0.3493806
39	0x3e2868b5	0.16446193
40	0xbd2dfff8	-0.04248044
41	0x3e934853	0.28766116
42	0xbea5d86a	-0.32391673
43	0xbecd58f6	-0.40106934
44	0x3e93572a	0.28777438
45	0x3e299319	0.1656002
46	0x3eafc7c6	0.34332103
47	0x3e9b618f	0.3034787
48	0x3e359826	0.17733821
49	0x3eabc98f	0.33552215
50	0x3e331bc1	0.17491056
51	0xbd8cb7e8	-0.06871015
52	0xbe6b2090	-0.2296164
53	0x3e8e030c	0.277367
54	0x3eb14306	0.34621447
55	0xbe13003c	-0.14355558
56	0x3d63e82a	0.05564133
57	0x3e50eae4	0.20402104
58	0x3e634a2c	0.22196263
59	0x3ed2d956	0.4118144
60	0x3d774616	0.060369574
61	0x3e387dfb	0.18016808
62	0x3ee65468	0.44986272
63	0x3e8e0ee3	0.27745733
64	0xbebd6d63	-0.36997518
65	0xbd2c8afb	-0.04212473
66	0x3eff6251	0.49879697
67	0x3ee8acbb	0.45444283
68	0xbdd1a318	-0.10236186
69	0xbdbcdf60	-0.09222293
70	0xbe4eee91	-0.20208193
71	0xbdd82c4c	-0.10555324
72	0x3eaec2b9	0.34132937
73	0xbe46730b	-0.19379823
74	0x3eec50c2	0.46155363
75	0xbdd92a20	-0.10603738
76	0xbe5c3d9b	-0.21507876
77	0xbc1c6dca	-0.00954766
78	0x3e8c4089	0.27392986
79	0x3dfa2841	0.12214709
80	0xbec018d2	-0.37518936
81	0x3e748921	0.23880436
82	0xbe40ba08	-0.18820965
83	0x3ed4f7a4	0.41595185
84	0x3ea82581	0.32841113
85	0xbd68ef08	-0.056868583
86	0xbeb40318	-0.3515861
87	0x3eb734d6	0.35782498
88	0xbe6a6ca1	-0.22893001
89	0x3e9003cf	0.28127906
90	0x3e09980f	0.13436912
91	0x3ec7fd4e	0.39060444
92	0xbdd0c4ac	-0.10193762
93	0xbce79382	-0.02826858
94	0xbe9cfa87	-0.30659887
95	0x3e9185a3	0.2842227
96	0xbe7bfb6e	-0.24607632
97	0xbda4b2d0	-0.08041918
98	0xbecd9f00	-0.4016037
99	0xbebeac3e	-0.37240785
100	0x3ea6f1e8	0.32606435
101	0xbec5e6d8	-0.38652682
102	0x3ed28572	0.41117436
103	0xbd4da5e9	-0.050207052
104	0x3ebb5940	0.3659153
105	0xbe449fe8	-0.19201624
106	0x3eea20a8	0.4572804
107	0xbdee9f18	-0.116514385
108	0xbdbad5c4	-0.09122804
109	0xbd4efe5e	-0.050535552
110	0x3ea0c7c0	0.31402397
111	0x3efdde0c	0.4958347
112	0xbe915656	-0.28386182
113	0x3eeb3347	0.4593756
114	0x3e0689f2	0.1313856
115	0xbe2f820c	-0.17139453
116	0x3ea90d6e	0.3301806
117	0xbe1be824	-0.15225273
118	0x3ee95ca1	0.45578483
119	0x3e7980eb	0.24365585
120	0xbd0c9bba	-0.0343282
121	0x3e2fd214	0.17169982
122	0xbea26564	-0.3171798
123	0xbebc311f	-0.36756226
124	0xbe3ef267	-0.18647157
125	0x3ee21b1d	0.4416131
126	0x3ef58c34	0.4795853
127	0x3ebb0d8b	0.3653377
128	0x3e21db0a	0.15806213
129	0xbe45b686	-0.19307908
130	0xbdf00cee	-0.11721216
131	0x3e69790e	0.22800085
132	0xbe9e8ec7	-0.30968305
133	0x3d952207	0.07281881
134	0xbe0620b2	-0.1309841
135	0x3ef484c2	0.47757536
136	0x3d4a77dd	0.049430717
137	0x3ec40d12	0.38291222
138	0xbe062964	-0.13101727
139	0xbe96173c	-0.293146
140	0xbea0ec63	-0.3143035
141	0xbe924556	-0.28568524
142	0x3e2630ad	0.16229506
143	0x3ec6dd88	0.3884089
144	0x3eafddfd	0.3434905
145	0xbe4863d8	-0.19569337
146	0x3e24e3b7	0.16102491
147	0xbebc7b0c	-0.36812627
148	0xbea7ce16	-0.3277442
149	0xbccd5dc2	-0.025069121
150	0xbb9d3d1a	-0.0047985436
151	0xbe53e3e0	-0.20692396
152	0xbe91a099	-0.2844284
153	0xbe96acda	-0.2942875
154	0x3d808f2f	0.0627731
155	0xbe83f04e	-0.25769275
156	0xbe288d73	-0.16460209
157	0x3eb02d07	0.34409353
158	0xbdd94490	-0.106087804
159	0x3ddf2e8d	0.10897551
160	0xbea24faf	-0.3170142
161	0xbec3ad43	-0.38218126
162	0x3eba9b15	0.36446443
163	0x3ecd544d	0.4010338
164	0x3dcb3f1f	0.09924149
165	0xbeac7f02	-0.3369065
166	0xbe8274d1	-0.2547975
167	0x3e44309e	0.19159171
168	0xbea7f8f4	-0.32807124
169	0xbebd3886	-0.36957186
170	0x3ef27192	0.47352272
171	0xbecc70b3	-0.39929733
172	0xbec7075f	-0.3887281
173	0x3d96b658	0.07358998
174	0xbd986b20	-0.074423075
175	0x3eb7b7a8	0.35882306
176	0xbe961108	-0.2930987
177	0xbe627a4a	-0.22116962
178	0x3eb31a80	0.34981155
179	0x3d4cdca3	0.050015103
180	0xbe275c38	-0.16343772
181	0xbce12156	-0.027481716
182	0xbea9a736	-0.33135384
183	0xbe597a26	-0.21238002
184	0x3e62c6dc	0.22146171
185	0x3e15fed2	0.14647987
186	0xbebe59be	-0.37177843
187	0xbea3c18c	-0.31983602
188	0xbe0807a4	-0.13284165
189	0xbe0c703c	-0.13714689
190	0x3ec26853	0.37970218
191	0xbdde6184	-0.108584434
192	0x3ef3c5a8	0.47611737
193	0x3ee5c4bf	0.44876668
194	0x3e821d12	0.25412804
195	0x3e4c524f	0.19953273
196	0xbe8b5c7a	-0.27218992
197	0x3d768aaf	0.060190853
198	0x3c34da73	0.0110384105
199	0x3eade671	0.33964875
200	0xbe98c2f4	-0.29836237
201	0xbe368269	-0.17823185
202	0xbd6ad200	-0.057329178
203	0xbe005ffe	-0.12536618
204	0x3ec4d43e	0.38443178
205	0x3ee9c65a	0.45659143
206	0xbeaa2905	-0.3323442
207	0x3e993d5a	0.2992962
208	0x3e91c5f1	0.2847133
209	0xbdb405b4	-0.0879015
210	0x3d75bc80	0.05999422
211	0xbe8b4ba4	-0.27206147
212	0xbe17beda	-0.14818898
213	0xbe9e7822	-0.3095103
214	0x3ec39276	0.38197678
215	0x3ecd2de6	0.4007408
216	0x3deee3b5	0.116645254
217	0xbeb61c00	-0.35568237
218	0x3eac23eb	0.33621153
219	0x3ec88141	0.39161113
220	0x3dc9c66a	0.098522976
221	0xbe8c4ec8	-0.27403855
222	0xbe11b462	-0.14228967
223	0x3e955a7a	0.2917059
224	0xbd455327	-0.048175003
225	0x3ec9eb35	0.3943726
226	0xbe7461b1	-0.23865391
227	0xbdb2288c	-0.0869914
228	0x3e08a2cc	0.13343352
229	0xbeb04aa8	-0.34431958
230	0xbd8a17f4	-0.0674285
231	0x3e9afd00	0.3027115
232	0xbe60f227	-0.21967374
233	0x3e3b7c6f	0.18309186
234	0x3d5e6744	0.0542977
235	0x3db7d1f5	0.08975593
236	0x3efb25a9	0.4905217
237	0x3e880944	0.2656957
238	0x3e0737df	0.13204907
239	0xbe902ef6	-0.28160828
240	0xbe834324	-0.25637162
241	0x3e1cbddf	0.15306805
242	0xbd9e5c93	-0.07732501
243	0x3e1d4539	0.15358438
244	0xbe29f97d	-0.16599078
245	0x3df7e698	0.12104529
246	0xbd9f0566	-0.077647015
247	0x3e0e8156	0.13916525
248	0x3e46edb4	0.19426614
249	0x3e2b7493	0.16743688
250	0xbe1fe958	-0.15616357
251	0x3d2f6a02	0.042825706
252	0xbcf8da50	-0.030377537
253	0xbdaf8b54	-0.085714966
254	0xbe513d9c	-0.20433658
255	0x3e5399aa	0.20664087

action_linear.weight f4 [256, 259]
0	0xbc96f344	-0.018426545
1	0x3d53a9b6	0.05167552
2	0xbd420e82	-0.047377117
3	0x3c1cf3c3	0.009579602
4	0x3c96e928	0.018421724
5	0x3cc0bd88	0.023527876
6	0x3d26a1a4	0.040681496
7	0x3d2a7b72	0.041621633
8	0xbd648bea	-0.055797495
9	0x3cc439a7	0.023953272
10	0x3cc12190	0.023575574
11	0xbebdafd3	-0.37048206
12	0xbda3ddd5	-0.080012955
13	0x3cd891e0	0.026436746
14	0x3d9380d7	0.072023086
15	0xbc4cea20	-0.012506992
16	0xbd317746	-0.04332664
17	0xbd4c7ee0	-0.049925685
18	0x3f351de3	0.7074873
19	0xc0333153	-2.7998855
20	0xbcf1df76	-0.0295255
21	0xbbfef700	-0.0077809095
22	0xbd4ee5d0	-0.050512135
23	0x3d900f70	0.070341945
24	0xbe1b56f8	-0.15169895
25	0x3d09eb70	0.033671796
26	0xbc9213f0	-0.017831773
27	0xbcc423ac	-0.02394279
28	0xbc8419fc	-0.016125672
29	0x3c9e7d98	0.019346997
30	0xc0046820	-2.0688553
31	0x3bd3d29b	0.006464315
32	0xbb8d5950	-0.0043136254
33	0xbdfd96b9	-0.12382264
34	0x3f092f31	0.53587633
35	0x3cdca7d8	0.026935503
36	0xbc8202dc	-0.015870504
37	0xbd24bcbe	-0.04021906
38	0xbd5a64a0	-0.05331862
39	0x3e102bfb	0.14079277
40	0x3d2bbe26	0.041929387
41	0xbd4b4863	-0.04962958
42	0xbc0e9730	-0.008703038
43	0x3d499c0a	0.049221076
44	0xbfd1a877	-1.6379536
45	0xbe0c9f28	-0.13732588
46	0xbd515b63	-0.051112544
47	0x3d1f676f	0.038917
48	0x3d0dbe21	0.03460515
49	0xbd6e555d	-0.058186878
50	0x3f0b21a2	0.54348195
51	0xbd0c1014	-0.03419502
52	0x3d44576c	0.047934934
53	0x3d8c3be8	0.06847364
54	0x3ba3fe00	0.0050046444
55	0xbd1af08c	-0.03782706
56	0xc0867842	-4.20218
57	0x39d87eb7	0.0004129314
58	0xbc0c6039	-0.008567863
59	0x3d87dfd5	0.066344894
60	0x3c9dbff7	0.019256575
61	0xbd98f9e4	-0.07469538
62	0x3b520a27	0.0032049508
63	0x3c1ef3ba	0.009701664
64	0xbd3bdf20	-0.045867085
65	0x3d32f174	0.0436873
66	0xbd46dfb6	-0.04855319
67	0x3d856988	0.06514269
68	0x3d4fc19c	0.05072175
69	0x3d18fa30	0.037347972
70	0x3bc5bfc0	0.0060348213
71	0x3d535342	0.051593073
72	0x3b1a7957	0.002357086
73	0xbc5d77f0	-0.013517365
74	0x3b1ddb0b	0.0024086859
75	0xbc0cf3e8	-0.008603074
76	0x3d611cd4	0.054959133
77	0x3f5fcdad	0.8742321
78	0x3d356aac	0.044291183
79	0xbea6b727	-0.3256161
80	0xbcf9bec8	-0.03048648
81	0x3f023df8	0.50875807
82	0xbbeca160	-0.007221386
83	0x3d63ff3e	0.05566334
84	0xbcadff0d	-0.021239782
85	0x3ce7997c	0.02827143
86	0x3d6b694c	0.057473466
87	0xbe1ae8c8	-0.15127861
88	0xbd289974	-0.04116197
89	0x3d374c8d	0.04475074
90	0xbed810a5	-0.422002
91	0xbd903a1e	-0.07042335
92	0x3d40961c	0.047018155
93	0x3d62f282	0.055407055
94	0x3cb6e8e8	0.022327855
95	0xbed4c3fd	-0.41555777
96	0xbd641b46	-0.055690072
97	0x3fa731b9	1.3062049
98	0x3bde6eb0	0.0067880973
99	0xbb6d4740	-0.0036205798
100	0x3d0f0fb5	0.03492709
101	0x3d393b22	0.04522241
102	0x3d9350ee	0.071931705
103	0xbc991d70	-0.018690795
104	0xbd1b666b	-0.03793947
105	0xbd2fd114	-0.042924
106	0xbd9c555f	-0.07633471
107	0xbc045220	-0.008076221
108	0xbd6637a4	-0.056205407
109	0x3c5ce709	0.013482817
110	0xbdf4e930	-0.119585395
111	0xbd6993ea	-0.057025827
112	0xbc55c238	-0.013046794
113	0xbd047371	-0.032336656
114	0xbdc9796a	-0.09837611
115	0x3ce259ac	0.02763065
116	0xbb8ce48d	-0.0042997063
117	0x39777000	0.00023597479
118	0xbd02bf97	-0.031920996
119	0xbe0f2d69	-0.13982166
120	0xbcc155e8	-0.023600534
121	0xbdcb11b5	-0.09915487
122	0xbd5ab48c	-0.05339484
123	0x3d12fb04	0.03588392
124	0xbd005970	-0.031335294
125	0xbc8a1852	-0.0168573
126	0x3bb846f0	0.005623691
127	0xbb85f963	-0.004088567
128	0x3f40b807	0.75280803
129	0xbbd3aa30	-0.006459497
130	0x3d5af9e4	0.05346097
131	0x3e177a13	0.14792661
132	0x3cb12fc0	0.021629214
133	0xbf70f5f8	-0.9412532
134	0x3fbc2b0e	1.4700639
135	0x3d31b142	0.043381937
136	0xbdb08a7b	-0.08620163
137	0xbcc40808	-0.02392961
138	0xbcfd5394	-0.030923642
139	0x3d5eb894	0.054375246
140	0xbd64234a	-0.055697717
141	0x3b009860	0.0019622073
142	0xbe196c4a	-0.14982715
143	0xbdf8569d	-0.12125895
144	0xbc851ec4	-0.016250022
145	0x3d357ef8	0.04431054
146	0x3aea1510	0.001785906
147	0x3d6539d0	0.055963337
148	0xbd333408	-0.043750793
149	0xbe9f6e81	-0.31138995
150	0xbe54eb00	-0.2079277
151	0xbd6c7a0e	-0.057733588
152	0x3d265a04	0.04061319
153	0x3cbd651c	0.023119502
154	0xbed003e8	-0.4062798
155	0x3d2f976e	0.042869024
156	0xbc16d240	-0.009205401
157	0x3d8acedc	0.067777365
158	0xbc29c9a0	-0.010363013
159	0x3ca1e14a	0.019760747
160	0x3ca1f484	0.019769914
161	0x3d7a9822	0.06118024
162	0xbc0644bc	-0.0081950985
163	0xbe786f55	-0.2426122
164	0x3e34175c	0.17587036
165	0xbc4deee8	-0.012569167
166	0xbcef7ca0	-0.02923423
167	0x3e052066	0.1300064
168	0xbcc51e20	-0.024062216
169	0xbd1cae0a	-0.038251914
170	0xbe427aea	-0.189922
171	0x3d6ffe3c	0.058592066
172	0x3cbd4260	0.02310294
173	0xbe726b1f	-0.23673676
174	0xbca1b0ec	-0.019737683
175	0xbdc07c13	-0.09398665
176	0x3ba5cdb0	0.0050599203
177	0xbc94be34	-0.018157102
178	0x3cdfaa2f	0.02730283
179	0x3d90dca1	0.070733316
180	0x3bd54a30	0.006509088
181	0xbe01e81a	-0.12686196
182	0x3d681c76	0.056667767
183	0xbca009b8	-0.019535884
184	0x3c47e563	0.012200686
185	0x3bfd46de	0.0077293953
186	0xbd21750a	-0.039418258
187	0xbd20d3f4	-0.039264634
188	0x3d347772	0.044059224
189	0x3d2a73bc	0.04161428
190	0xbd981f61	-0.0742786
191	0x3c755e50	0.014976099
192	0x3cbdae5a	0.023154426
193	0x3d63d299	0.055620763
194	0xbde80dbc	-0.113307446
195	0x3df5adf4	0.119960696
196	0x3ce4dc44	0.027937062
197	0xbf08153b	-0.53157395
198	0xbdf41e8e	-0.1191989
199	0x3c71cc80	0.014758229
200	0xbd7bcc82	-0.06147433
201	0x3d7df96e	0.062005453
202	0xbd52bdce	-0.051450543
203	0xbc6bcf80	-0.014392734
204	0xbe596c0f	-0.21232627
205	0xbd0b289e	-0.033974282
206	0xbd5b2b88	-0.05350831
207	0x3d404316	0.046938978
208	0xbd27444d	-0.04083662
209	0xbd6a1e40	-0.057157755
210	0xbeae8b20	-0.3409052
211	0xbd6820ac	-0.056671783
212	0xbcb1694c	-0.021656655
213	0x3d484c14	0.04890068
214	0x3bba79a3	0.0056907698
215	0xbdc5e73f	-0.09663247
216	0x3ee96536	0.4558503
217	0xbc13c0b0	-0.009018108
218	0xbd730bf3	-0.059337568
219	0xbc6a75e9	-0.014310339
220	0x3ebae9a2	0.36506373
221	0xbbb44890	-0.005501814
222	0xbbd2e050	-0.0064354315
223	0xbcf903b0	-0.030397266
224	0xbf907771	-1.1286451
225	0xbc99d0a2	-0.018776242
226	0xbce7d924	-0.028301783
227	0xbb4bbec0	-0.0031089038
228	0x3e32aecf	0.17449497
229	0x3d7e3e84	0.06207134
230	0xbc9af51c	-0.018915705
231	0xbd93ae5f	-0.07210993
232	0xbcc8ed38	-0.024527177
233	0x3e1b4acc	0.15165251
234	0x3f5476cc	0.8299377
235	0x3d734bfc	0.059398636
236	0x3b47fe49	0.0030516556
237	0x3da2e23f	0.07953309
238	0xbbea43d6	-0.0071492
239	0xbc946660	-0.018115222
240	0xbd18b0c6	-0.03727796
241	0x3f5a154c	0.85188746
242	0x3d656b9a	0.05601082
243	0xbfabfa38	-1.3435736
244	0x3c4e4ae0	0.012591094
245	0xbdbcf450	-0.092262864
246	0xbd714e8e	-0.058912806
247	0x3d83259e	0.06403659
248	0xbd8ca0ac	-0.06866583
249	0x38a0a59b	7.660241e-05
250	0xbd757662	-0.05992735
251	0xbd905a00	-0.07048416
252	0x3ce3474c	0.027743958
253	0xbd776d0c	-0.06040673
254	0xbadd58c0	-0.0016887411
255	0xbe2b8478	-0.16749752

action_linear.bias f4 [256]
0	0xbc62f3e1	-0.013852091
1	0x3cfdf168	0.0309989
2	0x3c0b9d1a	0.008521343
3	0x3e6382bc	0.2221784
4	0x3e76cc4d	0.24101372
5	0x3e6f5d68	0.23375475
6	0x3d2d8099	0.04235897
7	0x3dd2c9d5	0.10292403
8	0xbce130da	-0.027489115
9	0x3e0aaacd	0.13541718
10	0x3d1a808b	0.037720244
11	0xbd4f9422	-0.05067838
12	0xbd3894e9	-0.045063887
13	0x3e08e015	0.1336673
14	0x3e54081c	0.20706218
15	0xbd063ad6	-0.032770954
16	0x3e0e19ca	0.13877025
17	0x3e051f6d	0.13000269
18	0xbaed3bc0	-0.0018099472
19	0xbcbccaf6	-0.023045998
20	0x3e632733	0.22182922
21	0xbbe6b7b1	-0.0070409407
22	0xbd1db5da	-0.038503505
23	0x3e5c07c3	0.21487336
24	0x3e04416e	0.12915584
25	0x3e4a2ec7	0.19744407
26	0x3da0c0f4	0.07849303
27	0xbcd49dd5	-0.025954166
28	0x3c9bd551	0.019022616
29	0x3e62b02e	0.2213752
30	0xbd80a003	-0.0628052
31	0x3e1f847e	0.15577886
32	0x3e67cbcf	0.2263634
33	0xbb83712a	-0.004011293
34	0x3e4f2285	0.20228012
35	0x3e19943c	0.14997953
36	0x3e42c844	0.19021708
37	0xbd824280	-0.0636034
38	0xbcc4aa40	-0.024006963
39	0xbd694492	-0.05695016
40	0xbc5909e4	-0.013246987
41	0xbd927f9a	-0.07153244
42	0xbd0d3c3e	-0.03448128
43	0xb8e79d6a	-0.00011044259
44	0x3c7f6618	0.015588306
45	0xbb20b9e1	-0.0024524855
46	0x3e5ff9bc	0.2187261
47	0x3e530d59	0.2061056
48	0x3d347654	0.04405816
49	0x3e40bfe7	0.18823205
50	0xbc386145	-0.01125366
51	0x3e41385c	0.18869156
52	0xbcd053d0	-0.02543059
53	0x3e6164f3	0.22011165
54	0xbd5daac8	-0.054117948
55	0x3e2e8295	0.17042
56	0x3e3f77a1	0.18697979
57	0xbd440e35	-0.04786511
58	0xbd4be806	-0.04978182
59	0x3e6b97c7	0.23007117
60	0x3dfb6a49	0.12276132
61	0x3e372be8	0.17887843
62	0x3e45327d	0.19257541
63	0xba3aed00	-0.00071306527
64	0x3cc49638	0.023997411
65	0x3d094d11	0.033520762
66	0x3e7768a5	0.24161012
67	0x3e010f36	0.12603459
68	0x3e291a42	0.16513923
69	0xbd5f1174	-0.054460004
70	0x3e408bb6	0.18803295
71	0x3e472ea8	0.19451392
72	0xbda5a39d	-0.080878474
73	0x3e6a6192	0.22888783
74	0x3dc92fce	0.09823571
75	0x3e69da75	0.22837241
76	0x3e067967	0.13132249
77	0x3e528f00	0.20562363
78	0xbd19879a	-0.037482835
79	0xbda6e771	-0.08149613
80	0xbd19d40d	-0.037555743
81	0x3e248b88	0.16068852
82	0x3e6bc527	0.23024426
83	0x3e0a5151	0.13507582
84	0xbcdd7cec	-0.027037106
85	0xbd570d51	-0.052502934
86	0x3e5bfe43	0.21483712
87	0x3e1953d5	0.14973386
88	0xbd0da1ce	-0.034578137
89	0x3e210cc9	0.15727533
90	0x3e2f45ab	0.1711642
91	0xbcae6a8c	-0.02129104
92	0x3e054766	0.13015518
93	0xbcd6ed52	-0.02623621
94	0x3e237604	0.15962988
95	0xbc395124	-0.011310849
96	0x3e493d15	0.19652207
97	0xbc905f2a	-0.017623503
98	0xbc1bc627	-0.009507692
99	0x3ce2d3ba	0.02768885
100	0x3e389711	0.18026377
101	0x3e56cdfd	0.20977016
102	0x3e02910b	0.12750642
103	0x3e1b5892	0.15170506
104	0xbbf2945d	-0.00740294
105	0x3e741b9a	0.23838654
106	0x3e4b3834	0.19845659
107	0x3e57a672	0.21059588
108	0x3e69c6b7	0.2282971
109	0x3c36808a	0.011139045
110	0x3e584498	0.21119916
111	0x3e5e6ff2	0.21722391
112	0x3e4c9f3e	0.19982621
113	0xbc562a59	-0.01307162
114	0xbbc5f8f8	-0.0060416423
115	0x3e2ad32a	0.16682115
116	0x3e61640d	0.22010823
117	0xbce2be08	-0.027678505
118	0x3e77ab43	0.24186425
119	0x3e2abd43	0.1667376
120	0x3e03279c	0.12808079
121	0x3e4bd2bf	0.19904612
122	0x3e3a8db9	0.18218125
123	0x3c16e750	0.009210423
124	0x3e2b2d85	0.16716583
125	0x3cb73258	0.022362873
126	0x3c1f225a	0.00971278
127	0xbc7d49d9	-0.015459501
128	0xbd9564c7	-0.072946124
129	0x3e2fbfbb	0.17162983
130	0x3e793816	0.24337801
131	0xbb324217	-0.0027200037
132	0xbd14c786	-0.036323093
133	0x3e3839e1	0.17990829
134	0xbd60de34	-0.05489941
135	0x3e616a29	0.22013153
136	0x3e5abe85	0.2136174
137	0x3e466ef3	0.19378261
138	0x3e277a6a	0.16355291
139	0x3e25a375	0.16175635
140	0xbd448980	-0.047982693
141	0x3e29d375	0.1658457
142	0x3e644aec	0.22294205
143	0x3e1e2e3b	0.15447323
144	0x3d1d0246	0.038332246
145	0x3e388980	0.18021202
146	0x3e1de476	0.15419182
147	0xbd2713d8	-0.04079041
148	0xbdb2b9bf	-0.087268345
149	0xbd593e36	-0.053037845
150	0xbd915c76	-0.07097714
151	0x3c67d7a3	0.014150533
152	0x3e50ff80	0.20409966
153	0xbdced3d4	-0.10098997
154	0xbcf86b19	-0.030324506
155	0xbda7bd97	-0.08190458
156	0xbd0069d7	-0.031350937
157	0x3e491bd2	0.19639519
158	0xbcfecc92	-0.031103406
159	0x3e6345e3	0.22194628
160	0x3e0eefb4	0.13958627
161	0x3e700e2b	0.23442905
162	0x3d1925f6	0.037389718
163	0x3e72f0d9	0.23724689
164	0xbd6feeb7	-0.058577266
165	0x3e7121d4	0.2354806
166	0x3e001063	0.12506251
167	0x3e40b07c	0.18817323
168	0x3e718275	0.23584922
169	0xbda3ca04	-0.07997516
170	0xba202200	-0.0006108582
171	0xbcef2271	-0.029191228
172	0x3cd17a70	0.025571078
173	0x3e575c49	0.21031298
174	0x3e2c663a	0.16835871
175	0x3e6610f1	0.224674
176	0xbc2e85a3	-0.010651979
177	0x3e708ac0	0.23490429
178	0x3e4d6f31	0.20061947
179	0x3e5fe504	0.21864706
180	0x3c1af630	0.00945811
181	0xbd692f41	-0.05692983
182	0x3dec1d0c	0.11528978
183	0x3b8cc94b	0.004296457
184	0xbd4ea165	-0.050446887
185	0x3e459ca4	0.19298035
186	0x3cf8b91f	0.03036171
187	0x3e41b0cc	0.18915099
188	0x3ba762ff	0.005108237
189	0x3e6aba5f	0.22922657
190	0x3bee83f0	0.007278912
191	0xbd4af6d4	-0.0495518
192	0x3e559f72	0.20861605
193	0x3e564f05	0.20928581
194	0x3c7a49ed	0.015276414
195	0x3b5a07d8	0.0033268835
196	0xbc9871cc	-0.01860895
197	0x3e5ed25e	0.21759936
198	0xbd56fac0	-0.052485228
199	0x3e71f25f	0.23627613
200	0x3d17e165	0.037080187
201	0x3e30f84e	0.1728222
202	0x3e364332	0.1779907
203	0xbd78e511	-0.06076533
204	0x3e1931fb	0.14960472
205	0x3e02fe73	0.12792377
206	0x3e3f5752	0.18685654
207	0x3e3f5019	0.18682899
208	0xbc44c733	-0.012010383
209	0x3de6de20	0.11272836
210	0x3e6f8042	0.2338877
211	0x3df84b15	0.12123696
212	0x3e5d7abc	0.2162885
213	0xb931f000	-0.00016969442
214	0x3d3e2474	0.046421483
215	0x3e610dcf	0.21977924
216	0xbccab6ad	-0.02474531
217	0x3d661808	0.05617526
218	0x3e19c697	0.15017162
219	0x3e7933a1	0.24336101
220	0x3abe39d5	0.0014513085
221	0x3e635368	0.22199786
222	0xbd6b8f2e	-0.057509594
223	0x3c528862	0.012849899
224	0xbce802c4	-0.028321631
225	0xbc973cb7	-0.018461568
226	0xbd6f6765	-0.058448214
227	0x3e2c90f2	0.16852167
228	0x3e179d86	0.14806184
229	0xbc8fa568	-0.017534927
230	0x3e26fe1e	0.16307876
231	0x3e22afbc	0.1588735
232	0xbb505777	-0.0031790414
233	0x3e59b8d8	0.21261919
234	0x3e54c35c	0.20777649
235	0xbdba4653	-0.090954445
236	0x3e335ed7	0.17516647
237	0x3e5bc909	0.21463408
238	0x3e514f5f	0.20440434
239	0xbd44d18e	-0.04805141
240	0x3e74aef6	0.23894867
241	0x3e27c79a	0.16384736
242	0x3e54cedb	0.20782034
243	0x3e3871d5	0.18012173
244	0x3e418d5d	0.18901582
245	0x3cf33030	0.029686064
246	0xbc80da89	-0.015729206
247	0x3e3880e5	0.1801792
248	0x3e57801f	0.21044968
249	0x3d103d1e	0.035214536
250	0x3e44460c	0.19167346
251	0xbd2a64de	-0.0416001
252	0x3e327ecb	0.1743118
253	0x3ca35d3e	0.019941922
254	0x3e373677	0.1789187
255	0x3c1d1db0	0.009589598

output_linear.weight f4 [1, 256]
0	0xbf8ebdbe	-1.1151655
1	0xbaa3a3cf	-0.0012484732
2	0x3cdf3998	0.027249143
3	0xbe8d5ae2	-0.276084
4	0xbe89751b	-0.26847157
5	0xbe8e79f7	-0.27827427
6	0xbba3a0e7	-0.0049935463
7	0xc009505d	-2.14553
8	0xbb0c9b21	-0.0021454769
9	0xbe8f9a2b	-0.28047308
10	0xbb6931e7	-0.0035582723
11	0xbad68efa	-0.0016369515
12	0x3ca69f3a	0.020339597
13	0xbe9c0021	-0.30468848
14	0xbe8ee27d	-0.27907172
15	0xbbeaf2cb	-0.0071700565
16	0xbe90d3b3	-0.28286514
17	0xbe8f9fc8	-0.2805159
18	0xbaab7a4e	-0.0013082714
19	0xb911df40	-0.00013911445
20	0xbea0b91a	-0.3139122
21	0x3c86ded8	0.016463682
22	0x3a54cf6c	0.00081180665
23	0xbe989c08	-0.29806542
24	0xbe90798d	-0.28217736
25	0xbe8b7542	-0.27237898
26	0xbfee0d15	-1.8597742
27	0xbb896136	-0.0041924966
28	0x3cbe9ed8	0.023269102
29	0xbe88adec	-0.26695192
30	0xbbb9cc05	-0.005670073
31	0xbe92ef39	-0.28698137
32	0xbe911a8d	-0.2834057
33	0x3b9932a5	0.0046752268
34	0xbe9038ab	-0.28168234
35	0xbe90a68a	-0.2825206
36	0xbe97f1c6	-0.29676646
37	0x3ce5aafa	0.02803563
38	0x3a30c2c8	0.0006742892
39	0xbb937d93	-0.0045010536
40	0xba3ca534	-0.0007196248
41	0x3b221c65	0.0024736163
42	0xbb6a68e9	-0.0035768098
43	0xbb86fe55	-0.004119674
44	0x3ad002b4	0.0015869946
45	0xbc11418a	-0.008865723
46	0xbe90ee9a	-0.2830704
47	0xbe8cf1b4	-0.27528155
48	0xbb5493d5	-0.0032436748
49	0xbe915131	-0.28382257
50	0x3ca2a2c1	0.019852998
51	0xbe8fd180	-0.28089523
52	0xbcbd7195	-0.02312545
53	0xbe8d32ed	-0.27577916
54	0xba88f02a	-0.0010447551
55	0xbe8fead1	-0.28108838
56	0xbe899e15	-0.2687842
57	0xbca7b60b	-0.020472547
58	0xbb0b5f9d	-0.0021266707
59	0xbe86809a	-0.2626999
60	0xbe8ece8f	-0.27891967
61	0xbe8f8bcb	-0.2803634
62	0xbe8f03b3	-0.2793251
63	0x3accc8c0	0.0015623793
64	0x3a27d098	0.00064016273
65	0xbb61b2bc	-0.003443881
66	0xbf84de2a	-1.0380299
67	0xbea2efb5	-0.31823507
68	0xbe8bc47b	-0.2729834
69	0xbf4bada0	-0.79561806
70	0xbe889bc8	-0.26681352
71	0xbe8dbb20	-0.27681828
72	0xbcd0f4ca	-0.02550735
73	0xbe8a9024	-0.27063096
74	0xbea6abe3	-0.32553014
75	0xbe8f8321	-0.2802973
76	0xbe8e0c50	-0.2774377
77	0xbe8cadbc	-0.274763
78	0xbb32c49c	-0.0027277833
79	0xbcea0fe7	-0.028572036
80	0xbb8248c3	-0.003975959
81	0xbe8c8754	-0.27446997
82	0xbe901cee	-0.28147072
83	0xbe8c5a26	-0.27412528
84	0x3a0287bc	0.00049793324
85	0x3ab87fb8	0.0014076149
86	0xbe93903b	-0.28820977
87	0xbe8c60bd	-0.27417555
88	0xbb2c80b2	-0.0026321826
89	0xbe96af3b	-0.29430565
90	0xbe93a5da	-0.28837472
91	0xba0d4054	-0.0005388309
92	0xbe8d9f7f	-0.27660748
93	0xbc39c9c6	-0.01133961
94	0xbe8a562d	-0.27018872
95	0xbb11e3d4	-0.002226104
96	0xbe90b71e	-0.28264707
97	0xba471188	-0.000759386
98	0xbbbff3f5	-0.0058579394
99	0x3c9056eb	0.01761957
100	0xbe982da5	-0.29722324
101	0xbe8f2827	-0.2796032
102	0xbe8cd005	-0.27502456
103	0xbe8fa983	-0.28059015
104	0xbb631d01	-0.003465474
105	0xbe90aa25	-0.2825481
106	0xbe8f9823	-0.2804576
107	0xbe92a98c	-0.2864498
108	0xbe8e5541	-0.2779942
109	0xbb8b7c35	-0.00425675
110	0xbe8a5236	-0.27015847
111	0xbea76194	-0.32691634
112	0xbe8fba77	-0.2807195
113	0xbbbb4b87	-0.0057157907
114	0xbd060a0d	-0.03272443
115	0xbe8d8a05	-0.27644363
116	0xbe92ec69	-0.28695992
117	0x3b20a63a	0.0024513141
118	0xbe90ca1a	-0.2827919
119	0xbe8e2a72	-0.27766758
120	0xbe8f6ef5	-0.2801434
121	0xbe932375	-0.2873799
122	0xbe8f1d48	-0.27952027
123	0xbb3c5eb7	-0.0028742978
124	0xbe8e3d69	-0.27781227
125	0xbaf17b4f	-0.001842359
126	0xbbbef632	-0.0058276886
127	0xbcc9e9e3	-0.024647659
128	0x3cd7b713	0.026332414
129	0xbe8e5613	-0.27800044
130	0xbe8f4105	-0.27979293
131	0xbc456a44	-0.0120492615
132	0xbbb10988	-0.0054027475
133	0xbe8de1b0	-0.27711248
134	0xbcc1d210	-0.023659736
135	0xbe8e0d52	-0.27744538
136	0xbe9ad0ba	-0.3023737
137	0xbe9e5596	-0.30924672
138	0xbe8f4b31	-0.27987054
139	0xbe8c297e	-0.27375406
140	0x3c9cc69c	0.019137673
141	0xbe9582b0	-0.2920127
142	0xbe8c5dca	-0.27415305
143	0xbe8cac83	-0.27475366
144	0xba1e6d80	-0.00060435385
145	0xbe8de071	-0.27710298
146	0xbe8bcc40	-0.27304268
147	0xbb82539c	-0.003977252
148	0xbcfc8148	-0.030823365
149	0xbb9c2b4e	-0.0047659045
150	0xb98f3f3a	-0.00027322193
151	0x3c829f9d	0.01594525
152	0xbe96307a	-0.2933386
153	0xb90247fa	-0.0001242458
154	0xbc8ffb0e	-0.017575767
155	0x3c7973c6	0.015225356
156	0xbba322a4	-0.0049784947
157	0xbe8fe52f	-0.2810454
158	0x38c23c80	9.26191e-05
159	0xbe8eda5c	-0.2790097
160	0xc04cafc9	-3.198229
161	0xbe973413	-0.29531917
162	0xba11d264	-0.00055626617
163	0xbe8faf2a	-0.28063327
164	0xba7a8900	-0.0009557158
165	0xbe905899	-0.28192595
166	0xbe8e2baf	-0.27767703
167	0xbe8e375b	-0.27776608
168	0xbf74fc9f	-0.9569797
169	0xbc8ea846	-0.017414223
170	0x3b14f6e6	0.002273017
171	0xbcedfc72	-0.02905104
172	0x3c8349b8	0.016026363
173	0xbe9028bd	-0.2815608
174	0xbe90821f	-0.28224275
175	0xbe921026	-0.28527945
176	0x3c3f258d	0.011666668
177	0xbe8c4ae8	-0.274009
178	0xbe910dad	-0.28330746
179	0xbe85bb30	-0.26119375
180	0x3b2abd90	0.002605293
181	0xbce881a6	-0.028382134
182	0xbe9e4c6e	-0.30917686
183	0x3c103fac	0.008804243
184	0x3d017ce8	0.03161326
185	0xbe8fff40	-0.28124428
186	0xbceddb2e	-0.029035177
187	0xbe9706a8	-0.29497266
188	0xbb6b5325	-0.0035907712
189	0xbe9348f3	-0.28766593
190	0xba8a297c	-0.0010540928
191	0x3b278f54	0.0025567608
192	0xbe92a5ea	-0.28642207
193	0xbe8c8796	-0.27447194
194	0x3c915738	0.017741784
195	0xbbf68c41	-0.007524044
196	0xbb742689	-0.0037254414
197	0xbe92b3e6	-0.28652877
198	0xbf0884f5	-0.53327876
199	0xbe89c7c7	-0.2691023
200	0xbca0ee79	-0.019644963
201	0xbe930add	-0.28719226
202	0xbe92cda1	-0.28672507
203	0xbccd04b5	-0.025026659
204	0xbe94cc41	-0.29062083
205	0xbe8a38e3	-0.26996526
206	0xbe89f890	-0.2694745
207	0xbe97da14	-0.29658568
208	0xbb99eac6	-0.0046971766
209	0xbeaa7ae7	-0.33296892
210	0xbe889e71	-0.2668338
211	0xbfa62d35	-1.2982546
212	0xbe8ede0d	-0.27903786
213	0x3a0ecfbc	0.0005447825
214	0x3a500ef0	0.0007936796
215	0xbe960965	-0.29304042
216	0xbb834542	-0.004006059
217	0xbb420524	-0.0029605115
218	0xbe8d4f72	-0.27599674
219	0xbe91480d	-0.28375283
220	0xbb597f30	-0.0033187382
221	0xbe967a2d	-0.29390088
222	0xbcc6b7b4	-0.024257518
223	0xbb193425	-0.0023377028
224	0xbb3063b8	-0.0026914906
225	0xbc92d634	-0.017924406
226	0xbaca84dc	-0.0015450972
227	0xbea3df7f	-0.3200645
228	0xbe85588a	-0.26044112
229	0x3b7c2738	0.0038475525
230	0xbf219bdd	-0.63128453
231	0xbf9adcb4	-1.2098603
232	0x3c03dbf7	0.008048049
233	0xbe8dfbdd	-0.2773122
234	0xbe8b04aa	-0.27151996
235	0x3cfe70f9	0.031059729
236	0xbe9da5b1	-0.30790475
237	0xbe913880	-0.2836342
238	0xbe945491	-0.2897077
239	0xbb3513c0	-0.002763018
240	0xbe8c64e2	-0.27420717
241	0xbe91d4d3	-0.28482684
242	0xbe8e79db	-0.27827343
243	0xbe8dbe6d	-0.27684346
244	0xbe883473	-0.26602516
245	0xbbb65913	-0.0055648177
246	0xbc89ab82	-0.016805414
247	0xbe8e8dd8	-0.27842593
248	0xbe958ac1	-0.29207423
249	0xbd2a89ad	-0.041635204
250	0xbe8cfa9d	-0.27534953
251	0x3b63dc9d	0.0034768947
252	0xbe93c6e9	-0.28862694
253	0xbc57819f	-0.013153463
254	0xbe92d78e	-0.2868008
255	0x3b1b2c20	0.0023677424
