examples/player_template_py/models/critic_397k.pkl (torch, 277919 bytes, 5 tensors)

input_linear.weight f4 [256, 7]
0	0xbd2d6ab4	-0.04233809
1	0xbcf915fc	-0.03040599
2	0xbd4fe76c	-0.05075781
3	0x3d0937e6	0.033500575
4	0x3be71900	0.007052541
5	0xbca97258	-0.020684406
6	0xbcfc8c10	-0.030828506
7	0xbe6029e5	-0.21890981
8	0xbb0d2962	-0.0021539559
9	0x3e499110	0.19684243
10	0x3ef456b6	0.47722405
11	0x3d98c776	0.07459919
12	0xbcf1df1e	-0.029525336
13	0x3c952621	0.018206658
14	0xbca4b4e4	-0.020105787
15	0x3c691700	0.014226675
16	0x3c659a90	0.014013901
17	0xbd07512a	-0.03303639
18	0x3caa015c	0.020752601
19	0x3d5b9416	0.053608023
20	0x392f6400	0.00016726553
21	0x3c5c0030	0.013427779
22	0xbca8981c	-0.020580344
23	0xbced1498	-0.028940484
24	0xbd47e218	-0.048799604
25	0x3d6dfdfe	0.058103554
26	0x3cd013a4	0.02539999
27	0xbae30700	-0.0017320812
28	0xbd9a6796	-0.07539289
29	0xbe5837cc	-0.21115035
30	0xbec85733	-0.39129028
31	0x3e3315a5	0.17488725
32	0x3e6a557c	0.22884172
33	0xbd0e375f	-0.034720775
34	0xbe9aadc9	-0.30210713
35	0x3d60f938	0.054925174
36	0x3c906ff8	0.017631516
37	0x3d5909ce	0.052987866
38	0x3bf4e960	0.0074741095
39	0x3d357b7a	0.04430721
40	0xbd20ec66	-0.039287947
41	0x3d4296ae	0.04750698
42	0x3d1d42b8	0.038393706
43	0xbe75952f	-0.2398269
44	0x3db9ac01	0.0906601
45	0xbfa00b6f	-1.2503489
46	0x3e8844ab	0.2661489
47	0xbd842ba8	-0.06453639
48	0xbb65f9f4	-0.003509161
49	0xbddf3b36	-0.108999655
50	0xbce35c4a	-0.027753968
51	0xbd97a334	-0.074041754
52	0x3d59d44d	0.05318098
53	0x3c218352	0.009857969
54	0xbdb6d0d7	-0.08926552
55	0xbcb4f2e3	-0.022088474
56	0x3d514e68	0.051100165
57	0x3eab0ad9	0.33406714
58	0x3e3a3365	0.18183668
59	0x3e6865f1	0.22695138
60	0xbea0e399	-0.31423643
61	0x3e0186a4	0.12649018
62	0x3e5cd108	0.21564114
63	0xbdd45328	-0.10367423
64	0xbe107a59	-0.14109172
65	0x3e781d4e	0.24229929
66	0xbe93348b	-0.28751025
67	0x3d358fe8	0.044326693
68	0xbbcd32d8	-0.0062621646
69	0x3dce7b90	0.100821614
70	0xbd6034cc	-0.05473785
71	0x3c264178	0.010147445
72	0x3d738914	0.0594569
73	0xbd32adda	-0.04362283
74	0xbd5ecee6	-0.054396532
75	0xbd0c0bee	-0.034191065
76	0x3d741ec0	0.059599638
77	0xbe6b65f3	-0.2298811
78	0xbd1236b6	-0.035696708
79	0xbe2509c1	-0.16117002
80	0x3e9d1644	0.3068105
81	0x3d7fd89e	0.06246244
82	0xbdae632b	-0.085150085
83	0x3d04adbf	0.03239226
84	0xbf09ae5c	-0.53781676
85	0x3dfae432	0.12250556
86	0x3ecdeeb5	0.40221182
87	0x3b65a65d	0.0035041787
88	0xbe14a82b	-0.14517276
89	0xbe46bf0d	-0.19408818
90	0xbce6ad88	-0.028158918
91	0x3a747a80	0.0009326115
92	0xbd46f466	-0.04857292
93	0x3cc8ba68	0.024502948
94	0x3d6175cc	0.05504398
95	0xbce686cc	-0.028140448
96	0xbc5911d0	-0.013248876
97	0x3d098a5e	0.033579223
98	0x3d7af88b	0.061272185
99	0xbeab3b9e	-0.33443922
100	0x3de76287	0.112980895
101	0xbfe71f82	-1.805649
102	0x3ed5e554	0.41776526
103	0xbe0b9521	-0.13631107
104	0xbda754ad	-0.081704475
105	0xbc1f09d0	-0.009706929
106	0x3cbc226c	0.022965632
107	0xbcf3a5e8	-0.029742196
108	0xbc92eb6c	-0.017934524
109	0x3cf1a974	0.029499747
110	0x3ba09360	0.004900381
111	0xbd29a136	-0.04141351
112	0x3d78b284	0.06071712
113	0xbcc78dc8	-0.024359599
114	0x3d0a2eb2	0.03373594
115	0xbced3ad0	-0.028958708
116	0x3cfe803c	0.031067006
117	0xbcc4f918	-0.024044558
118	0xbd1dac56	-0.03849443
119	0xbcc8e4b4	-0.024523117
120	0x3d5c733e	0.05382084
121	0x3d05f4d2	0.032704182
122	0xbd73ae5e	-0.05949246
123	0xbc4d0020	-0.012512237
124	0x3d448bee	0.04798501
125	0x3d5d998e	0.05410152
126	0xbda6244f	-0.08112394
127	0xbdbf1132	-0.093294516
128	0x3e8150ee	0.25257057
129	0xbe908e65	-0.28233638
130	0x3d274f2b	0.040846985
131	0xbc28b086	-0.010295993
132	0x3d82b969	0.063830204
133	0xbd26cbd6	-0.040721737
134	0xbcd5aea8	-0.02608426
135	0xbc9d654c	-0.019213341
136	0xbd212a44	-0.03934695
137	0xbc369f68	-0.011146404
138	0x3cdd1df4	0.026991822
139	0x3b39e380	0.002836436
140	0xbd5ef763	-0.054435145
141	0xbe3afd8f	-0.18260787
142	0x3e4ee46a	0.2020432
143	0x3ebda21a	0.37037736
144	0x3e3e4de1	0.18584396
145	0x3d12865b	0.035772663
146	0xbea4d5c7	-0.3219435
147	0xbdc9e829	-0.09858734
148	0x3bf9e4db	0.0076261587
149	0x3ceff93a	0.029293645
150	0xbc9c598d	-0.01908567
151	0xbcb78a59	-0.022404836
152	0x3cc16164	0.02360601
153	0xbd13433e	-0.0359528
154	0xbdf849af	-0.12123429
155	0x3d6c1d8d	0.05764537
156	0xbed96cce	-0.42465824
157	0x3f45b2cb	0.7722594
158	0xbd367300	-0.044543266
159	0xbd0eb132	-0.034836955
160	0xb9ff4c26	-0.00048694125
161	0xbd062731	-0.03275222
162	0xbd0fd4ae	-0.035114937
163	0xbc78396d	-0.01515041
164	0x3c0c66a8	0.008569397
165	0x3cf9d337	0.030496223
166	0xbb3c227c	-0.0028707078
167	0x3c19827e	0.009369491
168	0x3ce54f08	0.027991787
169	0xbd32f4ba	-0.04369042
170	0x3d040286	0.03222897
171	0x3d5ff750	0.054679215
172	0xbcebbcdc	-0.028776579
173	0x3c1dca58	0.009630762
174	0x3c88b680	0.016688585
175	0xbca74b8c	-0.020421766
176	0xbcb35c90	-0.021894723
177	0x3d780824	0.06055464
178	0xbbbc3a80	-0.0057442784
179	0x3d440aae	0.047861747
180	0x3d647df0	0.055784166
181	0x3c917ba0	0.017759144
182	0xbc5da06f	-0.01352702
183	0xbda65ad8	-0.08122796
184	0x3ca4aec6	0.02010287
185	0xbeac7156	-0.33680218
186	0x3c1f16ff	0.009710073
187	0xbdb5350f	-0.08848011
188	0x3d10a58a	0.03531412
189	0xbe124452	-0.14283875
190	0xbcb8443a	-0.02249347
191	0x3b078395	0.0020677794
192	0x3dde9657	0.10868519
193	0x3dce2b1f	0.100668184
194	0x3bd369e1	0.0064518307
195	0xbc17e02e	-0.009269757
196	0xbddd1afe	-0.10796164
197	0xbdaee211	-0.085392125
198	0x3e4975c0	0.19673824
199	0x3f1ccdee	0.61251724
200	0x3e0077d9	0.12545718
201	0x3db6d1c4	0.08926728
202	0xbe327b11	-0.17429759
203	0x3d187064	0.03721656
204	0x3e9d798d	0.30756798
205	0x3e245582	0.16048244
206	0x3e864f80	0.2623253
207	0xbeb11155	-0.34583536
208	0x3dbef445	0.093239345
209	0x3e477132	0.19476774
210	0x3bc889c4	0.0061199386
211	0xbe118c1e	-0.14213607
212	0xbf30a88d	-0.6900719
213	0x3d87d434	0.066322714
214	0x3da109d3	0.07863202
215	0xbdc9f243	-0.09860661
216	0xbebd1a3a	-0.36934072
217	0x3d462176	0.048371755
218	0xbcf93fe0	-0.030425966
219	0x3d66a404	0.05630876
220	0x3d62812c	0.05529897
221	0xbc208418	-0.009797119
222	0x3d605476	0.05476805
223	0xbb274bc0	-0.0025527328
224	0x399a14f4	0.0002938878
225	0xbdb9fbb6	-0.09081213
226	0x3e40c8f0	0.18826652
227	0xbed94edf	-0.42442986
228	0x3dffae0d	0.124843694
229	0xbd6557e1	-0.05599201
230	0x3c02d347	0.007984943
231	0x3bd30f96	0.006441067
232	0x3f083de2	0.53219426
233	0x3eb78c4a	0.3584922
234	0x3c746617	0.014916918
235	0xbf05d5ff	-0.5227966
236	0x3e22a0df	0.1588168
237	0xbde42ba9	-0.1114114
238	0xbe10b00e	-0.1412966
239	0xbd80f66c	-0.06297001
240	0xbe42e9ad	-0.19034453
241	0xbdd759b6	-0.10515158
242	0x3d87c9cc	0.066302866
243	0x3bcf5d6a	0.0063282745
244	0xbd84822f	-0.06470143
245	0x3c7e7990	0.015531912
246	0x3d34d476	0.04414793
247	0xbd748a04	-0.059701934
248	0xbb80e660	-0.003933713
249	0x3b1a68e0	0.0023561046
250	0x3d655718	0.055991262
251	0x3cbfaffc	0.023399346
252	0x3e01482a	0.12625185
253	0xbe217c56	-0.15770087
254	0x3ea879a3	0.329053
255	0xc0079719	-2.1185973

input_linear.bias f4 [256]
0	0xbe81767e	-0.25285715
1	0x3e4d52bc	0.20051092
2	0xbe9ba332	-0.30397946
3	0xbea73468	-0.3265717
4	0x3dbaf93c	0.09129569
5	0xbe2fe1f9	-0.17176045
6	0xbcfcc510	-0.030855685
7	0x3e85316e	0.26014274
8	0x3d7efb4a	0.062251367
9	0x3e211c6e	0.15733501
10	0xbeb2c43d	-0.34915343
11	0x3e49edaa	0.19719568
12	0x3e025a3a	0.12729731
13	0xbe9e9f93	-0.3098112
14	0x3d055205	0.032548923
15	0xbe6c039e	-0.23048255
16	0xbe77e317	-0.24207722
17	0xbeb30dd7	-0.34971496
18	0x3e33ae0c	0.17546862
19	0xbe11b262	-0.14228204
20	0x3e5f0964	0.21780926
21	0xbd997f23	-0.074949525
22	0x3df23c07	0.118278556
23	0xbd316428	-0.043308407
24	0xbdba828c	-0.09106931
25	0xbdfbb5f0	-0.12290561
26	0x3e91bdef	0.2846522
27	0x3e910dd4	0.28330863
28	0x3e3925f4	0.18080884
29	0x3e2370fa	0.15961066
30	0x3de5bef0	0.11218059
31	0xbea397a6	-0.31951636
32	0x3e9e34b3	0.3089958
33	0x3e404577	0.18776499
34	0x3e92185e	0.28534216
35	0xbebeaa93	-0.37239513
36	0x3dcd3c07	0.10021215
37	0xbe82b39a	-0.2552765
38	0xbe16d369	-0.14729084
39	0x3de67977	0.11253636
40	0x3dc5b084	0.09652808
41	0xbd854df0	-0.06509006
42	0x3e0621df	0.13098858
43	0xbeab81d3	-0.33497486
44	0x3e879310	0.26479387
45	0xba0d4509	-0.000538901
46	0xbe7746ee	-0.24148151
47	0x3e5e1ca2	0.2169061
48	0xbe0e1c76	-0.13878044
49	0xbe7c9617	-0.2466663
50	0x3e92e03e	0.28686708
51	0x3eb613a7	0.3556187
52	0xbd90d634	-0.07072106
53	0xbe3bb254	-0.18329746
54	0x3eaffc53	0.34372196
55	0xbe3bf40f	-0.1835482
56	0xbe9b5a6b	-0.3034242
57	0x3cef15a2	0.02918512
58	0xbddf16b1	-0.10893
59	0x3d1063ba	0.035251357
60	0x3e12015e	0.14258334
61	0x3e94005e	0.2890653
62	0x3e04a5ff	0.12953947
63	0x3e8802a4	0.26564515
64	0xbe81ba1a	-0.25337297
65	0x3dc4802f	0.095947616
66	0x3e252592	0.16127613
67	0xbea93f29	-0.33056
68	0x3bb86651	0.0056274314
69	0x3e2f46f0	0.17116904
70	0x3eb030b3	0.34412155
71	0x3e220bdf	0.15824841
72	0x3df244f8	0.11829561
73	0x3e164d15	0.14677842
74	0x3de6c617	0.112682514
75	0xbebf1484	-0.3732034
76	0xbdc4b8b3	-0.09605541
77	0xbdc91d58	-0.0982005
78	0xbeabd7fb	-0.33563218
79	0xbca8f017	-0.020622296
80	0x3d67f7e8	0.056632906
81	0xbd940f38	-0.07229465
82	0xbe0e7576	-0.13911995
83	0x3d63d8c8	0.05562666
84	0x3e7d8632	0.24758223
85	0xbe74b5ef	-0.23897527
86	0x3e645c19	0.22300757
87	0x3e991439	0.2989824
88	0x3e966279	0.29372004
89	0x3e77929a	0.24177018
90	0x3d8dcf6f	0.069243304
91	0x3e032dee	0.1281049
92	0x3e490141	0.19629385
93	0x3e9767a6	0.29571265
94	0x3d3009c9	0.04297808
95	0x3db02f9f	0.08602833
96	0xbdc07e60	-0.09399104
97	0xbeb02385	-0.344021
98	0x3bd02f76	0.006353314
99	0xbe96f205	-0.2948152
100	0x3c55e9e4	0.013056252
101	0x3e2664a9	0.16249336
102	0x3e0f7949	0.1401111
103	0x3e00e145	0.12585934
104	0xbd271934	-0.04079552
105	0xbeabde65	-0.3356811
106	0xbebd4172	-0.36963993
107	0xbe506573	-0.203512
108	0x3e7ed09a	0.24884263
109	0xbe03f407	-0.12886058
110	0xbe910f90	-0.28332186
111	0x3eafd664	0.34343255
112	0x3e905d65	0.28196254
113	0xbe591c41	-0.21202184
114	0xbe02b28a	-0.1276342
115	0x3e8738bc	0.26410472
116	0x3d8ccd80	0.068751335
117	0xbe0a164f	-0.13485073
118	0xbe682e87	-0.22673999
119	0x3cbc2022	0.02296454
120	0x3db84364	0.08997229
121	0x3d1a3d9c	0.03765641
122	0xbebdafed	-0.37048283
123	0x3dcc7fdf	0.09985327
124	0x3e1b9a2b	0.15195529
125	0xbe8bdfd0	-0.27319193
126	0xbe981c3c	-0.2970904
127	0xbe59eec8	-0.21282494
128	0xbe6672f0	-0.22504783
129	0xbe916921	-0.2840052
130	0x3e20ec9e	0.15715262
131	0x3ccacbb6	0.02475534
132	0xbea4a419	-0.32156447
133	0xbcaa1080	-0.020759821
134	0xbe96ac80	-0.29428482
135	0xbea9d6b2	-0.33171612
136	0xbcdd2321	-0.02699429
137	0x3d7e6d42	0.062115915
138	0x3dfcb95c	0.12340042
139	0xbe6b2f9a	-0.22967377
140	0x3dbb51f8	0.09146494
141	0x3ce2b5f0	0.027674645
142	0x3ea2e824	0.31817734
143	0xbc8897b6	-0.016673904
144	0xbe8f796b	-0.28022322
145	0x3e26d32e	0.16291496
146	0xbdaacc84	-0.083397895
147	0x3d96e446	0.073677585
148	0xbe4ba4f2	-0.1988714
149	0x3e97ef1b	0.2967461
150	0xbe93415b	-0.287608
151	0x3e814d67	0.25254366
152	0xbea2b261	-0.31776717
153	0xbe42a42a	-0.19007936
154	0xbe9689a2	-0.2940188
155	0xbddbd5b4	-0.1073412
156	0x3ea34e20	0.31895542
157	0x3d8411d5	0.06448714
158	0x3e0a75df	0.13521527
159	0x3e572b6b	0.21012656
160	0xbebfa986	-0.37434024
161	0xbb080300	-0.0020753741
162	0xbdbcb2f0	-0.09213817
163	0x3e84e97d	0.25959387
164	0xbdc52fcc	-0.09628257
165	0xbe854f0e	-0.26036876
166	0x3d90c237	0.070682935
167	0xbdddb2e0	-0.10825133
168	0xbe2505c9	-0.16115488
169	0x3da01333	0.07816162
170	0x3e59b82e	0.21261665
171	0xbe22df48	-0.15905488
172	0x3e4bac14	0.19889861
173	0xbdbe9720	-0.093061686
174	0xbe5e41a6	-0.2170473
175	0x3e8ee990	0.2791257
176	0xbd9616bc	-0.07328555
177	0xbe3565c4	-0.17714602
178	0x3ca8a803	0.020587927
179	0xbead78dc	-0.3388127
180	0x3e03d867	0.1287552
181	0x3e9fe672	0.31230503
182	0xbcdfaa9f	-0.027303038
183	0xbe59b010	-0.21258569
184	0x3ddefc06	0.108879134
185	0x3d9c300a	0.0762635
186	0x3dc4e3b1	0.09613741
187	0xbe32dd7c	-0.17467302
188	0xbd71ad19	-0.05900297
189	0xbcb827a6	-0.022479843
190	0x3e094099	0.13403548
191	0x3dab2d41	0.08358241
192	0x3e973d22	0.29538828
193	0xbe7e65dd	-0.24843545
194	0xbe2f2360	-0.17103338
195	0xbe95b05f	-0.29236123
196	0x3dc88ef7	0.097928934
197	0xbe50391f	-0.2033429
198	0xbdd34eac	-0.1031774
199	0xbc9afd6a	-0.018919665
200	0x3d80d575	0.06290714
201	0xbe3553b5	-0.17707713
202	0xbcc3c787	-0.023898853
203	0x3d98701d	0.07443259
204	0x3d094230	0.033510387
205	0xbde8922c	-0.11356005
206	0x3dcfee33	0.10152855
207	0xbe6e7ab9	-0.23289002
208	0x3e8053e1	0.25063995
209	0xbe97962b	-0.29606757
210	0xbe7c6d79	-0.24651136
211	0xbe31026b	-0.17286079
212	0xbc76a8a0	-0.015054852
213	0xbd5068fd	-0.050881375
214	0x3d4e08f2	0.0503015
215	0x3e2264ae	0.15858719
216	0xbe0eece9	-0.13957562
217	0x3e150399	0.14552154
218	0x3dc7ac51	0.097496636
219	0xbe7be023	-0.2459722
220	0x3de78178	0.11303991
221	0x3e9eb61e	0.3099832
222	0x3cf1ab4c	0.029500626
223	0x3d82ed48	0.06392914
224	0xbde9f0b4	-0.114228636
225	0x3d9d24ff	0.07673072
226	0x3ca4a145	0.02009643
227	0x3cadbd89	0.021208541
228	0x3e7c4879	0.24637021
229	0x3caa56ff	0.020793436
230	0xbe9008ac	-0.28131616
231	0xbe210e3e	-0.15728089
232	0x3e4fdcbc	0.20299047
233	0x3e36ba02	0.17844394
234	0x3e70dc97	0.23521648
235	0xbe561dcd	-0.20909806
236	0xbeaafa0f	-0.33393905
237	0x3dce7ed4	0.10082784
238	0x3e2dc0ca	0.16968074
239	0xbdce79f4	-0.100818545
240	0xbe995147	-0.29944822
241	0x3dd62944	0.104570895
242	0x3eb2019f	0.34766862
243	0xbe1e3844	-0.15451151
244	0x3e22f16a	0.15912405
245	0x3d695731	0.056967918
246	0xbd415aae	-0.04720562
247	0x3e88dd19	0.26731184
248	0xbd712c67	-0.058880236
249	0x3e34c6c5	0.1765395
250	0xbdd22394	-0.10260692
251	0xbde31318	-0.11087626
252	0x3e7f7663	0.24947505
253	0xbe7dcaad	-0.24784346
254	0xbdeee4e4	-0.11664751
255	0xbe09f4a8	-0.13472235

action_linear.weight f4 [256, 259]
0	0x3d65bf6c	0.056090757
1	0xbd854aaa	-0.06508382
2	0xbd45b76c	-0.048270628
3	0x3d4887f2	0.048957773
4	0xbd66acf0	-0.05631727
5	0x3d265434	0.040607646
6	0xbcdaf28c	-0.026726983
7	0xbcb9374f	-0.022609381
8	0xbc97028a	-0.018433828
9	0x3d3c0a74	0.045908406
10	0xbd0afbb2	-0.03393144
11	0xbd657364	-0.05601825
12	0xbd007e2c	-0.031370327
13	0x3d26ea84	0.040750995
14	0xbd3d00ae	-0.046143226
15	0xbd5750a6	-0.052567147
16	0x3cc6e914	0.024281062
17	0xbd33f8d0	-0.043938458
18	0xbd01b536	-0.031666957
19	0x3d3a3fa8	0.045470864
20	0xbd9c4f8f	-0.07632362
21	0xbd04515e	-0.03230416
22	0xbd0a56d3	-0.03377421
23	0x3d67bace	0.056574635
24	0x3d09e80e	0.03366857
25	0x3d18ac40	0.037273645
26	0x3ac3a336	0.001492596
27	0x3d0c49a2	0.03424991
28	0x3b6a4740	0.0035748035
29	0xbcd2bde1	-0.025725307
30	0x3ca73f4b	0.020415923
31	0xbd2cda92	-0.042200632
32	0xbcb28661	-0.021792592
33	0xbd8bdc07	-0.06829076
34	0x3cf3ae3e	0.029746171
35	0xbd445426	-0.047931813
36	0xbc699518	-0.014256738
37	0x3d3abd8e	0.04559093
38	0x3d72d140	0.059281588
39	0x3c32b1c5	0.010906641
40	0x3cae71af	0.021294443
41	0x3bc07c80	0.0058742166
42	0xbd64c082	-0.055847652
43	0xbcb40c94	-0.021978654
44	0xbd2c4265	-0.042055506
45	0xbce222ee	-0.027604546
46	0xbd1b58ce	-0.037926488
47	0x3b94a91f	0.0045367624
48	0xbbcf9ba0	-0.0063356906
49	0x3c440a00	0.011965275
50	0x3cb8e2a0	0.022569
51	0xbdb0198f	-0.08598625
52	0xbcdb3134	-0.02675686
53	0xbd7b90c6	-0.061417364
54	0xbce3cdb1	-0.027808042
55	0x3cd5cdb4	0.026099063
56	0x3d06fa9c	0.032953843
57	0xbbcbf04f	-0.0062237154
58	0xbcbff38c	-0.023431562
59	0xbd7c81b2	-0.061647125
60	0xbd0a3c1c	-0.03374873
61	0xbd787cb5	-0.060665805
62	0xbc43a978	-0.01194226
63	0x3b97a14f	0.004627384
64	0xbd61958e	-0.055074267
65	0xbd73ea15	-0.05954941
66	0x3d06d441	0.032917265
67	0x3c706468	0.014672376
68	0xbd1c6c7d	-0.0381894
69	0x3c18223a	0.009285504
70	0xbb0f0eb3	-0.002182883
71	0x3d1b294f	0.03788119
72	0x3bfa9694	0.007647345
73	0xbcb6a0b1	-0.02229342
74	0xbb83d161	-0.0040227626
75	0x3d5afdaa	0.05346457
76	0x3ce39a68	0.027783588
77	0x3d762446	0.060093187
78	0x3bb8ae10	0.0056359842
79	0xbd5aa2e9	-0.05337802
80	0xbd8c19e0	-0.06840873
81	0xbd4b3026	-0.049606465
82	0xbc77caf8	-0.015124075
83	0xbccc0480	-0.02490449
84	0xbd7e953a	-0.062154032
85	0x3cb41034	0.021980383
86	0x3c25182f	0.010076567
87	0xbda8124a	-0.08206613
88	0xbad08956	-0.001591007
89	0x3c99bde0	0.018767297
90	0xbd57d191	-0.052690092
91	0xbcf90da7	-0.030402018
92	0xbd9601da	-0.07324572
93	0xbd41eb96	-0.047343813
94	0x3cb06454	0.021532215
95	0xbd1a9335	-0.037738044
96	0x3d30c950	0.043160737
97	0xbd6cfcca	-0.057858266
98	0x3c87954b	0.01655068
99	0x3d306952	0.04306919
100	0xbc11c5c9	-0.008897253
101	0xba429b80	-0.0007423684
102	0x3cf30294	0.029664315
103	0x3d007705	0.031363506
104	0x3d19c267	0.037538912
105	0x3cbb20d4	0.022842802
106	0x3c9570fc	0.018242352
107	0x3c31e8d8	0.010858737
108	0x3cf4183f	0.029796718
109	0xbc54b198	-0.012981795
110	0xbcaa5fa4	-0.020797558
111	0x3d04cdfb	0.032423
112	0xbd8471d9	-0.06467027
113	0x3bbe7c80	0.0058131814
114	0xbd257e14	-0.04040344
115	0xbcc36443	-0.02385152
116	0x3cc3ddaa	0.023909409
117	0xbd719cc2	-0.058987387
118	0x3d362cc2	0.044476278
119	0xbd721cd6	-0.05910953
120	0xbc090215	-0.008362313
121	0x3c8ce808	0.017200485
122	0x3bedea60	0.0072606057
123	0xbc1aa2b8	-0.009438209
124	0xbd03386e	-0.032036237
125	0x3d4375e4	0.04771985
126	0xbd3a9496	-0.04555186
127	0x3c8ccc94	0.017187394
128	0xbd6d3d70	-0.05791992
129	0x3d31ad70	0.043378294
130	0xbd028cf0	-0.03187269
131	0xbd1bd91c	-0.03804885
132	0xbbbb7080	-0.005720198
133	0x3cfbb0b4	0.030723907
134	0xbd63520a	-0.05549816
135	0xb8c00000	-9.1552734e-05
136	0x3d186549	0.037205968
137	0x3c285773	0.010274756
138	0xbd152db8	-0.036420554
139	0x3c94efc8	0.018180743
140	0xbd21c020	-0.039489865
141	0xbd56c038	-0.052429408
142	0xbd262757	-0.04056486
143	0x3c6c1160	0.014408439
144	0xbd401110	-0.046891272
145	0x3c82388d	0.015896106
146	0xbcc34f3c	-0.023841493
147	0xbd6495f7	-0.05580708
148	0x3cd92624	0.026507445
149	0xbd95a350	-0.0730654
150	0xbad69c00	-0.0016373396
151	0x3cade88f	0.021229057
152	0x3c5e62c0	0.0135733485
153	0x3c7cec50	0.015437201
154	0xbd1dc264	-0.038515463
155	0xbd444c2a	-0.0479242
156	0x3cfb44f6	0.030672532
157	0xbcfd9d54	-0.030958809
158	0xbcb73d90	-0.022368222
159	0xbd3c4758	-0.045966476
160	0x3d5b6c56	0.053570114
161	0x3c052420	0.008126289
162	0xbcb997dc	-0.02265542
163	0xbd20403b	-0.039123755
164	0xbd3d7906	-0.046257995
165	0xbd58922c	-0.052873775
166	0x3ca11233	0.019661998
167	0x3cdc5834	0.026897527
168	0x3d2dba16	0.042413794
169	0xbc67bee0	-0.014144629
170	0xbc1ee5b6	-0.009698322
171	0x3d13f828	0.036125332
172	0x3cb5429e	0.022126492
173	0x3d6187d2	0.05506117
174	0x3d6d430a	0.05792526
175	0x3d0dfc9e	0.034664743
176	0xbcb2d619	-0.021830605
177	0xbcb6292c	-0.02223643
178	0x3cd5f4c1	0.026117684
179	0x3d45a514	0.048253134
180	0xbcf1e4f8	-0.029528126
181	0xbc9dbab1	-0.01925406
182	0xbda9992e	-0.0828117
183	0x3cb60cbc	0.02222287
184	0xbc6a592f	-0.01430349
185	0xbcbf8ba8	-0.023382023
186	0x3c497720	0.012296468
187	0x3d249f6c	0.0401911
188	0xbd35971f	-0.044333573
189	0xbd0d2587	-0.034459617
190	0x3d5e5cfe	0.054287903
191	0xbd5bb9ca	-0.05364398
192	0xbd7f2098	-0.062286943
193	0xbd1af394	-0.03782995
194	0xbd64a7d8	-0.05582413
195	0xbd68b2a2	-0.056810983
196	0xbda96f94	-0.08273235
197	0xbd038c54	-0.03211625
198	0xbc962c90	-0.018331796
199	0xbd985ff3	-0.07440176
200	0xbd4f5d66	-0.05062618
201	0x3d770736	0.06030961
202	0xbcbf4b27	-0.023351265
203	0x3ccdf098	0.025139138
204	0xbd644f8e	-0.05573993
205	0x3d35bacc	0.044367597
206	0x3d36f604	0.044668213
207	0x3d5bc11c	0.05365096
208	0xbbd406de	-0.006470545
209	0x3c417178	0.011806838
210	0xbc6962b0	-0.01424472
211	0xbc0df480	-0.00866425
212	0xbbcf73b0	-0.0063309297
213	0x3cce585c	0.025188617
214	0xbd45f2ac	-0.048327133
215	0x3c894299	0.016755389
216	0xbc890e90	-0.016730577
217	0xbbe05864	-0.0068464745
218	0xbd784fe2	-0.060623057
219	0x3d35ceac	0.04438655
220	0xbca5c77e	-0.020236727
221	0xbb6c0de1	-0.0036019015
222	0xbd69b2b7	-0.0570552
223	0x3c80d584	0.015726812
224	0x3c0f6d20	0.008754045
225	0x3d046f24	0.032332554
226	0x3cfefec8	0.031127349
227	0xbb842dc0	-0.004033774
228	0xbd9c0aca	-0.07619245
229	0xbccad634	-0.024760343
230	0xbd086220	-0.033296704
231	0xbd334520	-0.043767095
232	0x3c9534c5	0.018213639
233	0x3c3b9c60	0.011450857
234	0xbd186bfc	-0.037212357
235	0x3ce5828c	0.028016351
236	0xbd75926e	-0.0599541
237	0x3c6e4bcc	0.014544439
238	0xbd59b762	-0.053153403
239	0x3c14de30	0.009086177
240	0x3d1f4bba	0.038890578
241	0x3cad3e44	0.021147855
242	0xbd0b724e	-0.034044556
243	0x3cf569f4	0.029957749
244	0x3d6422a3	0.055697095
245	0x3cbfc484	0.023409136
246	0xbc917494	-0.017755784
247	0xbd76077a	-0.060065724
248	0x3a262080	0.00063372403
249	0x3be599c6	0.0070068566
250	0x3cabfd1c	0.020994715
251	0xbc588bb8	-0.013216905
252	0xbd89099c	-0.06691286
253	0xbc2ddbb8	-0.010611467
254	0xbc1e2de8	-0.0096545
255	0xbd7f8dbe	-0.062391035

action_linear.bias f4 [256]
0	0xbdb3bf36	-0.08776705
1	0x3d6b9305	0.057513256
2	0xbc368fc2	-0.011142673
3	0x3e22bb2a	0.1589171
4	0x3e30d918	0.17270315
5	0x3de7f8d5	0.11326758
6	0x3de77789	0.113020964
7	0x3da67ccb	0.08129271
8	0xbb85b020	-0.0040798336
9	0x3db1a6f6	0.086744234
10	0x3e2578ea	0.16159406
11	0xbd358ef7	-0.044325795
12	0x3df74189	0.12073047
13	0x3e2dbad1	0.16965796
14	0x3dc4e4c3	0.09613945
15	0xbda00b8f	-0.078147046
16	0x3e0e804a	0.13916126
17	0x3df5c3f6	0.12000267
18	0x3db26533	0.087107085
19	0x3e2817aa	0.16415277
20	0x3dfe4044	0.124146014
21	0xbda87660	-0.08225703
22	0xbda39187	-0.079867415
23	0x3df32b8d	0.11873541
24	0x3e00a0ac	0.12561291
25	0x3dc72370	0.09723556
26	0x3e03b8d6	0.12863478
27	0xbd9ea1b1	-0.07745684
28	0x3e2c88dc	0.16849083
29	0x3cdb3633	0.026759243
30	0xbc49220e	-0.012276186
31	0xbd809426	-0.06278257
32	0xbd0fa637	-0.035070624
33	0x3db11e93	0.0864841
34	0xbd94d36c	-0.07266888
35	0xbc598642	-0.013276638
36	0x3d8c70b8	0.06857437
37	0x3e0a84e2	0.13527253
38	0xbba8595c	-0.0051376056
39	0x3e02332d	0.12714835
40	0x3d62e00d	0.055389453
41	0x3e199f05	0.15002067
42	0x3e1875f2	0.14888743
43	0x3dfb83b2	0.12280978
44	0xbd4f0412	-0.05054099
45	0x3e2a3801	0.16622926
46	0x3e21465e	0.15749499
47	0x3e14b259	0.14521159
48	0x3de17394	0.11008373
49	0xbdbc3568	-0.09189874
50	0x3d92d562	0.07169606
51	0x3dddfbb8	0.10839027
52	0x3cf4c21f	0.02987772
53	0x3e0eb634	0.13936692
54	0x3dbe9b41	0.09306956
55	0x3dbd655b	0.09247848
56	0x3e2a6c4c	0.16642874
57	0xbc9ad25c	-0.018899135
58	0xbcea14d7	-0.02857439
59	0x3e3667a3	0.17812972
60	0x3df30148	0.11865479
61	0x3e10343e	0.14082429
62	0x3dd7e8e9	0.10542471
63	0xbd5f10e5	-0.05445947
64	0xbd8cb0c0	-0.0686965
65	0xbd020480	-0.031742573
66	0xbbdf8158	-0.006820839
67	0x3e1b415b	0.1516165
68	0x3e1797c0	0.14803982
69	0x3d858ff8	0.065216005
70	0x3c4a67ee	0.01235388
71	0x3df46e80	0.11935139
72	0x3dabc214	0.08386627
73	0xbc5324c4	-0.012887184
74	0x3c0828bb	0.008310492
75	0x3d3b191a	0.045678236
76	0x3e28c89b	0.16482775
77	0x3dfe8f11	0.124296315
78	0x3ddc0bb9	0.107444234
79	0x3d91eea0	0.07125592
80	0xbcf8b378	-0.030359015
81	0x3d73132b	0.059344452
82	0x3e143a54	0.14475375
83	0x3dfd7ed2	0.12377705
84	0x3e3606c1	0.17776014
85	0x3e24c53c	0.16090864
86	0x3e03823b	0.12842648
87	0xba69d610	-0.00089201424
88	0xbb80d685	-0.0039318227
89	0x3e0c2949	0.13687624
90	0x3e2db3f0	0.16963172
91	0xbc549b05	-0.012976413
92	0x3db2a725	0.087232865
93	0xbd47dce3	-0.04879464
94	0xbac20eaf	-0.0014805401
95	0xbd6aaf0a	-0.057295837
96	0x3dfdd370	0.12393844
97	0xbe3f9221	-0.18708088
98	0x3df5c188	0.11999804
99	0x3d828550	0.063730836
100	0x3d9cadcd	0.07650337
101	0x3dbaa359	0.09113187
102	0x3df641dc	0.120242804
103	0xbd9ca92d	-0.07649455
104	0x3e0e054b	0.13869207
105	0x3dc40cc2	0.09572746
106	0xbc375ae3	-0.011191103
107	0xbd3c3e4c	-0.04595785
108	0xbd66c2e6	-0.056338213
109	0x3e132a8b	0.14371698
110	0x3e13ebbc	0.14445394
111	0x3e3d5a5c	0.184915
112	0x3e20199f	0.15634774
113	0x3dfb601b	0.1227419
114	0xbd727c80	-0.059200764
115	0x3d03b457	0.032154407
116	0x3e195437	0.14973532
117	0x3c6a5020	0.01430133
118	0x3e062771	0.13100983
119	0x3def3a7e	0.116810784
120	0x3d63cb55	0.055613834
121	0x3e211d6c	0.1573388
122	0x3d86ea16	0.06587617
123	0x3df6bbfa	0.120475724
124	0x3da63e90	0.081174016
125	0x3da8880a	0.082290724
126	0x3b0247b0	0.0019879155
127	0xbde344f9	-0.1109714
128	0x3e1e8a1c	0.15482372
129	0xbd8b55d0	-0.06803477
130	0x3df06215	0.11737458
131	0x3d616576	0.0550284
132	0x3e2870fa	0.16449347
133	0x3e1f2b0f	0.1554377
134	0x3d9176a1	0.07102705
135	0x3c7c8455	0.01541241
136	0x3e09fdf7	0.13475786
137	0xbde33040	-0.11093187
138	0xbbbffe3c	-0.0058591645
139	0x3d959365	0.07303504
140	0x3df25d19	0.11834163
141	0xbb31dbc6	-0.0027139052
142	0x3e0556fb	0.13021462
143	0x3e29e587	0.16591464
144	0x3d3d353c	0.046193346
145	0x3e2db466	0.16963348
146	0x3cc70ceb	0.024298152
147	0x3df580fd	0.11987493
148	0xbd126d62	-0.035748847
149	0x3e1c6082	0.1527119
150	0xbd755f76	-0.05990549
151	0x3e289dac	0.16466397
152	0x3e06f705	0.13180168
153	0xbe8d4b60	-0.2759657
154	0x3dafc45f	0.08582377
155	0xbd0469aa	-0.03232733
156	0x3e2222b6	0.15833554
157	0xbd2d3a2e	-0.042291813
158	0x3d924116	0.071413204
159	0xbcd03078	-0.025413737
160	0x3e25956f	0.16170286
161	0x3c21820b	0.009857665
162	0x3e250b6b	0.16117637
163	0x3b909172	0.0044118697
164	0x3dc4934a	0.09598406
165	0x3e143a78	0.14475429
166	0xbc40a6f1	-0.011758552
167	0xbd1ff1e6	-0.03904905
168	0x3e077ad1	0.13230444
169	0x3d9e6ebd	0.077359654
170	0xbe9dd252	-0.30824524
171	0xbdf69035	-0.12039224
172	0x3e1ce9f1	0.15323617
173	0x3e27ae6b	0.16375129
174	0x3ddc7ddd	0.10766194
175	0x3e028653	0.12746553
176	0xbc9821ce	-0.018570807
177	0x3e27ad45	0.16374691
178	0xbd8102ec	-0.062993854
179	0x3dd5551b	0.10416623
180	0x3d898392	0.06714548
181	0x3e13771d	0.14400907
182	0x3dbde3d9	0.09271974
183	0x3e088f2e	0.13335869
184	0xbd2776c4	-0.040884748
185	0x3e11dada	0.14243641
186	0x3e13091d	0.14358945
187	0x3ddaea3f	0.1068921
188	0x3e2d57b0	0.16927981
189	0xbc9df5a1	-0.019282164
190	0x3ce51c28	0.027967528
191	0x3dc09eca	0.094052866
192	0x3e06f188	0.13178074
193	0x3d73b094	0.05949457
194	0x3dee994d	0.116503336
195	0xbdbad7fc	-0.09123227
196	0xbd801e16	-0.062557384
197	0xbcb68bbb	-0.022283426
198	0x3e1a0c8b	0.15043847
199	0x3ddf3b52	0.10899986
200	0x3ddadc5e	0.10686563
201	0xbcdb3887	-0.026760353
202	0x3e30e79a	0.17275849
203	0x3db0f5cc	0.08640632
204	0x3e13e9cb	0.14444654
205	0x3df6cd5b	0.12050887
206	0xbd8a139a	-0.0674202
207	0x3db35c1c	0.08757803
208	0x3dd5dffb	0.104431115
209	0xbcce2091	-0.025162013
210	0x3c83214d	0.01600709
211	0x3d6fab30	0.058512866
212	0xbdb4ecb9	-0.08834214
213	0x3e3152fa	0.1731681
214	0x3da0bd39	0.07848591
215	0xbbbf4c97	-0.0058379876
216	0x3e1a9624	0.15096337
217	0xbd2da140	-0.042390108
218	0x3d3cf8cc	0.04613571
219	0x3e00e175	0.12586005
220	0xbd9e3235	-0.0772442
221	0x3dba740f	0.09104168
222	0x3c9a735c	0.018853836
223	0x3e0f4567	0.13991319
224	0x3dedbe1a	0.116085246
225	0x3e129850	0.14315915
226	0x3d6c2b92	0.05765874
227	0x3d818a1a	0.06325169
228	0x3e1b804b	0.15185659
229	0xbd21fb9e	-0.0395466
230	0xbbc95bf6	-0.006144996
231	0xbcc7aaa0	-0.024373353
232	0x3dff8f87	0.124785475
233	0xbd40f084	-0.047104374
234	0x3de1e66c	0.110302776
235	0x3e0101a9	0.1259829
236	0x3e21e522	0.15810063
237	0x3d9d1b5a	0.076712325
238	0xbd41ed0b	-0.047345202
239	0x3d8421d3	0.06451764
240	0x3debef7f	0.1152029
241	0x3d3b4a10	0.04572493
242	0x3e14bb87	0.14524661
243	0x3e25144e	0.16121027
244	0xbcb7b26b	-0.022423944
245	0x3ddee5f3	0.10883703
246	0x3dd33c5f	0.10314249
247	0x3dc8cd2d	0.09804759
248	0x3d9a3b7e	0.075308785
249	0x3e26ab0c	0.16276187
250	0x3e12813a	0.14307109
251	0x3dd2156d	0.10257993
252	0x3da84f92	0.08218302
253	0x3e1e5f5b	0.15466063
254	0xbd3d1143	-0.04615904
255	0x3c4fba1b	0.012678648

output_linear.weight f4 [1, 256]
0	0x3ccf8c36	0.025335412
1	0xbdca4aab	-0.09877523
2	0x3d12c2a1	0.035830144
3	0xbde75e6a	-0.11297305
4	0xbde54a5e	-0.11195825
5	0xbdeab0f6	-0.11459534
6	0xbde3032f	-0.110845916
7	0xbde741c6	-0.11291842
8	0x3b842eee	0.004033915
9	0xbde67c94	-0.1125423
10	0xbdd7ebc8	-0.105430186
11	0x3ef50d03	0.4786149
12	0xbe05a1c5	-0.13049991
13	0xbe01b52a	-0.12666765
14	0xbe0143ce	-0.12623522
15	0xbc8cd8f1	-0.01719329
16	0xbdf28a7e	-0.118428215
17	0xbde69303	-0.11258509
18	0xbdfb1aac	-0.12260947
19	0xbdecd1e8	-0.11563474
20	0xbe01842e	-0.12648079
21	0xbd1160c6	-0.03549268
22	0x3c51c9b8	0.012804441
23	0xbddcba14	-0.10777679
24	0xbe260beb	-0.16215484
25	0x3f20ccc1	0.6281243
26	0xbde4872d	-0.11158595
27	0x3d01345d	0.03154408
28	0xbde4d7ae	-0.1117395
29	0xbb4a8975	-0.0030904685
30	0xbc045a60	-0.008078188
31	0x3c4e2353	0.012581664
32	0xbbb63290	-0.0055602267
33	0xbe0aa240	-0.13538456
34	0xbc63e050	-0.013908461
35	0xba2f7203	-0.0006692709
36	0xbde965df	-0.113963835
37	0xbe12ce5d	-0.14336534
38	0x3cad3ef6	0.021148186
39	0xbdfd4b63	-0.123678945
40	0xbde16f1e	-0.11007522
41	0xbdf3ebfc	-0.11910245
42	0xbdf21673	-0.11820688
43	0xbdf4674b	-0.11933764
44	0x3c8e00ef	0.01733443
45	0xbdf41cea	-0.119195774
46	0xbdeee300	-0.116643906
47	0xbdfcb941	-0.12340022
48	0xbe1c8298	-0.15284193
49	0x3cd6c634	0.026217557
50	0xbddf96c0	-0.10917425
51	0xbde8c1d3	-0.11365094
52	0xbb9954fa	-0.0046793194
53	0xbe11899c	-0.1421265
54	0xbe2ec4f7	-0.17067324
55	0xbdf125e1	-0.11774803
56	0xbdf0bffd	-0.11755369
57	0x3eb6eed8	0.35729098
58	0x3cd1351f	0.025538025
59	0xbe063286	-0.1310521
60	0xbf327464	-0.6970885
61	0xbdfad167	-0.122469716
62	0xbdea3735	-0.11436311
63	0x3d128bdb	0.035777908
64	0x3c9d7699	0.01922159
65	0x3cced3ed	0.025247538
66	0x3ae0ac80	0.0017141253
67	0xbde6b4d8	-0.11264962
68	0xbdd6cf3b	-0.10488745
69	0xbeb0196c	-0.34394395
70	0xbb876aaa	-0.0041325884
71	0xbdee4b51	-0.11635459
72	0xbe000900	-0.12503433
73	0x3b3bc19e	0.002864934
74	0xbce2b10c	-0.027672313
75	0xbc081992	-0.008306878
76	0xbdf981d0	-0.12182963
77	0xbdfd0e84	-0.12356284
78	0xbdf3af3a	-0.11898656
79	0xbdec80cc	-0.115480036
80	0xbcd75223	-0.026284283
81	0xbdeea528	-0.11652595
82	0xbdde233a	-0.10846563
83	0xbde238e8	-0.1104601
84	0xbdfdba8a	-0.12389095
85	0xbdf2e3a7	-0.118598275
86	0xbde51fb8	-0.111876905
87	0x3c95e4f3	0.018297648
88	0x3ce1cde4	0.027563997
89	0xbdf5e0a1	-0.12005735
90	0xbdf75420	-0.120765924
91	0x3efddc32	0.49582058
92	0xbe2784ab	-0.16359203
93	0x3bf1b42d	0.007376215
94	0x3cbe6fc9	0.023246663
95	0xbb70b413	-0.0036728426
96	0xbdecb281	-0.115574844
97	0x3f7f741f	0.9978656
98	0xbdf37204	-0.11886981
99	0xbe02e913	-0.12784223
100	0xbde37a87	-0.111073546
101	0xbde45bf6	-0.11150353
102	0xbe02d474	-0.12776357
103	0x3c38a39e	0.011269478
104	0xbdd8b6e2	-0.10581757
105	0xbe0173bb	-0.12641804
106	0x3ec8d714	0.39226592
107	0x3b7beaf5	0.0038439606
108	0x3cd93e1b	0.026518872
109	0xbdfa5b01	-0.12224389
110	0xbdf3ac26	-0.11898069
111	0xbebe6b3b	-0.37191185
112	0xbdf1d2d5	-0.11807791
113	0xbe12adcb	-0.1432411
114	0x3fa1859b	1.2618898
115	0xbe525f61	-0.20544197
116	0xbe00ffe7	-0.12597619
117	0x3c78eac0	0.0151926875
118	0xbdef01f1	-0.11670292
119	0xbdde714c	-0.108614534
120	0xbfa5bb6c	-1.2947822
121	0xbe0b374f	-0.13595317
122	0xbddfea62	-0.10933377
123	0xbe25c086	-0.16186723
124	0xbdeb0e0f	-0.11477291
125	0xbefc8130	-0.49317312
126	0x3cbe4c2e	0.023229685
127	0x3f027886	0.50965154
128	0xbde5f9b3	-0.11229267
129	0xbc36158b	-0.011113535
130	0xbde5668c	-0.112012
131	0xbdd7f14e	-0.10544072
132	0xbe0a0a6d	-0.1348054
133	0xbeeb8e3a	-0.46006948
134	0xbf1b8ca5	-0.6076148
135	0x3bc2f2ab	0.0059493384
136	0xbdfff822	-0.124984995
137	0xbca7dd62	-0.020491306
138	0x3c97028a	0.018433828
139	0xbdf52d50	-0.11971533
140	0xbe1c7088	-0.15277302
141	0x3fcf10f3	1.6177047
142	0xbde1084c	-0.10987911
143	0xbeb0971e	-0.34490293
144	0xbf43e13d	-0.7651556
145	0xbdf53583	-0.11973097
146	0xbd254e2f	-0.040357765
147	0xbe2cb1bf	-0.1686468
148	0xbb1074f4	-0.0022042366
149	0xbdf1d5b8	-0.11808342
150	0xbb5fa995	-0.0034128178
151	0xbdfcfe15	-0.1235315
152	0xbdf42708	-0.11921507
153	0xbf7dd133	-0.9914734
154	0xbdf07e4a	-0.11742838
155	0x3f159c8b	0.5844199
156	0xbe012a4b	-0.1261379
157	0x3c88fb23	0.016721314
158	0xbdf65d80	-0.120295525
159	0x3c48fbf9	0.012267106
160	0xbdf881c3	-0.12134125
161	0xbc528978	-0.012850158
162	0xbe70ae0c	-0.23503894
163	0xbb6c278c	-0.0036034314
164	0xbdf895b5	-0.12137929
165	0xbe067f9f	-0.13134621
166	0xba431d32	-0.000744301
167	0x3ce05c16	0.02738766
168	0xbf29be08	-0.6630559
169	0xbe6477be	-0.22311303
170	0xbfbb0089	-1.4609538
171	0x3bfbac9e	0.0076804897
172	0xbdf7c9c1	-0.120990284
173	0xbdf2043a	-0.118172124
174	0xbe27d4ce	-0.16389772
175	0xbdf9e29e	-0.12201427
176	0x3caf7165	0.021416375
177	0xbdf88953	-0.121355675
178	0xbb925761	-0.004465983
179	0xbdde1424	-0.10843685
180	0xbddf28d2	-0.10896458
181	0xbdff0b1c	-0.12453291
182	0xbdfedff8	-0.124450624
183	0xbdd5bb5d	-0.10436127
184	0x3a7d018b	0.0009651414
185	0xbde6b13a	-0.11264272
186	0xbdf962fd	-0.12177084
187	0xbdf01dc9	-0.11724431
188	0xbdfb2ee1	-0.12264801
189	0x3ed21598	0.410321
190	0xbcac82cd	-0.021058464
191	0xbde21513	-0.11039176
192	0xbde3e92b	-0.11128458
193	0xbf8f867e	-1.1212919
194	0xbefc5682	-0.4928475
195	0x3c895bb3	0.016767358
196	0xbc52e31f	-0.012871533
197	0xbba27fbf	-0.004959076
198	0xbe033ed5	-0.12816937
199	0xbde0e041	-0.10980273
200	0xbe0bc13d	-0.13647933
201	0xbb80af0c	-0.003927117
202	0xbdf501b0	-0.119632125
203	0xbdf4b1cc	-0.119479746
204	0xbded3f37	-0.11584323
205	0xbdfade3c	-0.12249419
206	0x3cc83d0d	0.024443174
207	0xbde93208	-0.11386496
208	0xbe093e82	-0.13402751
209	0xbce270c2	-0.027641658
210	0xbb75b3fa	-0.0037491308
211	0xbf06c6cc	-0.5264709
212	0x3c1aef16	0.009456417
213	0xbde2a6ac	-0.110669464
214	0xbde1e480	-0.11029911
215	0xbbd1f6f4	-0.006407613
216	0xbe982155	-0.2971293
217	0x3c076fdc	0.008266415
218	0xbe175c46	-0.14781293
219	0xbdf7665f	-0.120800726
220	0xbfa42505	-1.2823797
221	0xbdee3f0e	-0.116331205
222	0xbe5d5401	-0.21614076
223	0xbde44ed4	-0.11147848
224	0xbde04f58	-0.109526336
225	0xbe06d18f	-0.13165878
226	0xc0227296	-2.5382438
227	0xbdcb8435	-0.09937326
228	0xbe17965a	-0.14803448
229	0x3ecff591	0.4061704
230	0xbb412c9f	-0.002947606
231	0xbca0917f	-0.019600628
232	0xbde9a815	-0.11409012
233	0x3c894cc9	0.016760247
234	0xbf307061	-0.68921477
235	0xbe04f479	-0.12983884
236	0xbe018b3e	-0.12650773
237	0xbdf8aad1	-0.12141956
238	0xbba77f5e	-0.005111619
239	0xbde6dd9c	-0.112727374
240	0xbf07b821	-0.53015333
241	0xbf2d0f79	-0.67601734
242	0xbdfa5654	-0.12223497
243	0xbdf86941	-0.121294506
244	0x3cb3e18f	0.02195814
245	0xbe2dd19f	-0.16974495
246	0xbe0cc71b	-0.13747828
247	0xbe063244	-0.13105112
248	0xbe099d41	-0.13438894
249	0xbded6173	-0.115908526
250	0xbdf47221	-0.11935831
251	0xbdca356e	-0.09873472
252	0xbdfc7da5	-0.12328652
253	0xbde40bdf	-0.11135077
254	0x3b8fe137	0.0043908614
255	0x3cd317a6	0.025768112
